ckpt/_lunarLander_checkpoint.pt (torch, 75087 bytes, 6 tensors)

layer1.weight f4 [128, 8]
00000000: 5f30 593e df4a 6e3e 6da8 4c3e 5e17 07bf
00000010: 2fdd d7be ae2f 0c3e 698d 39be 15c9 473e
00000020: 770b 7bbd d2d4 553d d0a9 f2bc d4cb 103d
00000030: 78cf aebf 90df 4a3e c73e ec3e c49c 98bd
00000040: b15d 42bf 8a78 e03d edb2 9bbe 3f53 afbe
00000050: 6740 223e 23e8 603e 0b3f d23d 596f a2bd
00000060: 17cf fcbe 7712 f23d d220 86be 72dd 0fbe
00000070: 8eb2 59be 613d 35bf 1e4e 04be 3aee 32be
00000080: 5746 013e 7544 3e3e c227 b23e 84c5 bebd
00000090: 3650 1cbd 50e0 cbbe 6caa d0be bae5 29bf
000000a0: b4a4 4abe b701 263e efc0 353e 385b 5dbe
000000b0: a3af a0be ac52 183f 8015 193f 872d 01be
000000c0: 6526 793e 0a51 db3e a9ba 24bf 4a14 01bf
000000d0: ca05 b13d d26f 5fbe d657 a7be e6e3 9cbe
000000e0: 4627 afbd 041c 7b3e ee32 133d 040a a9be
000000f0: f92a 1c3d 0e4f 04bf 8b9e eebe 92eb a63e
00000100: efce 533e cf8a 8d3e 3598 963e c426 a6bd
00000110: 741c 4abe 4498 21bf ffba f6bd 0d07 8a3e
00000120: c631 b4bc b837 5dbe e520 aabe 1275 69bd
00000130: 3b12 223f 143f a03e 1ae7 4b3e 5e77 31bf
00000140: 9f4d afbd de4b 513e 0362 b0be 7281 40be
00000150: 8720 6c3e bbdd f9be 2b1f 10bf d92b 693e
00000160: eee2 febe d476 afbe a805 9fbe e7af ffbe
00000170: f22b cf3c 4645 263e 4802 7b3e 6577 03be
00000180: 3d19 aebe 6230 fa3e 7452 debe ac79 ddbe
00000190: cfdc e03c 1fb4 a0be 6b6d 733d c3a8 d3bd
000001a0: 0a23 febd 0a1e ea3e aa3d 84be fccf 72be
000001b0: 4ee7 5e3d 9cb7 4cbf 07df a2be 8786 223e
000001c0: bc93 103e 8ba9 973e 8eb1 aebe 507a 9bbe
000001d0: f977 9fbe bc44 aa3e 3026 0f3f c313 803d
000001e0: 088f a6bd fd40 563e add5 3b3e 0823 efbe
000001f0: 2958 00bd b4e9 243f 6cf3 823e e5e1 55bd
00000200: eae8 cebb 5cc6 0f3f f1a1 6bbf 742c a9be
00000210: fb7e 033e c60a 8ebe 5f67 37bd d4b7 4f3e
00000220: 7bc2 1cbe 146c 8dbe 8bbc 45be 4e2b 9dbe
00000230: 369b 63be 5d01 563e 611f bd3e 7364 babd
00000240: 746b 0cbe 1264 f63e 75a2 92bd 3cad c4bd
00000250: 21f5 893e 40c5 4ebf 9d88 5abe 9f6d 053e
00000260: 1514 b6bc d33a 883e 54be 5d3e 95f0 583f
00000270: a38f a7be f1de 89be a330 a9be 4e07 c7bd
00000280: f8fb f7bd 8f4b 133f 7054 3c3f 2100 06be
00000290: 4db8 323f 84a5 f0bb db2f 3dbd d199 0dbe
000002a0: 19b1 d33e 3fb3 ce3e 5a8b 79be f96d 42bd
000002b0: 1ab0 fe3e cdcc 9e3e 92c8 a0be 9fe0 36bd
000002c0: 8f99 3f3e af00 2c3d 8b2a 12bf 8458 ddbd
000002d0: c71b 0f3f e1ca 09be 90be 89be 487d 483e
000002e0: a204 cabd 8b5b 843e 2b9b 07bf 6070 45bf
000002f0: 69ed 05bf ea26 523e 5d28 0fbe d575 29bf
00000300: bbba 1dbe 638f aa3e 2367 a53e ee08 06bf
00000310: ca3e ae3d 1299 3f3e fb9f 593e 2c45 36be
00000320: 2b77 c03e cf36 9a3e b524 053f 8ed6 1ebf
00000330: 808a 183f 6b0b 42be 4d59 7c3e 78b9 5dbd
00000340: 563c fd3d dad2 8b3e 9b45 5d3f 2149 273f
00000350: dedb 26bd b814 953e 14cc c33e 236d e5bb
00000360: 0275 1ebd dfc2 e2bd 0665 1e3e a60b 5ebc
00000370: d920 e4be 6940 3ebf 7454 df3d 5aaa d43e
00000380: 5fb3 55be 0227 de3d f8e7 33be 1ff7 a83e
00000390: 80f5 be3e 37c4 00be 5146 0bbf 3cc4 8fbd
000003a0: 12f1 a7be 1464 d03e d628 a5bd 680f 0ebf
000003b0: 2145 193e 6855 c8be ebdd 263e 005f fbbd
000003c0: cec3 20be 7d0e 6e3e eae8 71be f6e5 26bf
000003d0: 9561 d6be de30 3d3d 4506 e13d 5673 febe
000003e0: c2de 103e 7d10 443e a433 3c3e 5772 023f
000003f0: f8fc e3be f65e c9be 541a d4be 4a6f d93e
0.21209858 0.23270749 0.19986124 -0.5277003 -0.42160937 0.13690063 -0.1812035 0.195103
-0.06129023 0.052204914 -0.029621989 0.035350636 -1.3657064 0.19811845 0.46141645 -0.07451776
-0.7592421 0.10960491 -0.30409947 -0.342432 0.1584488 0.21963553 0.10265931 -0.07931394
-0.49376747 0.11819928 -0.26196915 -0.14049318 -0.2125952 -0.7079678 -0.12920424 -0.17473689
0.12624489 0.18580802 0.34795958 -0.09315017 -0.038162433 -0.39819574 -0.40755022 -0.6636616
-0.19789392 0.16211592 0.1774938 -0.21616828 -0.31384 0.5950115 0.5979843 -0.12615024
0.24331053 0.42835265 -0.6434732 -0.50421584 0.08643682 -0.2182 -0.326842 -0.30642623
-0.08552413 0.24522406 0.035937242 -0.33015454 0.03812692 -0.5168313 -0.46605334 0.326016
0.20684408 0.27644965 0.29413 -0.08112863 -0.19737417 -0.63122964 -0.120473854 0.26958504
-0.02199639 -0.21603286 -0.33228222 -0.056996413 0.6330907 0.31298125 0.19912377 -0.69322765
-0.08559727 0.20439097 -0.34449777 -0.1879938 0.23059283 -0.4880198 -0.5629756 0.22770633
-0.4978251 -0.34270346 -0.31059003 -0.4993889 0.02528951 0.16237363 0.24512589 -0.12838514
-0.3400363 0.48865038 -0.43422282 -0.4325689 0.02744904 -0.3138742 0.05943052 -0.10334923
-0.12409027 0.45726043 -0.25828296 -0.23712152 0.054419808 -0.79967666 -0.3181078 0.1587163
0.14118856 0.2962154 -0.34119838 -0.30366755 -0.3114622 0.33255565 0.55917645 0.06253769
-0.0813275 0.20923229 0.1834323 -0.46706414 -0.031334076 0.644191 0.2557634 -0.052217383
-0.0063143866 0.5616205 -0.9204398 -0.33041728 0.12841408 -0.27742594 -0.044776317 0.20284969
-0.15308563 -0.2762152 -0.19310205 -0.306971 -0.22227177 0.20898958 0.36938003 -0.091011904
-0.13712865 0.48123223 -0.071598925 -0.09603354 0.2694483 -0.8076973 -0.21341176 0.13030098
-0.022226373 0.2660738 0.21654636 0.847421 -0.32726774 -0.26927903 -0.3304492 -0.0971819
-0.12108606 0.5753717 0.7356634 -0.13085987 0.6981247 -0.0073439498 -0.046188217 -0.13828208
0.41346052 0.4037113 -0.24369565 -0.04746816 0.4974373 0.31015626 -0.31403023 -0.04464781
0.18710922 0.04199284 -0.57096165 -0.10807899 0.5590176 -0.13456298 -0.269032 0.19579041
-0.09864165 0.25851092 -0.5297114 -0.77124596 -0.52315384 0.20522657 -0.13980241 -0.6619542
-0.15403263 0.3331252 0.3230525 -0.52357376 0.0850807 0.18710735 0.21252434 -0.17799824
0.37590918 0.3011994 0.52009135 -0.62046134 0.59586334 -0.18949668 0.2464344 -0.054131955
0.12365024 0.27309304 0.86434335 0.6534596 -0.040737025 0.2911737 0.38241637 -0.0070015355
-0.038685806 -0.11072325 0.15468225 -0.013552582 -0.4455631 -0.7431703 0.1090478 0.41536218
-0.20869206 0.10847284 -0.17568958 0.33001038 0.37296677 -0.1257485 -0.5440417 -0.070198506
-0.3280111 0.40701354 -0.080644295 -0.5549226 0.14967777 -0.3912766 0.16295592 -0.12273979
-0.15699694 0.23247714 -0.23624006 -0.6519464 -0.41871324 0.04618918 0.10987524 -0.4969737
0.14147475 0.19146915 0.18379074 0.5095572 -0.44528937 -0.39330262 -0.41426337 0.4246772

layer1.bias f4 [128]
00000000: ae77 bc3b defa c73b ba2b 7dbd 98fe 15be
00000010: 3398 a83e a1e7 cb3d bc5c aebd eac7 a13e
00000020: 1272 67be 46d6 543e 1ebb a73e c771 17be
00000030: 4f0b 353e 5343 303e 0fac ae3e c0c2 783d
00000040: 8b22 21be a80b dfbd 7044 a23d 2005 763d
00000050: 123e a9bd 085f c93e 03e8 8e3d 88e0 6a3e
00000060: 4bde ca3e 2c7d 8f3e a4a7 b03d 5870 79bd
00000070: 99fb c6bd 3e35 0ebd edc8 713d d53b 323e
00000080: 0705 8b3d a26d 2e3e 0192 93ba 8048 073e
00000090: fc25 d7bd 6305 423b 60cd ee3e 33d0 40bc
000000a0: 161b cd3e 19c9 c23b 196b 6ebe c430 ae3e
000000b0: e125 a83c c993 ce3e 53e9 533d b45e 1b3e
000000c0: 4ed5 883e 33ee 853e 7423 28be e1f5 48bc
000000d0: 43af b6bd 024f 2f3e ba8b 98be 0029 c23d
000000e0: 70b3 88be 9099 66bd b42b 843e 052d 48be
000000f0: 21af a8be 526f 77bd 3272 c33e b841 ab3e
00000100: 3338 8fbd 2d85 cf3c fc9e fd3d 720d d93e
00000110: 6e49 a33e a66b db3e b42e 8c3e fadc f03e
00000120: c1a2 d3bd 43df d03e 959b b7bd 487e 193e
00000130: 7e75 463e 1a34 f63d 1ee2 883e a870 b73e
00000140: cfb0 df3e 7aa1 383b bf2a a03e 003c 3e3e
00000150: 32e6 1f3d baad aabb c369 843e ca55 9e3e
00000160: 5e64 a73e a3ff e03e f851 b7bb 0d08 bf3b
00000170: 93da af3d ceb8 7f3e 2f0d 903e 416a 853d
00000180: bce2 a53e 4887 8b3e 0ea0 58be f781 b93e
00000190: ba8e 743e a9f9 ba3e 290e 9a3d 64b1 5e3e
000001a0: 28b2 ad3d eecf 4d3d 6da8 93bd 8095 86be
000001b0: 8e78 09be 8977 c5bd c6af 983e 2225 ff3d
000001c0: ca53 e73d 2635 e93d c45d aa3e 6aea a33e
000001d0: 794b 023e 7cb6 6f3e 33f9 3dbc 1ef5 623e
000001e0: 7a5e 4a3e 0348 c23e 9536 2fbe 576f 8fbb
000001f0: a10c fc3e c8ac b23b c7e9 563e 17dc 493c
0.0057515716 0.0061029037 -0.06180928 -0.14647901 0.3292862 0.09956289 -0.085137814 0.31597835
-0.22602108 0.20784864 0.32759947 -0.14789496 0.17680095 0.17213182 0.34115645 0.060732603
-0.15735833 -0.10890895 0.0792321 0.06006348 -0.08263792 0.39330316 0.069778465 0.22937214
0.3962272 0.28025186 0.08625725 -0.060898155 -0.09715957 -0.034718744 0.05902951 0.17405637
0.06788068 0.17034009 -0.0011258723 0.1321125 -0.10505292 0.0029605262 0.46641064 -0.011768389
0.40059727 0.005944383 -0.23283042 0.3402158 0.020525875 0.40347126 0.051736187 0.15172845
0.2672524 0.26158294 -0.16419774 -0.012265653 -0.08920147 0.17119983 -0.29794103 0.094804764
-0.266994 -0.056298792 0.25814593 -0.19548424 -0.32946113 -0.060408898 0.38173062 0.33448577
-0.06993141 0.025332058 0.123838395 0.4239307 0.3189196 0.42855567 0.27379382 0.47043592
-0.10333777 0.40795335 -0.08965222 0.14989579 0.19380757 0.12021656 0.26735014 0.35828137
0.43689582 0.002817242 0.31282613 0.18577576 0.03903789 -0.005208698 0.2586194 0.30924827
0.32693762 0.43945035 -0.0055944882 0.005829817 0.085866116 0.24972841 0.28135058 0.06514407
0.32399547 0.2725165 -0.21154806 0.36231968 0.23882571 0.365186 0.07522232 0.21747357
0.08481246 0.050247125 -0.07209859 -0.26285934 -0.13424894 -0.0964194 0.29821604 0.124582544
0.11295278 0.113870904 0.33274662 0.3201478 0.12724103 0.23409456 -0.011595058 0.22163817
0.19762602 0.37945566 -0.17110665 -0.0043772864 0.49228385 0.005452726 0.20987616 0.01232054

layer2.weight f4 [128, 128]
00000000: 51b3 173d cf7e f93d 5b82 0abe 466e d1be
00000010: 0919 41bd 298f e8bd 1627 2fbd e866 983d
00000020: 29be 3a3e 5818 283e a72d cd3d 5ece aebc
00000030: 9e04 aabd 5a54 fc3d 34e8 d8bd 701e 7d3d
00000040: 138b b03d f621 2f3e ceb6 5cbd d59c 4a3d
00000050: fd6d d33e a860 f63d 5ea9 053f b504 adbe
00000060: 87ec 0bbd c398 673e 6c64 863d 3a08 5dbd
00000070: d7ad 8c3e 8ea1 79bc dd66 d3be 67d4 eabd
00000080: f78a 6cbd 45f7 2abe 2fc9 3abe a293 cabd
00000090: b2dc 303e 5a1c c83e ae01 b53a 406c c5bb
000000a0: 9b07 82bd 8f6f 10bd 5d1d 10bd 214f 00be
000000b0: be42 ee3e aa75 a2bc b16c 4e3e 927f 02be
000000c0: 55db 8dbe fd3a 263e d62e 8d3d 2a57 443d
000000d0: d262 fe3e b772 da3e b273 403c a178 1a3d
000000e0: e238 f13d 950f c33e 2668 543b 35ea 173c
000000f0: e3f7 da3d 5dff be3d 3326 babd b18b bb3e
00000100: fa24 a53e 51e2 dc3d 7eea 02be 9337 5c3e
00000110: 6d0c 61bd 50f4 5b3e a8ac 4bbe 8cce 5b3d
00000120: 537f 373f 741b 0fbe 2e15 cab9 d8d3 94be
00000130: a1e5 a93d 029d 843d 2715 77be e0ab f0bd
00000140: eec8 2ebe 4568 dc3e f946 fa3d 0e62 c73c
00000150: 99b1 55be b50e 17be a36e 4bbe de90 0a3e
00000160: b10b d03d 2f6a 823d df6c cc3e 9665 8fbe
00000170: 2708 1abe 47e9 bbbc a486 883d 0da9 923e
00000180: 6f4a d33c b6a8 333e 10f7 e1be b861 42be
00000190: 1779 443c ce81 39bd 5164 b6bd 0a3c c13e
000001a0: 772d ce3d c617 4d3f ffdd 16be d4b6 58bc
000001b0: b766 78bd 420b 333e 6376 16bf be44 873e
000001c0: 4782 453e 24b2 783e b6da e33e 4514 ad3d
000001d0: e8a5 fc3e ffd1 77bd 43f3 ca3b 7071 b1be
000001e0: f961 25bd faa6 243d e4fc 6d3d c72d 4bbd
000001f0: 5b3f 77bc 6b8a 19be 48ef 173f f73f 453e
00000200: a860 9e3e b67b 103f 5aff e5be 2ed5 f3be
00000210: 31c5 413e eeff 27bd d833 9e3e e723 483e
00000220: e17c 7dbc 4372 afbe dffb 8a3e 9559 ebbe
00000230: ff0f 4e3e 2c2a 6d3e 7bd2 393d ef9d 633d
00000240: 9b31 9b3e 1cf2 95be 1e44 453e 09c4 2ebe
00000250: 5f59 aa3e 9abf b33d cb48 bc3e 6758 f33d
00000260: 3f7b 473e 89c2 583e cd66 7dbd e6fb b6be
00000270: adfb f73e 4211 213e 74ac 3d3e 4a03 babd
00000280: 908d 57be f4f9 91be f8cd 3c3f a321 0d3d
00000290: 1255 4fbe 9723 843e ae18 8e3d 234b d93e
000002a0: e2d2 7c3d 0eb0 eabd 339d d3be 20b1 2b3e
000002b0: 775b c83e 7b88 153e 542c 7d3e 7a8b cabe
000002c0: e78c 383e 6448 cd3d 5c8c 543e 446d 453e
000002d0: c6c8 c63e 9345 163f 7a91 8bbe 06e6 2d3e
000002e0: 4b3c 21bd 5b0f 693e 8f58 1abe ba07 dabe
000002f0: f6c9 e83c aad5 6e3e 7974 79be d028 3b3e
00000300: d7cf 35be 5b3e 3c3f 3a39 903d b217 2d3e
00000310: 9563 cdbe c7f9 64be c32a 3c3e 33fc 0e3e
00000320: d1e1 103f 53f4 443e 14bf ef3d d850 d63d
00000330: 62e5 5ebe 053f babe 7622 1c3e 99de a6be
00000340: 927f 4e3e b51a 483e 5e30 52be 29de 343e
00000350: 2099 633e 1217 173e ae41 0cbe 8ba5 1a3d
00000360: 19be 253d 3c9b 413e 4c2d c03d 491f f3be
00000370: dcde 07be 3423 b5be 12c7 253e e155 1b3e
00000380: bc98 a03d 66bc 75be 2e78 10bf 28e3 6fbe
00000390: b190 b9be 37ff f8bd d9f9 65be afbb f8bd
000003a0: cd24 f4bd 8b80 683f 6110 e2be 98a8 823e
000003b0: 7e21 2b3e ffbf 883e 2abe 8c3d 59ef 73be
000003c0: 16a0 053e df68 693e 13e4 c73d e661 2b3e
000003d0: 009c 0a3e c8a1 853d d4af 4dbe 3e5b 3cbd
000003e0: ffd4 3d3e 7424 d33d 8520 c5be e3dd e93e
000003f0: 5cbb e33c 7814 223f a864 ca3e deb5 32be
0.037036244 0.1218239 -0.13526289 -0.40904444 -0.047143016 -0.11355431 -0.042761885 0.07441503
0.18236603 0.16415536 0.10018473 -0.021338638 -0.08301662 0.12320776 -0.10591164 0.061796606
0.08620276 0.17102799 -0.053885274 0.049465973 0.41294852 0.120301545 0.5221156 -0.33792654
-0.034161117 0.22616868 0.06562123 -0.053962924 0.2747638 -0.015236272 -0.41289416 -0.11466294
-0.057749715 -0.16695888 -0.18240808 -0.0989144 0.17271689 0.3908413 0.0013809705 -0.0060248673
-0.06349107 -0.03526264 -0.035184253 -0.12530185 0.46535295 -0.019831497 0.2015865 -0.12743977
-0.277064 0.1623344 0.06893699 0.04793469 0.4968477 0.42665645 0.011746334 0.037712697
0.11778428 0.38097826 0.003241071 0.009272148 0.10691812 0.093260504 -0.09089317 0.36630014
0.32254773 0.10785354 -0.12784764 0.21505575 -0.05494349 0.21479917 -0.19890082 0.053663775
0.71678656 -0.13975316 -0.00038544222 -0.29067874 0.08295751 0.06475259 -0.24129163 -0.117515326
-0.17068836 0.430483 0.12220568 0.024338748 -0.2086853 -0.14751704 -0.19866423 0.13531825
0.1015848 0.06367909 0.39926812 -0.2800719 -0.15042172 -0.022938384 0.06666306 0.286446
0.025792329 0.17544827 -0.44133806 -0.18982589 0.011991761 -0.045289807 -0.089058526 0.3774112
0.100672655 0.801144 -0.14733122 -0.013227183 -0.06064483 0.17484763 -0.58774394 0.26419634
0.19287978 0.24286705 0.445028 0.08451132 0.49345326 -0.060503002 0.00619355 -0.34656858
-0.040376637 0.040198304 0.058102503 -0.049604204 -0.015090789 -0.14994209 0.5934949 0.19262682
0.30933118 0.5643877 -0.4492138 -0.4762358 0.18922879 -0.041015558 0.3089893 0.19544946
-0.015471668 -0.34266862 0.27145287 -0.45966783 0.2012329 0.23160619 0.045366745 0.05557054
0.30311283 -0.29286277 0.19264266 -0.17066969 0.3327131 0.087767795 0.36774287 0.11882096
0.19480608 0.2116796 -0.061865617 -0.35739058 0.484342 0.1572924 0.18522817 -0.090826586
-0.21050096 -0.28511012 0.73751783 0.034455907 -0.20247295 0.25808403 0.06938301 0.42440137
0.06172455 -0.11459361 -0.4133087 0.16766787 0.39132282 0.14602844 0.24723941 -0.39559537
0.180225 0.10023573 0.20756668 0.19279963 0.38825053 0.5869991 -0.27259427 0.16982278
-0.03936414 0.22759764 -0.15072845 -0.4258402 0.028416615 0.23323694 -0.24360837 0.18277287
-0.17755066 0.73532647 0.07042165 0.1690357 -0.40115038 -0.22360907 0.18375687 0.13963394
0.5659457 0.19233827 0.11706367 0.104646385 -0.2176719 -0.36376205 0.15247521 -0.32591704
0.20165852 0.19541438 -0.20526263 0.17662872 0.22226381 0.14754894 -0.1369693 0.03775553
0.040464494 0.18906873 0.0938364 -0.47484806 -0.13268608 -0.3537842 0.1618922 0.15169479
0.07841632 -0.2399765 -0.5643338 -0.23426497 -0.36243203 -0.12158053 -0.2245859 -0.12145173
-0.11921082 0.9082114 -0.4415312 0.25519252 0.16711995 0.2670898 0.068722084 -0.23821773
0.13049349 0.22793911 0.097602986 0.16736564 0.13536072 0.06524998 -0.20086604 -0.045985453
0.18538283 0.10309687 -0.38501373 0.456771 0.0277993 0.6331248 0.3952992 -0.1745219

layer2.bias f4 [128]
00000000: 8c66 19bc ff2a 303e 4a75 b13d a394 0f3d
00000010: b522 4e3e f7bd 4b3e 4359 543d 3f86 293e
00000020: c3dc 3c3c 075b 343d dc94 c13d 6703 0a3e
00000030: 4ac4 123e 2c09 95bd 8660 3a3e b919 4c3d
00000040: 6695 913d 6e3f 8b3b f2ee e23c 0c10 483d
00000050: 1d32 ef3d b3c5 153e 8d9f 973d 8536 3abb
00000060: d814 9bbc 4a02 f2bb 2657 143c a1d9 923d
00000070: 9660 0e3e 6b09 c33c 092f d63d 644d 7f3d
00000080: 427b 893d 3b03 f03d 0173 043e cc75 efbc
00000090: bb3f 223e bdb0 db3d 20a8 563e d861 983d
000000a0: 9675 9f3d 2b40 293d 7fc7 67bd 06fc d1bd
000000b0: 16e6 e33d 7492 253e 4543 413e 41f4 153d
000000c0: ca87 e73d bb29 293d 928e 003e 7919 0c3d
000000d0: 524e 863d 3042 e73d fb45 053e 3fdc 083e
000000e0: a277 893c 5903 7a3d a037 db3d b9cd 05bc
000000f0: 9893 a63d 06f1 59bc 20db 86bd 5947 4e3d
00000100: 285c 0d3e d30a 503d 0e98 333e 2ddd e33d
00000110: 5a57 bd3c 7286 303e dfd4 a73d ab5b 1b3e
00000120: 0dac 083e d8f3 043d 9dcb 153e 3530 a93c
00000130: e8ed d23d 2dca 2ebd 6385 e93c 1456 ec3d
00000140: ae74 9b3c 91f4 923d 14ce d13d f2d9 b33d
00000150: a340 cb3c 33cb a43b 2d2b 133e 9f4d 443e
00000160: ddbd 953d 4dba 083e f524 2a3e cee3 fdbb
00000170: 63d7 813d 502c 2e3e 2e06 0e3e 36f1 d6bd
00000180: fb09 303d c926 ff3d 5452 123c 706c f53d
00000190: c0ca 9c3d 97a6 553d 6dfc f83c 37ac 413e
000001a0: 3032 133e 6866 173e 743f 083e 41da c73c
000001b0: aaf8 9c3d 0e32 823a 2107 c53d e1f9 973c
000001c0: b81c d9bd d950 023e bf7c 64bc 1b16 d03d
000001d0: 2920 b73d 119c ef3d 0d75 f5bc 6b4a 253e
000001e0: 2f90 ca39 837e 9f3d 1410 153e a7f0 f03d
000001f0: 80e2 aabc 20d1 ac3c b9b8 c23b 7dfb 523e
-0.009362828 0.17203902 0.08664949 0.03505386 0.20130427 0.19896685 0.05184294 0.16555117
0.011527243 0.044032123 0.09452221 0.1347786 0.14332691 -0.0727714 0.18200883 0.04982922
0.071085736 0.004249505 0.027701829 0.04884343 0.1167948 0.14626198 0.07403479 -0.0028413844
-0.018930838 -0.007385527 0.009053981 0.07170416 0.13904032 0.023808202 0.1045819 0.062329665
0.06712963 0.11719366 0.12934496 -0.029230975 0.15844624 0.107270695 0.20962572 0.07440537
0.077860996 0.04132096 -0.05658674 -0.10253148 0.1112787 0.16169149 0.18873318 0.03660989
0.113051966 0.041299563 0.12554386 0.03420398 0.06557907 0.11291921 0.13014977 0.13365267
0.016780678 0.06103835 0.10703969 -0.008166724 0.0813362 -0.013302093 -0.065847635 0.05036101
0.13804686 0.050791573 0.17538473 0.1112617 0.023112942 0.17238787 0.08194899 0.15171687
0.13346882 0.03245911 0.14628454 0.02065287 0.10299283 -0.04267328 0.028505987 0.115398556
0.018976536 0.071755536 0.102443844 0.08781804 0.024811095 0.005029106 0.14371939 0.19170235
0.07311604 0.13352318 0.1661566 -0.0077481037 0.0633991 0.17009091 0.13869545 -0.10495226
0.042978268 0.124585696 0.008930761 0.119835734 0.07655859 0.052160826 0.030393803 0.18913351
0.14374614 0.14785159 0.13305455 0.024396064 0.076646164 0.000993313 0.096205 0.018551769
-0.10601181 0.12726153 -0.013945757 0.10160466 0.08941681 0.11699689 -0.02996304 0.1614167
0.00038635868 0.07787802 0.14556915 0.11764651 -0.020859957 0.021095812 0.005942431 0.20603748

layer3.weight f4 [4, 128]
00000000: 85fc d73e 2f6c dc3e 592f 283f ca83 fc3e
00000010: 18f3 83be 0514 af3e adb2 8cbe c59f b83e
00000020: 1219 113f 72f5 d9be 0807 9b3e 4ea5 1a3f
00000030: 55b9 2cbf ed02 78ba 7f92 97be b40e d1be
00000040: 121f dd3b 4024 f2be cf38 083f 6f1c 1b3f
00000050: 7f83 acbe fac5 fbbd 4a97 b93e 8267 0dbf
00000060: df8a 59be 9911 083e eed8 df3e f65d cdbe
00000070: e9f3 e23e 4ae7 c23d 7f94 073f 7a86 c5be
00000080: 163d 0e3d a24c b93e 1f8f 263e 200d 70be
00000090: 649e cf3e 496a b53e 3710 8abe 6e2b 483f
000000a0: 93cd 093f 3621 233f 9923 1a3d fc37 2bbe
000000b0: 6710 cebe fa1d e13e 443c 9fbe d36a 003f
000000c0: 73a4 143f bac7 023f a35b a93e 1d78 253e
000000d0: 010d 02bf 7f4c c43e 2156 003f cb75 213f
000000e0: f6f3 5f3e 0a18 d03d 41f6 263e cc52 89be
000000f0: 735c ca3e f873 813d eba6 1f3f 0932 f73e
00000100: b793 c73e 54ed 7ebe 010a 923e 11cc 083f
00000110: b9ad 0d3f e474 9c3e 1bea aabe 0bdd b03e
00000120: 3d91 bfbe 18a3 d53e 2fc1 943e 1cea dcbe
00000130: 429f babe 4ef0 1a3f 1c61 acbe 3415 c13e
00000140: bf70 bd3e a4bf f73e 6874 cc3e 8e5b ad3e
00000150: 7cfe 1a3f 9dcd a43e dd97 473f 28e7 81be
00000160: b10d 983d bbab a8be 12ec 14bf ff9c f33d
00000170: 7f3f 153f 03f3 a0be 8f53 bfbe c16b abbe
00000180: c514 39be e8bd 80be ffc7 c53e 9c8d 89be
00000190: da6a 2a3f d318 e6bd c962 343f 0af6 2abf
000001a0: d426 adbe 3788 a0be 9c55 a5be fcc9 643e
000001b0: 635a 0c3f 1581 e93e f425 d7be e228 983d
000001c0: 8d0c 8b3e e3e8 193e 6086 1dbd f420 c6bd
000001d0: 840d a0be 9595 1a3f 3ae3 3c3d 0e67 823e
000001e0: 86cb 943e a21a ddbe 2fb2 5e3f df74 183f
000001f0: b0ab a1be 0245 a1be ed2f 0c3f 9fbe a0be
00000200: 4ec3 413e 8824 9e3e 2b78 2f3f f3cd 863e
00000210: fbd9 c6be 56bf 9b3e 265c 92be e743 5f3e
00000220: 6312 1b3f 49a2 bcbe 42bb 0a3e 4a19 263f
00000230: ed36 26bf 9afa 27bd 4b3c f2bd 6469 75be
00000240: f76c 043e 49c5 e8be 37d1 023f 85e5 f73e
00000250: b18e 86be 44a9 cebe aed4 c73e 6e31 1bbf
00000260: 9ca5 44be 5d74 8dbd b337 093f d9dd 9fbe
00000270: 2002 0d3f 78cc 83bc 2af5 023f b9a9 cfbe
00000280: 88b5 b23d 614d b73e b78c 6e3e fe10 8cbe
00000290: dfda ac3e 0732 783e 12a9 d4be 3127 0b3f
000002a0: 1e85 1c3f c1e9 8e3e 8267 0c3e e420 8fbc
000002b0: bada aebe 338a b83e 488a 35be 9b74 d73e
000002c0: f6df 083f 8994 163f 6932 183e 203f 5b3e
000002d0: 9354 ffbe 38b5 073f 39ba 053f 3f3e 163f
000002e0: 22d8 e03d 994a 5b3e c9e2 4d3e 8e3c 9ebe
000002f0: b93c ff3e a3b3 01bd 211c 313f 01e6 223f
00000300: dec3 d23e 2cab 21be 40ad ff3d f1d6 0e3f
00000310: 4067 ea3e 8db6 c13e 6288 98be fd00 a53e
00000320: fa6a aabe bf6d ea3e 89d6 ac3e 9e79 0abe
00000330: 1a32 7bbe ff6f 393f 3bd9 65be fff4 d83e
00000340: 042a 843e 1924 d83e e4ef c53e d74c c83e
00000350: 23f3 2b3f 1e77 a33e ad55 323f 6056 cfbd
00000360: e838 163e 636d c8be 577e 5fbf 2833 843e
00000370: 90b8 1f3f 3539 cebe d66a a8be 82af 92bd
00000380: 2820 04bf 6fa9 22be bc21 013f f3dd cfbe
00000390: 2697 2a3f bc20 dcbe 927f 1e3f 8c90 a3ba
000003a0: 6242 ccbe 996f 6abe c107 efbe 6e8f d13e
000003b0: 8385 e83e 3d93 1f3f 1797 c6be 36f4 5a3d
000003c0: 086d 253f a846 673d af2b e03d f07a 37be
000003d0: 7197 99be 8c8c 1b3f 2c3f 58bd b8bd 493e
000003e0: 989e 0c3f 8ec3 57bf e984 1e3f c95f 0c3f
000003f0: f5ba 8cbe 8341 3cbe f127 133f dddc c6be
0.42184845 0.43051288 0.65697247 0.49319297 -0.25771403 0.3419496 -0.2748007 0.36059394
0.5667888 -0.42570072 0.30278802 0.60408485 -0.67470294 -0.0009460885 -0.29603955 -0.4083153
0.0067480886 -0.47293282 0.53211683 0.6059026 -0.33694074 -0.122936204 0.36248237 -0.55236065
-0.21244381 0.13287963 0.43720192 -0.4011075 0.44326714 0.09516771 0.5296096 -0.3857916
0.034726225 0.3619128 0.16265534 -0.23442507 0.4055053 0.35432652 -0.26965496 0.7819127
0.53829306 0.6372255 0.037631605 -0.16720575 -0.4024689 0.43968183 -0.31100667 0.50163
0.5806343 0.5108601 0.33077726 0.16159101 -0.5080109 0.38339612 0.5013142 0.6307036
0.21870407 0.10160835 0.16304876 -0.26820982 0.39523658 0.063209474 0.6236407 0.4828036
0.38979885 -0.24895221 0.28523257 0.5343638 0.55343205 0.3055793 -0.33381733 0.34543642
-0.37415496 0.41725993 0.29053637 -0.4314736 -0.3644963 0.60522926 -0.3366784 0.3771149
0.3700008 0.48388398 0.3993256 0.33858913 0.6054456 0.3218812 0.779661 -0.2537167
0.074244864 -0.3294352 -0.58172715 0.11895179 0.5830001 -0.31435403 -0.37368438 -0.33480647
-0.18074329 -0.25144887 0.38629147 -0.26865852 0.6656929 -0.112352036 0.70463234 -0.66781676
-0.33818686 -0.31353924 -0.32291877 0.22342676 0.5482542 0.45606294 -0.42021143 0.07429673
0.27158013 0.15030245 -0.038458228 -0.09674254 -0.31260312 0.60384494 0.046115138 0.2546925
0.29061526 -0.43184382 0.86990637 0.5955333 -0.315763 -0.3149796 0.5476063 -0.31395432
0.18922159 0.30887246 0.68542737 0.26329002 -0.3883818 0.30419415 -0.2858593 0.21803246
0.6057493 -0.36842564 0.13547996 0.6488234 -0.6492756 -0.041010477 -0.11827906 -0.23965985
0.12932192 -0.45463017 0.51100487 0.48417297 -0.2628074 -0.40363514 0.3902945 -0.606223
-0.192038 -0.0690696 0.53600615 -0.31223944 0.5508137 -0.01608871 0.5115534 -0.40559176
0.087260306 0.35801223 0.23295866 -0.27356714 0.33760735 0.24237834 -0.4153524 0.54356676
0.6114062 0.27912715 0.1371136 -0.017471738 -0.3415125 0.36042938 -0.17728531 0.4208115
0.5346674 0.58820397 0.1486298 0.21410799 -0.49869213 0.5301089 0.5223728 0.5868873
0.10978724 0.21415175 0.20106043 -0.30905575 0.49851015 -0.031665456 0.69183546 0.6363221
0.4116506 -0.15787953 0.12484217 0.55796725 0.45781898 0.37834588 -0.29791552 0.32227316
-0.33284742 0.45786855 0.33757427 -0.13522956 -0.24530831 0.7243652 -0.22446148 0.42374417
0.25813305 0.4221504 0.38659585 0.39121124 0.6716787 0.31926817 0.6966198 -0.101238966
0.14670146 -0.39145955 -0.87302154 0.2582028 0.62390995 -0.4027802 -0.3289401 -0.07162382
-0.51611567 -0.15884946 0.504421 -0.4059902 0.66636884 -0.42993724 0.61913407 -0.0012478991
-0.39894396 -0.22894134 -0.46685603 0.4092974 0.4541436 0.6233404 -0.38787147 0.053455554
0.64619493 0.056463867 0.10945832 -0.1791799 -0.29998353 0.6076133 -0.05279462 0.19701278
0.54929495 -0.8428277 0.61921555 0.54833657 -0.27486387 -0.18384366 0.5748282 -0.3884038

layer3.bias f4 [4]
00000000: c4a7 173d 716d 1f3d 8f59 50bc cd33 14bc
0.03702523 0.03892273 -0.012716665 -0.009045553
