ckpt/_lunarLander_epoch1000_final.pt (torch, 75127 bytes, 6 tensors)

layer1.weight f4 [128, 8]
000000 f0 b8 28 be 08 3f 7b 3e 96 f4 8f 3e 6d 8d ee be
       -0.16476798 0.24535763 0.28116292 -0.46592274
000010 50 f2 d8 be 35 d5 b0 bc 76 bc 4d be 37 90 03 3e
       -0.4237237 -0.02158604 -0.20091423 0.12847982
000020 eb 6b a1 ba eb 8c 4b bc ea da bc bb fe ab dc 3c
       -0.0012315487 -0.012423734 -0.0057634013 0.026937481
000030 d9 de b6 bf e1 93 03 3d cb 4e ca 3e 35 c9 89 bc
       -1.4286758 0.03212345 0.3951324 -0.016819576
000040 13 a9 8a bf 95 a1 1a 3e 24 52 86 be c2 88 25 be
       -1.0832847 0.15100701 -0.26234543 -0.1616545
000050 3d ea d6 3d f2 2d 98 3b c4 a1 18 3d 5f ba ca 3d
       0.10493896 0.004644149 0.037263647 0.09898829
000060 ee 91 f6 be 35 9d 97 3d 68 77 63 be 7a 04 d1 bc
       -0.4815821 0.07403032 -0.22213519 -0.02551483
000070 2a a6 34 be 96 cd d0 be fd ff 62 be 10 61 43 be
       -0.17641512 -0.4078185 -0.22167964 -0.19079995
000080 09 eb b1 3d d6 07 1e 3e 00 20 97 3e 61 b8 fb bd
       0.086874075 0.15432677 0.29516602 -0.12291027
000090 1d b7 ef bc 04 e5 4f be 38 9a d3 be 1b 1b 08 bf
       -0.02926212 -0.20302206 -0.41328597 -0.5316636
0000a0 82 f0 b6 bd 62 7e f3 3d c5 8b 13 3e d5 98 17 be
       -0.08932592 0.1188934 0.14408787 -0.14804395
0000b0 53 74 a0 be ff 78 db 3e 67 59 05 3f 63 8e 71 3d
       -0.31338748 0.4286575 0.5208954 0.05897368
0000c0 86 ce 30 3e 58 86 ec 3e 94 bc 04 bf 0c 4c fc be
       0.17266282 0.46196246 -0.5185025 -0.4927677
0000d0 9f e9 2c 3e e3 60 47 be 30 ae f8 be e8 03 bd be
       0.16885994 -0.19470553 -0.48570395 -0.36917043
0000e0 4a 99 d6 bd 2a d3 54 3e c0 29 c1 3d 99 17 ac be
       -0.10478456 0.20783678 0.09431791 -0.33611754
0000f0 63 75 33 3d 9e bc 4e be d4 e9 cf be 47 3c 98 3e
       0.04381312 -0.20189139 -0.40608084 0.29733488
000100 e0 a5 46 3e 00 4e 7d 3e 63 61 09 3e bf 36 17 bd
       0.19399214 0.24736786 0.13416056 -0.036917444
000110 e1 79 2d bd 9a 53 f3 be 23 47 7d be 1a 4d c3 3e
       -0.04235256 -0.4752472 -0.24734168 0.3814476
000120 bf 63 53 be 35 cc 1a be a2 18 7d bd d6 a5 07 bd
       -0.20643519 -0.15116961 -0.06179107 -0.033117138
000130 8c 19 c5 3e ee 6c a3 3e 50 df a5 3e 99 be 13 bf
       0.38496053 0.31919044 0.32396936 -0.57712704
000140 a9 e4 35 3c f1 6e 2d 3e 0c 87 b6 be f7 d8 5e be
       0.01110188 0.16936852 -0.35649908 -0.21762453
000150 77 44 2c 3e b4 89 ec be a3 1d f1 be 6d 19 55 3e
       0.16822992 -0.4619881 -0.47092924 0.2081048
000160 bc 06 0b bf ad db 03 be dd e2 aa be ea a6 b9 be
       -0.5430715 -0.12876768 -0.33376208 -0.36260158
000170 37 c9 c9 bd a9 6c 20 3e 3c c6 5c 3e cf bb 57 bd
       -0.09852832 0.1566645 0.21559995 -0.052669343
000180 b2 1b a4 be 6b 6e d7 3e 9f 48 e2 be 3d be c6 be
       -0.3205238 0.4207643 -0.4419603 -0.38817015
000190 6e f2 47 3d 69 3a 87 be 15 13 bf 3c 48 83 a3 bd
       0.048815183 -0.2641175 0.023324529 -0.07984024
0001a0 ef 9e 15 3d aa 2b c2 3e 3a f1 84 be e2 19 84 be
       0.036528524 0.37923938 -0.2596529 -0.25800997
0001b0 dc 1f 41 3d 63 91 5c bf f2 94 71 be 41 8c 46 3d
       0.047149524 -0.8615934 -0.23591974 0.0484736
0001c0 d0 90 a8 3d a7 b6 88 3e f2 ee d2 be 60 35 8e be
       0.08230746 0.26701853 -0.41197926 -0.27775097
0001d0 8a 09 9a be 26 ea 18 3e 7e ef f1 3e 5b 0f 80 bc
       -0.30085403 0.1493307 0.4725303 -0.015632322
0001e0 72 b5 f0 bc 7d 0e 2b 3e 5f a1 ee 3d 46 25 f7 be
       -0.029383395 0.16704746 0.11651873 -0.48270625
0001f0 2c 57 82 3b 77 4b 06 3f 18 d0 60 3e 06 74 76 3c
       0.003977677 0.524589 0.21954381 0.015042311
000200 46 5a fe bd 40 03 0d 3f 26 60 67 bf 22 f4 87 bd
       -0.12419562 0.55083084 -0.90381086 -0.066383615
000210 97 1a 84 3e 5a 97 cb bd b5 97 37 be 6a c7 e0 bc
       0.25801536 -0.099409774 -0.17928965 -0.027438838
000220 fc 19 cf bd ff 25 74 be 3a 19 60 be ec 4d ab be
       -0.10112378 -0.2384262 -0.21884623 -0.33457887
000230 1b b3 7b be 33 13 36 3e 58 3f a9 3e 80 5b ff bd
       -0.24580042 0.17780761 0.3305614 -0.12468624
000240 6e 7f a5 bc 0d 6e dd 3e 7a a2 d5 bd b0 11 1d be
       -0.020202365 0.43248025 -0.104313806 -0.15338778
000250 ce 4e 5c 3e 74 fc 79 bf 5c 6a 40 bd e2 99 16 bd
       0.21514437 -0.9765084 -0.046976432 -0.036767848
000260 91 9d c7 3d 36 49 0e 3e 23 17 74 3e 0d 25 5c 3f
       0.0974685 0.13895115 0.23836951 0.85994035
000270 7c d3 9a be 22 59 b5 bd 1e d0 96 be 0f b9 b7 bd
       -0.30239475 -0.08854891 -0.29455656 -0.08970844
000280 2f 98 6f bd 23 2a cb 3e 94 4b 4c 3f 91 e6 59 3e
       -0.058494743 0.39680585 0.79802823 0.2127936
000290 ba 49 a8 3e 5c 98 6d 3d 3f 8b db 3d 0b 80 b3 3c
       0.3286875 0.05800663 0.107199185 0.021911642
0002a0 f6 df 79 3e bf b9 a1 3e af cd b8 be da 07 0f bd
       0.2440184 0.31587026 -0.36094424 -0.034919597
0002b0 4d 00 fc 3e 29 db b4 3e 59 1d 1a be 2d a8 6d 3a
       0.4921898 0.35323456 -0.15050258 0.00090658927
0002c0 44 bf 1c 3e 95 13 07 3e cc 12 f1 be 89 5f 9e 3c
       0.15307337 0.13191064 -0.47084653 0.019332664
0002d0 db db 1f 3f 62 24 0d be 8d 74 57 be 16 c2 a5 3d
       0.6244485 -0.1378341 -0.21040554 0.080936596
0002e0 dd 5c 7c bd 01 d3 3a 3e 8d 67 e5 be da d7 56 bf
       -0.061612 0.18244554 -0.44805565 -0.83923113
0002f0 16 2d 0a bf b5 6c 12 3e 64 44 b5 bd 06 1d 08 bf
       -0.53975046 0.14299281 -0.08850935 -0.53169286
000300 d1 72 73 be 4d fc 8f 3e 77 f1 a6 3e bd bc 01 bf
       -0.23774268 0.28122178 0.32606098 -0.50678617
000310 93 79 59 3d 18 b6 1b 3e 31 02 14 3e 54 ff 35 be
       0.053094458 0.15206182 0.14453961 -0.17773181
000320 f1 46 3b 3e 66 44 86 3e 7a 2f fd 3e 18 c9 18 bf
       0.18288781 0.2622406 0.49450284 -0.59681845
000330 d9 44 0c 3f f8 f8 ff bd 17 3a 54 3e 96 c0 01 bd
       0.54792553 -0.12498659 0.20725285 -0.031677805
000340 1e e4 3e 3d b0 33 1e 3e 20 36 49 3f 74 dd 3b 3f
       0.04660427 0.15449405 0.78598213 0.73384786
000350 14 47 8c bd a7 0b 95 3e 9d 03 69 3e 4d 4a e1 bc
       -0.068494946 0.29110453 0.22755285 -0.02750125
000360 8d 53 05 3d 22 56 9e bc 67 3e 49 3d d7 a9 28 bd
       0.032550383 -0.01932818 0.049131777 -0.041177597
000370 5e 0c 04 bf 14 f4 2d bf 91 75 06 3e b8 22 c6 3e
       -0.5158137 -0.6795056 0.13130786 0.38698363
000380 4c 79 e4 be 49 fa d9 bb b4 64 97 be 8d 35 c3 3e
       -0.44623792 -0.006652151 -0.29569018 0.38126794
000390 68 c2 59 3e f2 6a c6 3d 30 b7 e2 be c9 ff 28 3e
       0.21265566 0.09688367 -0.44280386 0.16503824
0003a0 cb 41 aa be b7 4e d8 3e 07 99 be bd 41 67 c4 be
       -0.3325332 0.42247555 -0.093065314 -0.38360026
0003b0 c9 1c 8d 3e 72 73 a9 be 10 02 0f 3e ed e3 b4 bd
       0.27561024 -0.3309589 0.1396563 -0.08832536
0003c0 34 56 53 be a6 7b 12 3e a3 32 28 be 89 72 27 bf
       -0.20638353 0.1430498 -0.16425566 -0.6540914
0003d0 ca 44 fb be 6e 6b c4 be 96 47 17 be ce bb 05 bf
       -0.4907592 -0.38363212 -0.14773402 -0.5223969
0003e0 9b 0e 4d 3e 2c e7 3f 3e fe 40 1d 3d 78 e1 f6 3e
       0.20025103 0.18740529 0.03839206 0.48218894
0003f0 73 2a a2 be ea 2f a6 be 41 a4 9c be a1 6b c3 3e
       -0.3167301 -0.3245843 -0.30594066 0.38168052

layer1.bias f4 [128]
000000 66 d2 54 bb 30 e0 b7 3c fe c8 15 be 53 04 01 be
       -0.003247404 0.022445768 -0.14627454 -0.12599306
000010 99 e3 9c 3e c4 49 c7 3d 83 2f 54 bd 87 fd 87 3e
       0.30642393 0.097308666 -0.051803123 0.26560614
000020 1f cf 87 be 1a d5 74 3e 3c c5 8c 3e 5d a3 e4 bd
       -0.26525208 0.23909417 0.27494228 -0.111639716
000030 e8 0a 1d 3e 66 60 4a 3e b1 c2 84 3e 0a a2 d7 3d
       0.15336192 0.19763336 0.25929788 0.105289534
000040 5b 5c 2b be 81 f1 70 bd b7 ed 6b 3d 95 ff b1 3d
       -0.1673445 -0.058824066 0.05759975 0.086913265
000050 8f 77 71 be 4f a1 bf 3e 96 15 16 3e a5 1e 52 3e
       -0.23580764 0.37427756 0.14656672 0.20519502
000060 7f 84 b4 3e 07 47 7f 3e b6 2d 99 3d 28 ac 98 3c
       0.35257336 0.24929439 0.07479422 0.018636778
000070 2b cb ce 3c fe 90 26 be 15 a6 2c 3d c1 c1 47 3e
       0.025243362 -0.16266248 0.042150576 0.19507505
000080 e1 43 06 3e cf 6e 12 3e 49 71 49 bd 92 e9 72 3e
       0.13111831 0.14300083 -0.049180303 0.23721913
000090 95 b3 e9 bc ab ee 1b bb c2 0a cd 3e 94 cd 3b 3c
       -0.028528014 -0.002379338 0.4004727 0.011462588
0000a0 64 3a b1 3e ea bb 04 3d fd 33 45 be 79 cb a8 3e
       0.3461486 0.03240577 -0.19258113 0.32967737
0000b0 36 0a 1d 3e 9e e7 ba 3e 99 f1 d0 3c 40 d3 f8 3d
       0.15335926 0.36504835 0.025505828 0.12149668
0000c0 44 f4 45 3e 9c 7f 86 3e e6 b6 5a be 9b 84 8e bd
       0.19331461 0.26269233 -0.21358833 -0.06958886
0000d0 21 2c d1 bc eb 6b 7c 3e 43 b0 b1 be 0c 17 2f 3e
       -0.025533738 0.24650542 -0.3470479 0.17098635
0000e0 2e 02 5b be fb a0 36 bd 90 2d 14 3e a8 ea 4e be
       -0.2138755 -0.044587117 0.14470506 -0.20206702
0000f0 7e 61 91 be 81 80 2d be 50 40 b8 3e f2 e2 92 3e
       -0.28394693 -0.16943552 0.35986567 0.2868877
000100 38 4b de 3b c7 e6 4a 3b 5c 2e da 3d e3 5b bb 3e
       0.006783869 0.0030960308 0.106533736 0.36593542
000110 db 49 98 3e af 53 df 3e 48 9a 8b 3e c2 a2 c9 3e
       0.29743847 0.43618533 0.27266145 0.39381987
000120 1e 2a 0d be 17 25 af 3e b7 6a 07 be 5f 4b f3 3d
       -0.13785598 0.34207985 -0.13224302 0.1187961
000130 51 c1 3c 3e d7 ac 1f 3e bd bc 77 3e a5 6b ba 3e
       0.1843312 0.15593277 0.24193092 0.3641025
000140 4b 90 c2 3e 57 17 b6 3d 6b 51 95 3e 67 e0 fc 3d
       0.38000712 0.088911705 0.2916368 0.12347489
000150 bc 4d a6 3d 19 7d 15 bc 00 64 5a 3e 34 4f 80 3e
       0.081202954 -0.009124064 0.2132721 0.25060427
000160 34 65 9a 3e c1 75 c4 3e ac 40 8a bb 05 59 c9 3c
       0.30155337 0.3837109 -0.0042191353 0.02457858
000170 36 47 b1 3d 45 1c 46 3e 09 a9 53 3e ee d7 5a 3d
       0.086561605 0.19346721 0.2066995 0.053428583
000180 53 6d 93 3e 31 6a 7f 3e cd 1b bd bd 50 be bd 3e
       0.28794345 0.24942853 -0.09233818 0.3705926
000190 1a 54 76 3e 63 ae 9a 3e 60 48 2d 3d c5 c2 79 3e
       0.2405552 0.30211172 0.04230535 0.24390705
0001a0 c2 4c a4 3d 07 57 ac 3d 0c 02 ef bd 3e 3e 5e be
       0.08022453 0.08415037 -0.11670312 -0.21703431
0001b0 f3 e1 4d be c1 ea 1a be f5 6b 98 3e dd 33 1f 3e
       -0.20105724 -0.15128614 0.29769865 0.15547128
0001c0 00 f3 de 3d 0a be f2 3d b0 aa 9d 3e f0 72 92 3e
       0.10886192 0.11852653 0.30794287 0.28603315
0001d0 23 37 0d 3e 34 88 63 3e f8 3e 09 3d 84 20 24 3e
       0.13790564 0.22219926 0.033507317 0.16028029
0001e0 17 ab 2a 3e 75 07 a3 3e ab 6f 50 be 01 4b 44 3d
       0.16666828 0.31841627 -0.20355098 0.04792309
0001f0 83 50 d3 3e ce af 15 3c 2a ee d7 3e 3b d5 1f 3d
       0.41272363 0.009136153 0.42173892 0.03902171

layer2.weight f4 [128, 128]
000000 86 d4 e3 3d 2d a5 14 3e 8b a6 98 be 25 6f e8 be
       0.1112452 0.14516135 -0.29814562 -0.45397297
000010 a4 e5 46 bd fe f0 bd bd 66 90 c2 3c af 3f 9a 3d
       -0.048558846 -0.09274481 0.023750495 0.07531678
000020 a9 24 92 3d e9 de 3a 3e 26 33 e8 3d e4 91 ca 3b
       0.071358986 0.18249096 0.11337881 0.0061819423
000030 93 4a 4e bb 17 10 41 3e 3c d4 da bd da b1 df 3c
       -0.0031477555 0.18853794 -0.10685012 0.027306486
000040 c6 76 e3 3d a0 7a 4f 3e 76 c3 95 3d 1f 6f 7b 3d
       0.111066386 0.20261621 0.07312672 0.06138527
000050 aa c8 d0 3e 9d c6 09 3d cb 59 e5 3e 11 71 9b be
       0.40778095 0.033636678 0.4479507 -0.303597
000060 0e 7e cf bc 96 06 49 3e f7 5a 8a bc 72 9b 12 be
       -0.025328662 0.19631419 -0.016889079 -0.1431711
000070 e9 40 9e 3e 9a f7 16 3e 23 6a a3 be 11 c1 51 be
       0.30908898 0.1474289 -0.31916913 -0.20483805
000080 16 d0 df bd 1a 54 88 be fc ad 93 be fe 8d fb bd
       -0.10928361 -0.26626664 -0.28843677 -0.12282942
000090 7f 5f 36 3e f8 d4 00 3f c9 e4 a9 b9 8b 18 5f 3e
       0.17809866 0.50324965 -0.0003240465 0.21786706
0000a0 3d f5 a2 bd 70 d1 88 bd 78 10 ac bd 36 1e 33 be
       -0.07956932 -0.06680572 -0.08401579 -0.17491993
0000b0 c0 5d bd 3e ce 41 b3 bc 2f 9c a6 3e d5 f2 9a be
       0.36985588 -0.021881964 0.32541034 -0.3026339
0000c0 b1 d4 6e be e2 90 84 3d c3 6c 23 3e 23 2d 0e 3e
       -0.23323323 0.06472947 0.15959458 0.13884406
0000d0 5a bb c0 3e 44 91 80 3e 09 17 21 bd 3b a2 1e 3d
       0.37642938 0.2511083 -0.03932861 0.038728934
0000e0 0e df 92 3d 6c 16 c0 3e cb cd cc bd 31 96 e7 bc
       0.071714506 0.37517107 -0.100001894 -0.028269859
0000f0 85 5e 5f 3c 5b ea 88 3e 74 8f 02 be e3 ed a6 3e
       0.013633375 0.267413 -0.12750036 0.32603368
000100 e1 94 89 3e 56 c9 6b 3d cd 85 8b bd 05 0e 1f 3e
       0.26871398 0.057565056 -0.0681263 0.15532692
000110 eb 28 07 be 91 4d a8 3d 7c 80 95 be a4 01 c0 bb
       -0.13199203 0.082179196 -0.29199588 -0.0058595706
000120 cb 71 0b 3f ce dc f0 bd a5 16 15 3d c2 49 b4 be
       0.5447051 -0.11760865 0.03639855 -0.35212523
000130 fb f6 75 3d 44 7b 43 3d b4 70 68 be 23 b4 44 be
       0.060049992 0.047724977 -0.22699243 -0.19209342
000140 11 b7 10 be e6 d9 a7 3e 91 9c f7 3d b5 a1 d3 3d
       -0.14132334 0.3278343 0.120904095 0.103335775
000150 bd 43 2c bd ba c5 ee bd f8 18 b3 be 5b 18 19 3e
       -0.042056788 -0.11658807 -0.34979987 0.14950697
000160 89 20 8c 3d 9a 9e a9 3d 0a 3b 01 3f 36 b1 b5 be
       0.06842143 0.08282204 0.5048071 -0.35486764
000170 67 7f 6e be 28 35 42 be 27 cc bb 3d 01 c7 b1 3e
       -0.23290788 -0.1896559 0.09169798 0.3472214
000180 3e fe 8c 3b 75 cb 19 3e 44 a1 15 bf 1d 4f a4 be
       0.004302769 0.15019019 -0.58449197 -0.3209161
000190 59 e5 c7 39 e1 0c cb bd 14 3d 43 bd 0b 57 76 3e
       0.00038127115 -0.09914566 -0.04766567 0.24056642
0001a0 50 b9 4b 3d 9a 5d 3f 3f c7 59 f5 be b6 27 b4 3d
       0.049737275 0.747522 -0.47920057 0.08796637
0001b0 34 02 96 3d a9 52 b2 3e 85 25 25 bf 53 49 81 3e
       0.07324639 0.3482869 -0.64510375 0.25251254
0001c0 2f 2e 09 3e 39 20 8a 3e 48 d6 cd 3e 07 52 c5 3d
       0.13396524 0.2697771 0.40202546 0.09634786
0001d0 54 82 e7 3e 94 1b df bc 7f b5 36 be d2 16 96 be
       0.4521662 -0.02723483 -0.17842673 -0.29314286
0001e0 88 3f 78 3c 80 16 7a 3d 78 6f f0 bb ed b0 ea 3d
       0.015151866 0.061056614 -0.007337507 0.11459527
0001f0 1c 7c f6 bc 6f 07 5b 3d d1 ad 1b 3f 87 b9 c7 3d
       -0.030088477 0.053473886 0.608121 0.097521834
000200 7c 4a 9c 3e d6 2a 07 3f 54 be 26 bf 15 31 c5 be
       0.30525577 0.5279974 -0.6513417 -0.3851401
000210 c4 c6 45 3e 51 16 48 bd 3b 5b ba 3e 61 f5 47 3e
       0.19314104 -0.048849408 0.36397728 0.19527198
000220 84 30 0b be 7b 7a b5 be 61 33 8d 3e f7 b8 ec be
       -0.13592726 -0.35445008 0.27578261 -0.46234867
000230 eb c3 40 3e 6c b2 80 3e 5a 9f 2d 3d 8c d6 28 3d
       0.18824737 0.25136125 0.042388298 0.041220233
000240 1f 20 a2 3e 88 fc e1 be 47 28 64 3e 23 4d 14 be
       0.3166513 -0.4413798 0.2228099 -0.1448255
000250 05 e8 8c 3e 05 b7 d2 3d be d1 e0 3e 04 e3 f6 3d
       0.27520767 0.102888145 0.4391002 0.120550185
000260 b1 25 32 3e 09 57 47 3e 7c 5c 62 bd c3 63 a6 be
       0.1739719 0.19466795 -0.05526398 -0.32497987
000270 58 39 0d 3f 8c 6b 4f 3e 61 b5 21 3e dd 57 a1 bd
       0.55165625 0.2025587 0.15791847 -0.07878087
000280 a4 20 5c be a7 6d 58 be d2 32 17 3f f8 73 8b bb
       -0.21496826 -0.21135579 0.5906192 -0.004255768
000290 0b 20 43 be be e5 a6 3e eb 3c de 3d 7b e4 29 3f
       -0.19055192 0.32597154 0.10851463 0.6636426
0002a0 a0 a2 88 3d 2b 57 f4 bd be b0 dd be b3 d3 22 3e
       0.06671643 -0.119306885 -0.43298906 0.1590107
0002b0 44 23 0d 3f 2b 40 10 3e 09 21 86 3e 55 fb ad be
       0.55131936 0.14086978 0.2619708 -0.33980814
0002c0 1c 61 09 3e 81 4a af 3d 9f be 6d 3e d1 3d 38 3e
       0.1341595 0.08559132 0.23217247 0.17992331
0002d0 c2 0a c9 3e 39 34 01 3f 49 65 d2 be 24 d2 37 3e
       0.3926602 0.5047031 -0.410929 0.17951256
0002e0 56 dc 0d bd a1 5c 8a 3e e5 b6 0e be e2 29 01 bf
       -0.034633957 0.27023795 -0.13936956 -0.50454533
0002f0 4c 1e 2b bd 37 a5 81 3e 0a e2 35 be c9 cd 3f 3e
       -0.04177694 0.2532136 -0.17762008 0.18730845
000300 7e 68 0d be 49 d0 03 3f 05 c3 5e 3d 90 ac 40 3e
       -0.13809392 0.5148969 0.054385204 0.18815827
000310 a9 98 99 be 86 9c 2f be f9 00 30 3e ff 1b 18 3e
       -0.29999283 -0.17149553 0.17187871 0.1485443
000320 58 93 e5 3e 32 20 30 3e 1c 52 dc 3d 74 d8 05 3d
       0.44838977 0.17199782 0.107578486 0.03267713
000330 ac e6 6c be f1 23 b7 be 81 30 c4 3d 46 a6 65 be
       -0.2313487 -0.3576961 0.09579564 -0.2242671
000340 84 37 6a 3e 06 ef 2a 3e 61 86 40 be 72 6c 5a 3e
       0.2287274 0.16692743 -0.18801261 0.21330431
000350 96 7f 77 3e 7e 45 2c 3e f1 fe c7 bd 21 f9 6c 3d
       0.24169764 0.16823384 -0.09765423 0.057854775
000360 4b 82 b9 3d ba 61 49 3e cb b6 09 3e 15 0d 02 bf
       0.090580545 0.19666186 0.13448636 -0.5080121
000370 f7 5b 10 be 8d 52 b5 be 32 5d 15 3e 0a 5b 90 3e
       -0.14097582 -0.35414544 0.14586332 0.28194457
000380 f6 ea a3 3d 1b 20 87 be ca 64 04 bf fa 5f 08 be
       0.080037996 -0.26391682 -0.5171629 -0.13317862
000390 47 78 87 be 1d 1c e9 bd 8a 5f 7a be 2f 26 a9 bd
       -0.26458952 -0.11382315 -0.24450508 -0.08259236
0003a0 0c 01 ce bd ba 17 5f 3f 1f 98 2b bf 77 d9 94 3e
       -0.100587934 0.8714558 -0.67028993 0.29072163
0003b0 b0 52 60 3e ff 04 a8 3e 16 2a 3b 3d a3 6c 70 be
       0.21906543 0.32816312 0.045694433 -0.23478942
0003c0 29 19 fe 3d cf 86 65 3e 6a 01 25 3e db 1e 1e 3e
       0.12407143 0.22414707 0.1611382 0.15441458
0003d0 19 ca 3b 3e 3f 89 91 3d 3d 14 55 be 14 b0 00 bd
       0.18338813 0.07106256 -0.20808502 -0.03141792
0003e0 d4 37 2f 3e 81 e1 e7 3d c0 47 f9 be 9f be 15 3f
       0.1711114 0.11322308 -0.48687553 0.5849399
0003f0 fa a1 34 3d 76 19 3e 3f 6a 24 cb 3e 4b ca 66 be
       0.044099785 0.742576 0.3967622 -0.22538106

layer2.bias f4 [128]
000000 d4 4d 4a bd 12 5c 3f 3e 48 cd 87 3d d1 72 f1 bc
       -0.04939063 0.18687466 0.06630951 -0.029473694
000010 dc 21 1f 3e 13 d2 41 3e 75 e0 0d 3b d3 b7 24 3e
       0.1554026 0.18927793 0.002164868 0.16085748
000020 6f 72 b9 3d b5 c9 4b 3c 14 b6 c3 3d 49 c2 23 3e
       0.090550296 0.012438227 0.09556213 0.15992083
000030 a0 d6 52 3e 53 48 74 bd 8f 12 4d 3e 19 98 d1 3c
       0.20589685 -0.059639286 0.20026611 0.025585221
000040 40 cb 7c 3d e5 67 28 3d 11 9f 58 3b 13 e2 9f 3d
       0.06171727 0.041114707 0.0033053795 0.07806792
000050 31 df 31 3e da cb 08 3e b3 82 bb 3d 6c d8 af 3b
       0.17370297 0.13359013 0.09155788 0.0053663757
000060 f8 97 1b bd 79 07 d7 bb 91 01 43 bd e9 6f 7a 3d
       -0.037986726 -0.00656217 -0.047608916 0.061141882
000070 0e 3f c9 3d 54 fe 63 bd 8b 6c 65 3d 34 dc 1e 3d
       0.0982648 -0.055662468 0.056011718 0.03878422
000080 1a a9 79 3d 7d 15 02 3e 31 9d 02 3e 8f 6d a0 bc
       0.060952283 0.1270351 0.12755276 -0.019583492
000090 bd 9d 33 3e 18 68 02 3e 47 83 25 3e 01 d2 8e 3d
       0.17540641 0.12735021 0.1616336 0.06973649
0000a0 e7 78 df 3d 08 7c d4 3d d6 8b 1a bd d1 8d c4 bd
       0.10911732 0.103752196 -0.037731014 -0.09597362
0000b0 09 0a 96 3d 49 b0 35 3e b5 f6 55 3e 77 4b af bb
       0.07326133 0.17743029 0.20894893 -0.0053495723
0000c0 e8 20 a4 3d 49 68 4b 3d 69 38 01 3e ba f4 55 3d
       0.08014089 0.04966 0.12619175 0.052235343
0000d0 7e 7d 02 3e 60 67 ac 3d 37 e6 85 3d c3 58 05 3e
       0.12743184 0.08418155 0.065380506 0.13022141
0000e0 bc dd be 3b 14 ea 8b 3d e7 51 d5 3d c3 83 f3 bc
       0.0058247726 0.06831756 0.10416012 -0.029725915
0000f0 12 af d4 3d 19 b1 31 bc 8b 39 13 bd 40 a7 27 3d
       0.103849545 -0.010845446 -0.03594355 0.040930986
000100 28 14 10 3e 88 3a f6 3c a2 90 26 3e f8 c2 5a 3d
       0.14070189 0.030057207 0.1626611 0.053408593
000110 c2 24 c0 3c e7 a0 2b 3e 29 df 9d 3d 37 ae 1d 3e
       0.023455027 0.16760598 0.0770858 0.15398489
000120 0d bc e3 3d bd 0c ca 3c 68 8b 14 3e 27 ba 3a 3d
       0.11119852 0.024664277 0.14506304 0.045587685
000130 b2 82 c0 3d 25 9b 60 3c bc 4a 45 bc 68 ea 0e 3e
       0.09399928 0.013708864 -0.012041744 0.13956606
000140 cc 15 03 bd 5c fa d0 3d c1 44 07 3e af 43 cd 3d
       -0.03200321 0.10204002 0.13209821 0.10022675
000150 52 b5 bd bc 98 4d 18 3d 47 6d d9 3d 34 6a 40 3e
       -0.02315775 0.037183374 0.10616546 0.18790513
000160 92 78 9c 3d b0 e4 d0 3d 00 04 2f 3e 53 ec 39 3c
       0.076401845 0.10199869 0.1709137 0.011347848
000170 f9 20 6c 3d 6b ee 06 3e fe e5 f9 3d 12 02 09 be
       0.057648633 0.13176887 0.12202071 -0.13379696
000180 60 97 a8 3d c6 9d 1d 3e 2c a2 d9 3c f5 8d c3 3d
       0.082319975 0.15392217 0.026566587 0.095485605
000190 f8 3e 81 3d 4b 4e 97 3d 35 5e 45 3c 87 49 2a 3e
       0.063108385 0.0738798 0.0120463865 0.16629611
0001a0 ef 6e e2 3d d6 5a 01 3e 0e 13 c5 3d 0f 42 77 3d
       0.11056315 0.12632307 0.09622775 0.060365733
0001b0 16 36 b7 3d 8b 78 c1 3c bc 27 9f 3d 9f 43 77 3c
       0.08945863 0.02361705 0.077712506 0.015091806
0001c0 9a 7f b4 3c 24 0c f5 3d 08 c4 53 b9 91 78 bd 3d
       0.022033501 0.11965206 -0.00020195555 0.09251512
0001d0 83 3e 06 3e 36 d3 0e 3e 4b 1a f9 3b 1e 28 1d 3e
       0.13109784 0.13947758 0.0076020113 0.15347335
0001e0 fb ae 11 bd ad 41 84 3d 4e 58 1a 3e 55 09 a3 3d
       -0.035567265 0.06457839 0.15072748 0.07960764
0001f0 ca 7b ee bc 4e 32 dc 3d 24 21 b4 bc d7 7a 1f 3e
       -0.029111762 0.10751782 -0.021988459 0.15574203

layer3.weight f4 [4, 128]
000000 63 e2 00 3f 73 ad db 3e a0 8f 35 3f a5 82 fd 3e
       0.5034544 0.4290577 0.7092228 0.49513736
000010 0f 15 8c be 0e 46 a9 3e a5 ac a1 be 09 5e b8 3e
       -0.27359816 0.3306126 -0.3157703 0.36009243
000020 04 2c 03 3f 1c 17 e1 be 4c c5 c0 3e 5f c6 27 3f
       0.5123904 -0.43962944 0.37650526 0.65537065
000030 5f d8 2b bf c1 1b 4a ba a9 39 9c be d6 54 ec be
       -0.6712703 -0.0007709824 -0.3051274 -0.46158475
000040 d8 f3 5a 3d d5 c1 00 bf 81 3a 0a 3f 50 e7 1b 3f
       0.053455204 -0.50295764 0.5399552 0.6089983
000050 13 df d7 be 54 21 16 be ea 87 c0 3e 55 48 18 bf
       -0.4216238 -0.14661151 0.37603694 -0.5948537
000060 d9 2c 87 be 8a 4b ab 3e 90 0f 03 3f 96 15 c6 be
       -0.26401404 0.3345607 0.5119562 -0.38688344
000070 19 58 ec 3e 06 37 11 3e 65 48 0c 3f 92 83 c6 be
       0.46160963 0.14181146 0.54797965 -0.38772255
000080 9b af ad 3d 35 fe b8 3e cf 98 3e 3e 91 97 8c be
       0.0848076 0.36131445 0.1861298 -0.27459386
000090 50 98 cc 3e 3b be b0 3e 8d d5 8c be e9 7e 44 3f
       0.39959955 0.34520134 -0.27506676 0.7675615
0000a0 a3 74 11 3f 97 9c 41 3f 39 4b c7 3d 94 08 7e be
       0.568186 0.7562956 0.097311445 -0.2480796
0000b0 bc 8f e5 be db 99 df 3e ff 99 a3 be 28 0d 0c 3f
       -0.44836223 0.4367207 -0.31953427 0.54707575
0000c0 cf 3c 24 3f 85 c2 07 3f 1b fa a6 3e 6e be 4e 3e
       0.64155287 0.5303119 0.3261269 0.2018983
0000d0 17 42 08 bf 8b ad d4 3e 65 fa 05 3f fc 34 23 3f
       -0.53225845 0.41538653 0.52335197 0.6375272
0000e0 f7 33 97 3e 9e 3b 1f 3e 30 2a 51 3e c8 02 95 be
       0.29531834 0.15550086 0.2042625 -0.29103684
0000f0 b5 ad e2 3e 42 e1 52 3d 96 74 18 3f 4b 23 0c 3f
       0.44273153 0.051484354 0.59552896 0.5474135
000100 f4 64 ca 3e 8d f5 8f be 1f ce 92 3e 25 eb 0c 3f
       0.39530146 -0.28117028 0.28672883 0.550463
000110 07 20 1b 3f 71 9f 9e 3e f2 f3 d5 be 19 d7 ad 3e
       0.60595745 0.3098102 -0.41787678 0.3395317
000120 cd 2e bc be 08 4f f5 3e ad 6e 99 3e 9b 63 fa be
       -0.36754456 0.4791186 0.2996725 -0.48904118
000130 ea 6e d9 be 91 15 12 3f 81 77 c1 be 64 14 d2 3e
       -0.42467433 0.5706416 -0.37786487 0.41031182
000140 16 9e e1 3e 0d e1 06 3f b8 7d d3 3e 7f 02 ae 3e
       0.44065922 0.5268715 0.41306853 0.3398628
000150 13 4d 26 3f 8c 0f b4 3e 6e 6e 54 3f f3 ce 8a be
       0.64961356 0.3516811 0.82981 -0.27111015
000160 7d 71 ee 3d 62 1e af be 61 43 33 bf dd b8 25 3e
       0.1164274 -0.34202868 -0.7002469 0.16183801
000170 ea f4 17 3f b6 2d a7 be 5c b5 e3 be 42 16 b2 be
       0.59358084 -0.32652062 -0.44474304 -0.34782606
000180 74 1c 1b be f6 26 8a be cd bd df 3e a0 1c 8f be
       -0.15147573 -0.2698285 0.43699494 -0.27951527
000190 b7 1b 2d 3f 06 a5 46 be c6 ff 3f 3f 73 b1 30 bf
       0.67620414 -0.19398889 0.74999654 -0.69020766
0001a0 ae 42 b5 be 3b 4b 9e be 2a 7a b4 be e6 b8 87 3e
       -0.35402435 -0.3091677 -0.35249454 0.26508254
0001b0 7f b9 0e 3f e1 26 fc 3e 11 8c d3 be d5 8e 77 3d
       0.55751795 0.49248412 -0.413178 0.06043895
0001c0 15 56 bc 3e 29 df 37 3e 39 5f a0 b8 06 d7 c3 bd
       0.36784425 0.17956223 -7.647131e-05 -0.09562497
0001d0 9f d4 a8 be 7d 4c 29 3f e8 32 e2 3c c3 9c 86 3e
       -0.32974717 0.66132337 0.027612165 0.26291475
0001e0 ce 4b ad 3e 23 2e 02 bf 26 18 61 3f fe c6 20 3f
       0.33846897 -0.5085165 0.8792747 0.6280364
0001f0 92 eb bf be f5 13 a8 be 9b 46 0d 3f cd ce 9d be
       -0.37484413 -0.32827726 0.5518586 -0.3082184
000200 9a c7 4d 3e 46 2b ac 3e cf 66 30 3f 59 f2 93 3e
       0.20095673 0.33626765 0.68906873 0.28895834
000210 4c a8 ce be 8b 78 9b 3e 9e 6c a5 be 07 e2 7b 3e
       -0.40362775 0.30365404 -0.3230943 0.24597941
000220 38 5f 06 3f 1f 8b f6 be 87 41 63 3e 47 c9 41 3f
       0.5248904 -0.48153016 0.22192965 0.7569775
000230 4a 75 31 bf 51 ee 08 bd b3 0b 2a be 02 fd 99 be
       -0.69319594 -0.0334304 -0.16606025 -0.30075842
000240 0d 1e 2e 3e 20 25 05 bf f2 4a ff 3e 4b f8 e5 3e
       0.17003651 -0.52009773 0.49861866 0.44915995
000250 23 24 a2 be d4 f7 da be 65 68 cf 3e 60 d0 2e bf
       -0.31668195 -0.42767203 0.40509334 -0.68286705
000260 7b 7f 71 be bd ae 3d 3e 78 c5 0b 3f 26 ac bd be
       -0.23583786 0.18523689 0.5459819 -0.370454
000270 d1 57 0d 3f ad 34 26 3d a2 f9 ff 3e d5 cf d4 be
       0.5521212 0.04057758 0.49995142 -0.41564813
000280 94 d5 e3 3d fd 5b bc 3e d5 96 79 3e 3c bc ac be
       0.11124721 0.3678893 0.24373944 -0.3373736
000290 19 1f b2 3e f9 d2 7f 3e 90 a3 d9 be 64 9c 1b 3f
       0.3478935 0.24982823 -0.425076 0.6078551
0002a0 82 36 1a 3f 65 7b bd 3e 96 f9 34 3e 8a 18 42 bd
       0.6023942 0.37008205 0.17673334 -0.047386684
0002b0 6c 58 e6 be a1 24 c2 3e 9f 55 66 be 53 ae ea 3e
       -0.44989336 0.3791857 -0.224936 0.45836124
0002c0 83 17 24 3f 04 da 1a 3f 3f 61 35 3e 8c 90 7c 3e
       0.64098376 0.60488915 0.17712878 0.24664515
0002d0 db c4 08 bf c1 36 06 3f 53 47 0e 3f 42 ba 17 3f
       -0.5342538 0.524273 0.5557758 0.5926858
0002e0 e4 0c a5 3e f8 f8 78 3e b5 79 7a 3e 1e 99 cb be
       0.32236397 0.24313724 0.2446049 -0.39765257
0002f0 46 52 08 3f 4c 44 d3 bc eb a6 3d 3f c4 ac 42 3f
       0.5325054 -0.025789402 0.7408282 0.7604487
000300 09 ff d8 3e cc 46 5d be c6 b7 20 3e cf 7e 0e 3f
       0.42382076 -0.21609038 0.15695104 0.55662245
000310 b8 28 08 3f 48 20 c1 3e 5d 42 bb be f5 f9 a7 3e
       0.5318713 0.3771994 -0.3657407 0.3280789
000320 0f 7d b3 be fc 16 02 3f 38 6b b0 3e 7e 17 68 be
       -0.3505635 0.5081632 0.344568 -0.22665212
000330 d1 ae 97 be 61 d7 3f 3f 92 2f 92 be e0 16 e3 3e
       -0.29625562 0.7493802 -0.28551918 0.4435339
000340 88 4a d4 3e 87 f2 ec 3e 21 fa d0 3e eb d0 c7 3e
       0.41463113 0.46278784 0.40815833 0.3902658
000350 5a eb 3e 3f 9c da b3 3e 98 9d 42 3f 7f 83 17 be
       0.7457787 0.35127723 0.7602172 -0.14796256
000360 01 df 2a 3e 32 d6 db be af 67 57 bf e1 29 91 3e
       0.16686632 -0.42936856 -0.84142584 0.28352264
000370 90 af 20 3f 53 b6 d8 be 6e 26 cf be b7 de e4 bd
       0.6276789 -0.42326602 -0.40459007 -0.11175292
000380 35 eb 2f bf 71 c8 44 be ab e1 07 3f 8e b5 d1 be
       -0.6871827 -0.19217087 0.53078717 -0.40958828
000390 a4 00 49 3f 9e aa d8 be 97 b5 39 3f 71 b2 38 3e
       0.785166 -0.4231767 0.7254271 0.1803682
0003a0 30 9b d1 be ff 02 85 be 2d f9 ec be 59 59 d4 3e
       -0.4093871 -0.25978848 -0.46283856 0.41474417
0003b0 ae ac ea 3e 93 b8 27 3f e6 64 c9 be 77 86 32 3d
       0.4583487 0.6551601 -0.39334792 0.043585267
0003c0 4d ce 1e 3f a7 43 b0 3d e9 ff 0d 3e f7 69 56 be
       0.6203354 0.08606654 0.13867153 -0.2093886
0003d0 21 54 b2 be a1 49 24 3f db 92 a0 be bc b1 5d 3e
       -0.3482981 0.6417485 -0.31362042 0.21649832
0003e0 cd a1 33 3f e7 ad 4b bf e6 8c 49 3f fc 8a 0d 3f
       0.70168763 -0.7956223 0.7873062 0.552902
0003f0 a7 f5 b2 be 9d 35 74 be 0a e9 0f 3f c3 d2 ca be
       -0.34953043 -0.23848577 0.56214964 -0.39613923

layer3.bias f4 [4]
000000 d5 df 4a 3d c2 bd 35 3d b3 af 91 bc d4 45 32 bb
       0.04952987 0.04437042 -0.017783975 -0.0027202265
