ckpt/CartPole-v1_checkpoint.pt (torch, 72015 bytes, 6 tensors)

layer1.weight f4 [128, 4]
-0.40273345 0.30372918 -0.3510555 0.06894332 -0.108033895 0.031590164 0.38464004 -0.4693461
0.016993701 0.37570173 -0.36308885 -0.10435516 -0.18578303 -0.37853682 -0.33582586 -0.3694629
-0.113716125 0.21486688 -0.16502607 -0.33052498 0.29522854 0.328929 -0.48897004 0.25533152
-0.018316925 -0.056254983 0.18468058 -0.07863474 -0.48995793 -0.4757763 0.26684117 -0.16718465
-0.44279414 0.3501498 0.41077214 0.45396537 -0.07053959 0.1649934 0.44702655 0.01433903
0.37553757 -0.44901508 -0.20413697 -0.15567285 -0.41244525 0.24811602 -0.24138504 -0.07656807
-0.10452771 -0.3769167 -0.05183208 0.18663925 -0.0016913414 -0.29296756 -0.41050708 -0.13382578
-0.42511344 0.3566103 0.24954873 -0.10048306 -0.10083979 -0.4284904 0.48617762 0.47768158
-0.079832554 -0.09023279 0.184528 0.22219741 0.478652 0.41285586 0.32717198 0.33330435
0.45810217 0.3108523 0.39748734 0.08980656 -0.25605083 0.382002 -0.4233023 -0.25138628
-0.08705139 0.41576374 0.2501024 0.023549318 0.40050477 0.497155 -0.16104025 -0.3894794
-0.4056092 -0.080439925 -0.30947566 -0.27773213 -0.1941647 -0.07654548 0.21000832 0.24777824
-0.06350857 -0.048688233 0.2907598 -0.2982384 0.2439335 0.18684626 0.15064627 -0.3633207
-0.09356183 -0.15928191 -0.17389649 -0.470882 -0.2365799 0.3983879 0.49886638 -0.41390365
0.3768174 0.48555148 -0.21882606 -0.051834404 0.4894997 0.42733598 -0.25159377 -0.45280814
0.10153329 -0.49976015 -0.016476452 0.094679594 -0.1882683 -0.3688907 -0.20391846 0.32791328
0.01640594 -0.070072174 -0.34308994 0.4414456 -0.20840657 0.06867468 -0.4989226 -0.0300318
-0.455319 -0.4269312 -0.25009108 0.24437147 -0.11134994 -0.1647293 -0.160505 0.35402137
-0.4692778 0.38018292 -0.2687863 -0.3238346 0.05938661 -0.079034925 -0.06281859 0.051468194
0.16093731 0.08248073 0.40364152 0.07734996 -0.3195904 0.31208766 -0.36010545 0.09568846
0.45621192 -0.16943514 -0.14696544 0.3876137 0.15536338 0.1443851 -0.24044955 0.3843825
-0.03712392 -0.3504488 0.0071573853 0.24561453 0.34536457 0.45302302 -0.2849968 -0.49061155
-0.31249595 -0.49778205 0.4651209 0.43546474 -0.32797748 -0.14763206 -0.08540833 -0.12525469
-0.38727218 0.17377973 0.12446886 -0.25663286 -0.24994385 -0.32534754 0.027073622 -0.045139372
0.11802989 0.21798283 0.3458708 -0.30791068 0.44989485 -0.244762 0.16541106 -0.43967843
0.39238787 -0.0988428 -0.22043633 -0.36414057 -0.4879071 -0.38215756 0.43727195 -0.18244421
-0.12842548 0.44698995 0.058932185 -0.49179393 0.438192 -0.2807203 -0.2619787 -0.060600996
-0.067290366 0.4369197 -0.14419985 0.15878063 0.4324088 0.30552715 -0.30842733 0.09135145
0.46051818 0.29002035 -0.32858062 0.34257728 -0.03994429 -0.08953339 0.40776873 -0.45056343
0.1229679 -0.2988965 -0.21101528 0.10182774 -0.26429784 -0.12341064 -0.011075497 -0.012111843
0.103599966 0.42661977 0.47242332 0.35409808 -0.07091272 -0.2889287 -0.09097433 0.35692376
0.23441386 -0.44469607 -0.47384876 0.174972 0.2959767 0.3195089 -0.45274526 0.4611019
00000000: 1433 cebe 6482 9b3e 8cbd b3be 2832 8d3d
00000010: e040 ddbd b064 013d 8aef c43e 224e f0be
00000020: 6036 8b3c fa5b c03e c8e6 b9be 28b8 d5bd
00000030: e83d 3ebe 94cf c1be 5ef1 abbe 3e2a bdbe
00000040: 00e4 e8bd 1006 5c3e 98fc 28be 923a a9be
00000050: 3228 973e 6269 a83e 485a fabe d0ba 823e
00000060: 600d 96bc a06b 66bd e81c 3d3e 400b a1bd
00000070: c4db fabe f498 f3be 689f 883e 7432 2bbe
00000080: eab5 e2be d646 b33e ba50 d23e 266e e83e
00000090: 1077 90bd 08f4 283e aae0 e43e 40ee 6a3c
000000a0: 7646 c03e 4ee5 e5be 4809 51be b468 1fbe
000000b0: 062c d3be 2012 7e3e a42d 77be b8cf 9cbd
000000c0: a012 d6bd 3afb c0be e04d 54bd 5c1e 3f3e
000000d0: 00b0 ddba d8ff 95be fc2d d2be a009 09be
000000e0: 78a8 d9be a095 b63e b489 7f3e 10ca cdbd
000000f0: 1885 cebd 1863 dbbe 46ec f83e ae92 f43e
00000100: 407f a3bd f8cb b8bd e8f4 3c3e b887 633e
00000110: e011 f53e d861 d33e 1683 a73e dea6 aa3e
00000120: 5e8c ea3e 0828 9f3e 7683 cb3e 80ec b73d
00000130: 1819 83be c495 c33e 14bb d8be b4b5 80be
00000140: 0048 b2bd fcde d43e 6c0d 803e 80ea c03c
00000150: f60e cd3e 1a8b fe3e bce7 24be d869 c7be
00000160: 02ac cfbe b0bd a4bd 9873 9ebe e832 8ebe
00000170: 1cd3 46be e0c3 9cbd 6c0c 573e 94b9 7d3e
00000180: c810 82bd 506d 47bd 78de 943e b4b2 98be
00000190: b4c9 793e a054 3f3e 0443 1a3e 2c05 babe
000001a0: 589d bfbd cc1a 23be ec11 32be 7217 f1be
000001b0: 0042 72be 80f9 cb3e 6a6b ff3e 2eeb d3be
000001c0: 36ee c03e 349a f83e f013 60be 5050 54bd
000001d0: b49f fa3e c8cb da3e e6d0 80be 78d6 e7be
000001e0: b0f0 cf3d 90e0 ffbe a0f9 86bc 60e7 c13d
000001f0: 68c9 40be 3edf bcbe 00d0 50be 40e4 a73e
00000200: c065 863c 0082 8fbd 7ca9 afbe 2805 e23e
00000210: 8868 55be 50a5 8c3d c872 ffbe 4005 f6bc
00000220: 921f e9be ba96 dabe f00b 80be 843c 7a3e
00000230: 700b e4bd ccae 28be 6c5b 24be 4a42 b53e
00000240: 2e45 f0be 56a7 c23e 5c9e 89be a6cd a5be
00000250: 603f 733d 10dd a1bd 08a7 80bd 50d0 523d
00000260: c0cc 243e a8eb a83d 1aaa ce3e a869 9e3d
00000270: 5aa1 a3be f4c9 9f3e be5f b8be 50f8 c33d
00000280: 9c94 e93e 6880 2dbe 1c7e 16be 4e75 c63e
00000290: 9417 1f3e b0d9 133e 6838 76be c8cd c43e
000002a0: 400f 18bd 066e b3be 8088 ea3b 6082 7b3e
000002b0: a0d3 b03e a2f2 e73e 1aeb 91be 7031 fbbe
000002c0: 78ff 9fbe 4add febe 5424 ee3e 3cf5 de3e
000002d0: aaec a7be dc2c 17be 90ea aebd c442 00be
000002e0: 8a48 c6be 50f3 313e 88e9 fe3d 6265 83be
000002f0: 48f1 7fbe f493 a6be 80c9 dd3c 10e4 38bd
00000300: a8b9 f13d e436 5f3e fa15 b13e 78a6 9dbe
00000310: 9e58 e63e e4a2 7abe 8461 293e 881d e1be
00000320: 10e7 c83e 186e cabd 10ba 61be a270 babe
00000330: f6ce f9be 28aa c3be 1ce2 df3e a8d2 3abe
00000340: f881 03be dedb e43e e062 713d 6acc fbbe
00000350: b45a e03e 92ba 8fbe 1222 86be c038 78bd
00000360: 88cf 89bd f0b3 df3e 20a9 13be 6497 223e
00000370: b064 dd3e 0e6e 9c3e 30ea 9dbe 7816 bb3d
00000380: 0ac9 eb3e 8c7d 943e b83b a8be 4a66 af3e
00000390: a09c 23bd 485d b7bd 10c7 d03e 40b0 e6be
000003a0: 98d6 fb3d f608 99be 6414 58be 108b d03d
000003b0: 0c52 87be b8be fcbd 0076 35bc c070 46bc
000003c0: 382c d43d e86d da3e 78e1 f13e 584c b53e
000003d0: b03a 91bd 76ee 93be c050 babd b6be b63e
000003e0: 300a 703e 34af e3be 4e9c f2be dc2b 333e
000003f0: 428a 973e ac96 a33e 3ace e7be 8c15 ec3e

layer1.bias f4 [128]
0.0043631196 0.19063252 0.4910605 0.38322186 -0.34230548 0.15782529 0.3906541 0.22081178
0.24458706 -0.19165796 -0.088686764 0.07063103 -0.1849739 0.223212 0.18263882 -0.017666817
-0.0030423999 0.040393174 0.06869739 -0.029927135 -0.053536654 -0.2697041 0.0901351 -0.15444368
-0.45363057 0.22093165 -0.13983345 0.38653964 -0.2928183 -0.3155253 0.11442429 -0.49351078
0.113916755 0.17845595 0.10890961 -0.25811404 0.162099 -0.21578193 -0.022247434 0.3544948
0.2494685 0.2740335 0.17035276 0.045703888 -0.059079707 -0.2004832 0.4558748 0.27303725
-0.11608869 -0.20144963 -0.13710147 0.44914126 -0.42048347 -0.38010347 0.2158916 -0.091080666
-0.26692158 -0.16820341 0.4544378 0.06855166 0.047772884 -0.45959598 -0.042100668 0.42380166
0.30446523 -0.1853751 -0.154764 -0.059471548 -0.13990653 -0.36937267 -0.19402128 -0.13983148
-0.39198202 0.48757732 -0.47460675 -0.44319975 0.23387712 0.12318039 -0.07650745 0.17912912
0.17535394 0.17606878 -0.122657 0.30073482 -0.4098714 -0.391536 0.35655892 -0.4096321
-0.13326603 0.30185634 0.40293097 -0.41276067 0.26151836 0.101111054 -0.17108661 0.07855731
0.44800752 0.083669364 0.40068257 -0.37402475 0.45619905 0.060732484 -0.26027602 0.19296569
-0.28839576 -0.40784144 0.25549817 0.22107834 0.21323884 -0.04315853 -0.42329764 0.13821363
-0.2213096 -0.023950517 -0.12029576 -0.094639 0.22406858 -0.43469816 -0.46119475 0.042417407
0.2664302 -0.09436345 -0.3207206 -0.20407087 -0.12664652 -0.3165273 0.40575063 0.23887157
00000000: 80f8 8e3b 2c35 433e 486c fb3e a835 c43e
00000010: aa42 afbe f49c 213e d003 c83e 7c1c 623e
00000020: 0875 7a3e fc41 44be 68a1 b5bd 00a7 903d
00000030: cc69 3dbe b091 643e ac05 3b3e 00ba 90bc
00000040: 0063 47bb 5073 253d 38b1 8c3d c029 f5bc
00000050: 4049 5bbd a816 8abe c098 b83d 7c26 1ebe
00000060: 4442 e8be e83b 623e 8030 0fbe 86e8 c53e
00000070: 48ec 95be 888c a1be 4857 ea3d 72ad fcbe
00000080: 304d e93d 28bd 363e 000c df3d 8627 84be
00000090: 48fd 253e f0f5 5cbe 4040 b6bc 5880 b53e
000000a0: ac74 7f3e 1e4e 8c3e f470 2e3e 0034 3b3d
000000b0: 90fd 71bd 784b 4dbe 6c68 e93e 8acb 8b3e
000000c0: e8bf edbd d048 4ebe 5464 0cbe d8f5 e53e
000000d0: 9c49 d7be ec9c c2be b012 5d3e 8088 babd
000000e0: f2a9 88be 843d 2cbe 12ac e83e d064 8c3d
000000f0: 80ad 433d 2a50 ebbe c071 2cbd 88fc d83e
00000100: dee2 9b3e f8d2 3dbe 747a 1ebe 7098 73bd
00000110: a843 0fbe 6a1e bdbe 84ad 46be fc2f 0fbe
00000120: deb1 c8be bca3 f93e a8ff f2be 14eb e2be
00000130: 7c7d 6f3e 0046 fc3d f0af 9cbd a06d 373e
00000140: fc8f 333e 604b 343e 9833 fbbd eaf9 993e
00000150: aada d1be 6877 c8be e48e b63e 4cbb d1be
00000160: e476 08be ea8c 9a3e f84c ce3e 5e55 d3be
00000170: bce5 853e 5013 cf3d 5431 2fbe a8e2 a03d
00000180: 3e61 e53e d85a ab3d 4426 cd3e 2c80 bfbe
00000190: ec92 e93e a0c2 783d e642 85be cc98 453e
000001a0: 9ca8 93be 98d0 d0be a8d0 823e 5c62 623e
000001b0: 485b 5a3e 00c7 30bd 78ba d8be e087 0d3e
000001c0: fc9e 62be e033 c4bc a05d f6bd 18d2 c1bd
000001d0: 3c72 653e c290 debe b821 ecbe e0bd 2d3d
000001e0: 8a69 883e a041 c1bd 7e35 a4be f4f7 50be
000001f0: a0af 01be de0f a2be 8cbe cf3e c09a 743e

layer2.weight f4 [128, 128]
-0.013744066 0.057953656 0.054959226 0.056729585 0.030786809 -0.030108528 -0.034315173 -0.040452704
-0.028578166 -0.061454087 -0.08419252 0.045910127 -0.0262925 -0.06417379 0.0718895 -0.053762615
-0.07418709 0.0023413312 0.08189392 0.06896307 0.028236154 0.045052905 0.049034253 0.021247491
0.044928055 -0.029895097 -0.039517347 0.067906685 0.079749085 0.014039105 -0.03943831 -0.013983407
0.07834983 -0.048564043 -0.036525447 -0.07426069 -0.05276283 -0.03161883 0.07232206 -0.024647055
0.028812787 -0.05330725 -0.078623995 0.0001943075 0.06337734 0.02113811 0.002557671 0.068606846
-0.074617274 0.022542916 0.070131935 0.061432824 0.00783178 -0.07143047 0.04554715 0.0803975
-0.0022813352 0.0047205314 -0.051897552 0.051796265 -0.026330506 0.0002244741 0.028283285 -0.047176704
-0.049441393 -0.032813724 -0.063014455 -0.07036165 0.026861357 0.084894195 0.087036856 -0.0037301541
-0.050625857 -0.07966676 -0.033325564 -0.04844094 0.04631381 -0.038440403 0.082194 0.046172693
0.034689542 0.043760154 -0.047307886 -0.05357883 0.07578151 -0.017620448 -0.041077446 0.06980833
-0.016691405 -0.045989607 0.044591133 -0.002861476 0.026368648 -0.059702802 0.062699154 6.6391825e-05
0.03253269 -0.070138276 0.08069774 -0.0009464918 0.03937567 -0.06653752 -0.058706723 0.06818586
0.015244157 -0.010595771 -0.07499213 -0.07854567 0.0650213 -0.08248541 -0.02660662 0.05804702
-0.038681123 0.032579575 -0.08175148 -0.010015861 -0.04533899 0.029782796 -0.0043637264 -0.0421722
0.050408337 -0.026572997 0.07600673 -0.031534135 0.020886956 0.05855094 0.070446625 -0.046268366
0.04163122 0.01661141 0.05965702 -0.027524041 0.017351741 -0.081080936 -0.055563 0.020949291
0.009995177 0.021193089 0.028023787 -0.08598698 0.014001414 -0.07893151 -0.004627692 -0.037748814
-0.075476445 -0.0791792 -0.025300447 0.03252994 -0.075507425 -0.079333045 -0.08211128 -0.06399553
0.029565813 -0.0013788868 -0.0059905318 0.008732079 -0.07609443 0.017121198 -0.061374642 0.041256286
-0.0024570453 0.05414462 0.010449795 0.057717495 -0.07536028 -0.032940343 -0.021299489 0.05902997
0.026171802 -0.0022982676 -0.030865632 0.06702083 -0.0011944311 -0.030026278 0.07633568 -0.054679763
-0.04212058 -0.010976051 -0.08331178 -0.053079728 0.071341544 0.04809867 0.03742796 -0.0023177394
0.020720972 -0.002854058 0.06564653 -0.03926296 0.029102156 0.03697545 0.069707975 -0.036954463
-0.07257451 0.032641154 0.08656771 -0.04294022 0.025772408 0.068367474 -0.049488913 0.06305504
-0.04445837 -0.002426278 0.013281336 0.030878592 0.073450744 -0.032487106 0.008874841 -0.011392619
-0.080623254 -0.04045585 -0.043336052 0.015174214 -0.012389129 0.07811144 -0.059657358 -0.013870011
-0.072663665 0.034593627 0.054474767 -0.01706451 0.0633298 -0.030532062 0.012734891 0.042378414
-0.047579546 0.057708245 -0.07599381 -0.035268124 -0.029450437 -0.08820252 0.029701306 -0.075344115
0.07161263 0.054508496 -0.056460876 0.07003639 0.018197503 0.005824199 0.051564317 -0.034432374
0.08320108 0.049978133 0.04100115 0.009747997 0.059139583 -0.043414816 0.04461696 -0.02867877
0.016370658 0.039930217 0.0022433081 0.05769207 0.047198255 -0.042957764 -0.02786386 -0.08264579
00000000: ca2e 61bc d060 6d3d ed1c 613d 485d 683d
00000010: 9e34 fc3c 29a6 f6bc 118e 0cbd bcb1 25bd
00000020: c21c eabc 48b7 7bbd 216d acbd 420c 3c3d
00000030: 5e63 d7bc 8c6d 83bd cd3a 933d 3036 5cbd
00000040: 67ef 97bd 0571 193b 00b8 a73d 833c 8d3d
00000050: 824f e73c 6589 383d 24d8 483d 380f ae3c
00000060: 7b06 383d 90e6 f4bc f1dc 21bd a912 8b3d
00000070: 7d53 a33d 4604 663c 118a 21bd a91a 65bc
00000080: e075 a03d 17eb 46bd b59b 15bd fd15 98bd
00000090: d61d 58bd bf82 01bd 971d 943d 9fe8 c9bc
000000a0: cb08 ec3c b458 5abd 9e05 a1bd 06bf 4b39
000000b0: fbcb 813d d429 ad3c 999e 273b bf81 8c3d
000000c0: f1d0 98bd ecab b83c 55a1 8f3d fca0 7b3d
000000d0: de50 003c 234a 92bd a68f 3a3d 72a7 a43d
000000e0: 7482 15bb b0ae 9a3b 8792 54bd 5228 543d
000000f0: 13b3 d7bc cf60 6b39 59b2 e73c 5c3c 41bd
00000100: 0f83 4abd af67 06bd b90d 81bd c519 90bd
00000110: 590c dc3c 02dd ad3d 6140 b23d 9a75 74bb
00000120: 0f5d 4fbd 5428 a3bd 6380 08bd 026a 46bd
00000130: 8db3 3d3d af73 1dbd 5455 a83d 941f 3d3d
00000140: 9f16 0e3d d93d 333d eac5 41bd 7a75 5bbd
00000150: 5633 9b3d c258 90bc d340 28bd abf7 8e3d
00000160: 6abc 88bc 995f 3cbd 31a5 363d 9a87 3bbb
00000170: 1003 d83c ed8a 74bd 6a68 803d d73b 8b38
00000180: ff40 053d a8a4 8fbd db44 a53d fd1d 78ba
00000190: 6248 213d d344 88bd 7676 70bd 07a5 8b3d
000001a0: a1c2 793c e299 2dbc 7995 99bd 8ddc a0bd
000001b0: e329 853d 1cee a8bd 20f6 d9bc b6c2 6d3d
000001c0: 1970 1ebd 2972 053d 526d a7bd 9119 24bc
000001d0: 60b5 39bd 0dfb f33c 97fd 8ebb c2bc 2cbd
000001e0: f978 4e3d 9daf d9bc 6ba9 9b3d f029 01bd
000001f0: 1f1b ab3c 1cd3 6f3d 5246 903d e683 3dbd
00000200: 8085 2a3d a714 883c eb5a 743d 197a e1bc
00000210: 3d25 8e3c c30d a6bd 0796 63bd d99d ab3c
00000220: d0c2 233c 219d ad3c 2492 e53c f119 b0bd
00000230: 3066 653c d8a6 a1bd e5a3 97bb 809e 1abd
00000240: 6593 9abd b428 a2bd e242 cfbc 1d3e 053d
00000250: a3a3 9abd 5d79 a2bd f529 a8bd 1710 83bd
00000260: 0134 f23c c3bb b4ba 394c c4bb fe10 0f3c
00000270: 66d7 9bbd c141 8c3c fa63 7bbd 5afc 283d
00000280: 6106 21bb c0c6 5d3d 9e35 2b3c 2e69 6c3d
00000290: 7e56 9abd 74ec 06bd 447c aebc 69c9 713d
000002a0: 3f66 d63c 889e 16bb ecd9 fcbc 3842 893d
000002b0: 758e 9cba abf9 f5bc e255 9c3d e3f7 5fbd
000002c0: a186 2cbd e5d4 33bc 5e9f aabd 216a 59bd
000002d0: 841b 923d 1c03 453d 104e 193d 37e5 17bb
000002e0: 07bf a93c 260b 3bbb b071 863d 33d2 20bd
000002f0: a567 ee3c 9273 173d 0ec3 8e3d 905d 17bd
00000300: f2a1 94bd bbb2 053d 694a b13d 16e2 2fbd
00000310: a820 d33c 3f04 8c3d e3b4 4abd 0023 813d
00000320: fb19 36bd 3102 1fbb f699 593c 1af5 fc3c
00000330: 586d 963d 3311 05bd c867 113c 1ca8 3abc
00000340: ce1d a5bd 09b5 25bd 2581 31bd 449d 783c
00000350: c6fb 4abc e4f8 9f3d 465b 74bd 0b3f 63bc
00000360: b0d0 94bd 0cb2 0d3d ef20 5f3d dfca 8bbc
00000370: 0eb3 813d 601e fabc 01a6 503c fd94 2d3d
00000380: c5e2 42bd 7b5f 6c3d a5a2 9bbd 4f75 10bd
00000390: 0b42 f1bc 86a3 b4bd 2750 f33c 044e 9abd
000003a0: a4a9 923d 4d44 5f3d 8543 67bd 3d6f 8f3d
000003b0: ee12 953c ecd8 be3b 1b35 533d f608 0dbd
000003c0: 5465 aa3d dfb5 4c3d d2f0 273d 10b6 1f3c
000003d0: 593c 723d bcd3 31bd 46c0 363d bdef eabc
000003e0: c21b 863c de8d 233d 7704 133b 854e 6c3d
000003f0: f552 413d 7bf4 2fbd c042 e4bc 3242 a9bd

layer2.bias f4 [128]
-0.032275666 -0.04668383 0.056063537 0.038229592 -0.08828329 -0.08354618 0.032060813 -0.028952051
0.07223361 -0.067319885 -0.081286654 0.06993988 -0.070770584 0.021496758 -0.066072434 -0.08251808
0.0061668423 -0.0050237253 -0.055329055 -0.025926612 -0.06817651 -0.020957267 -0.06122994 -0.015385328
-0.060764134 -0.07262933 -0.00864847 0.06423072 0.020086609 -0.008860163 -0.025846208 -0.025734402
0.06809843 0.07342638 0.08807121 -0.05628656 0.034752995 -0.075275764 0.030831072 -0.07784856
-0.074395895 0.0043306095 -0.015109392 -0.06107388 -0.0070156907 -0.064070724 -0.045856413 -0.020387484
0.050709814 0.036149487 0.04769645 -0.047230158 -0.06311396 -0.024855524 -0.0383481 0.070083804
0.082513936 -0.030074727 0.062159248 0.008657584 -0.012013727 -0.05575462 0.07003664 0.0623417
0.05977286 -0.076620944 0.035668254 0.031020237 0.03811504 0.059545152 0.06503338 0.051747825
-0.036482953 -0.08288967 -0.05286521 0.007113134 0.06747687 0.036047682 -0.046407443 0.028749175
0.04627547 0.0011988987 -0.03324459 -0.052716717 0.07362683 -0.04739707 0.019573323 0.006080863
0.080756545 0.035598956 -0.07262551 -0.020105606 0.01298165 -0.045953352 -0.014063107 0.071320824
0.041709226 0.07844863 0.057937503 0.06048594 -0.060519796 0.014472722 0.08096339 -0.0125336405
-0.078650475 -0.044745717 0.08384425 -0.016681228 -0.042613212 -0.009540297 0.080532946 0.048639044
-0.0018039062 -0.026710374 0.022862367 0.0818368 0.017050307 0.02835483 -0.08630885 -0.08342302
0.071708836 0.072622225 -0.06548332 0.022786915 0.05021557 0.051688798 0.05985967 -0.015965194
00000000: 7d33 04bd 8b37 3fbd e1a2 653d a296 1c3d
00000010: dfcd b4bd 421a abbd 3352 033d da2c edbc
00000020: 37ef 933d 02df 89bd 9e79 a6bd a43c 8f3d
00000030: 2bf0 90bd f819 b03c fc50 87bd 3dff a8bd
00000040: 3913 ca3b 109e a4bb b8a0 62bd 0c64 d4bc
00000050: 20a0 8bbd 93ae abbc 3fcc 7abd be12 7cbc
00000060: d0e3 78bd b0be 94bd 50b2 0dbc 658b 833d
00000070: ac8c a43c 382a 11bc 6dbb d3bc f4d0 d2bc
00000080: 3177 8b3d 9260 963d ae5e b43d bc8c 66bd
00000090: 2859 0e3d 2e2a 9abd 7291 fc3c 116f 9fbd
000000a0: e05c 98bd c9e7 8d3b 628d 77bc 9b28 7abd
000000b0: e1e3 e5bb 8337 83bd efd3 3bbd a703 a7bc
000000c0: 18b5 4f3d 7c11 143d 5a5d 433d 6974 41bd
000000d0: e441 81bd d09d cbbc e612 1dbd 1988 8f3d
000000e0: 11fd a83d 465f f6bc b29a 7e3d 8ad8 0d3c
000000f0: 39d5 44bc f55e 64bd 5f6f 8f3d 035a 7f3d
00000100: 63d4 743d 71eb 9cbd e018 123d 271e fe3c
00000110: 841e 1c3d 9ee5 733d 3930 853d 87f5 533d
00000120: 266f 15bd 0fc2 a9bd 3189 58bd 4b15 e93b
00000130: 5031 8a3d bca6 133d bb15 3ebd 6483 eb3c
00000140: 598b 3d3d 5d24 9d3a 7b2b 08bd 7ced 57bd
00000150: aac9 963d 6e23 42bd 3c58 a03c fa41 c73b
00000160: b063 a53d 36d0 113d afbc 94bd 83b4 a4bc
00000170: fdb0 543c 9539 3cbd f268 66bc a710 923d
00000180: 4bd7 2a3d ada9 a03d e04f 6d3d 1bc0 773d
00000190: 9be3 77bd ff1e 6d3c 22d0 a53d e659 4dbc
000001a0: 8013 a1bd 4947 37bd 89b6 ab3d 12a7 88bc
000001b0: 318b 2ebd e84e 1cbc 75ee a43d bc39 473d
000001c0: 0c71 ecba b7cf dabc dc49 bb3c 0d9a a73d
000001d0: 16ad 8b3c 6348 e83c b2c2 b0bd b0d9 aabd
000001e0: 15dc 923d f6ba 943d 1e1c 86bd a0ab ba3c
000001f0: d7ae 4d3d a2b7 533d 6a2f 753d 70c9 82bc

layer3.weight f4 [2, 128]
-0.023014707 0.07119628 -0.0520153 -0.06027699 0.020123687 0.0622308 0.006671509 -0.07075829
-0.05162051 0.03328854 -0.022350093 -0.058613632 0.052709945 0.04311243 -0.015636975 0.037901953
0.046734955 0.013689602 0.027037414 0.063651875 0.07481999 0.08000426 0.00016166476 0.06513318
0.012707885 -0.018389324 -0.07184216 0.084895924 0.044389702 0.07352426 0.08153212 0.015500842
0.039083384 0.019019356 0.027178122 0.08753574 -0.007011044 -0.031031955 -0.034931634 -0.051591102
0.03139446 -0.016848981 -0.044886075 -0.08267534 -0.047774885 0.060649116 0.0648041 -0.07153642
-0.030887939 -0.05832681 0.014807483 0.06313316 -0.028080454 -0.074015915 -0.06786281 0.023744227
0.060682558 -0.04939855 -0.033667333 0.05186527 -0.0020496538 -0.02833305 0.04077654 -0.05426472
0.05209439 0.04499748 -0.08695607 -0.080637425 0.052701883 0.026231239 0.07780942 -0.038794268
0.007447306 0.01583476 0.0007148738 0.07003449 0.0003669726 0.037427697 -0.028822891 -0.087040246
0.0031834673 0.039890725 0.021544753 0.03813888 -0.028266205 0.041897748 -0.04461209 0.032193523
0.005125067 -0.08812531 0.049373608 0.0737114 0.0393297 0.07257311 0.072784804 0.040418014
-0.08794796 -0.060780548 0.028718315 0.012129315 0.068745986 0.047565013 -0.063430555 0.025633408
-0.023573501 -0.022714444 0.039620113 -0.08182024 -0.07733982 -0.036609236 0.06732604 0.079142995
-0.059649464 0.042576104 0.07157646 0.027294742 0.004985224 0.030758105 -0.07572132 -0.06325759
-0.05660133 -0.0025743716 0.015691692 0.018132892 0.01482704 -0.06734761 -0.008713798 -0.036911007
0.04520714 -0.055537567 0.0879052 0.02822647 -0.067455776 -0.03356733 0.06256325 0.020973777
-0.007858943 0.08539523 0.08310781 0.018821865 0.040056597 0.034930687 -0.05750617 -0.06553124
-0.043126993 -0.04991703 -0.032774568 0.01178036 0.024310702 0.00995851 0.0838774 0.013459364
-0.0135940965 0.041696742 -0.042581834 -0.08412554 0.082412384 -0.004852019 -0.07224519 0.052563578
0.024813756 0.03670807 -0.06619156 0.03076602 -0.065416194 0.043356072 -0.031188035 -0.013924718
0.023002991 0.05689126 -0.0488687 0.05071258 0.05443867 0.06739304 -0.009447785 -0.0014777528
0.07753825 -0.02354187 -0.08817718 -0.06557149 -0.009802462 -0.002900367 -0.087807775 0.054306984
-0.042308882 0.01421748 -0.07377818 0.06699805 0.07066814 0.00294617 0.06418408 0.046136584
0.0825699 -0.049747262 0.050510712 0.038033683 0.05964053 0.023087474 -0.00254234 0.07502819
0.050908882 -0.07680026 -0.028779006 -0.07621408 -0.06775601 -0.0458738 -0.012980597 -0.06812046
0.0054749073 -0.03776444 -0.038095683 0.023743764 0.04750943 0.08075418 -0.027888158 -0.006411621
-0.08590978 0.020168964 -0.051381875 -0.013437016 0.018784724 -0.06391314 0.04342998 -0.06738758
-0.030280182 0.0049981843 0.02166565 0.06368125 0.03688379 -0.009914403 0.011264103 -0.04172297
-0.0073092747 0.06250175 0.0846774 -0.06555661 0.055459194 -0.08624465 -0.07164114 0.04496115
-0.036610406 0.032569546 0.034340885 -0.04724905 -0.084216 0.0063291923 0.06719152 -0.027242636
0.026453795 -0.006951785 -0.05210025 0.045150127 -0.008507436 0.071732745 -0.0139174685 0.051109545
00000000: 5789 bcbc 5bcf 913d ff0d 55bd 01e5 76bd
00000010: 6eda a43c b9e5 7e3d ac9c da3b b9e9 90bd
00000020: 0770 53bd 9059 083d 8b17 b7bc d914 70bd
00000030: 62e6 573d a996 303d 1d19 80bc 143f 1b3d
00000040: 276d 3f3d 5a4a 603c 917d dd3c ea5b 823d
00000050: 393b 993d 46d9 a33d 8e84 2939 8b64 853d
00000060: bc34 503c 35a5 96bc fb21 93bd eadd ad3d
00000070: fad1 353d e393 963d 50fa a63d 3ef7 7d3c
00000080: e615 203d 7bce 9b3c a7a4 de3c f045 b33d
00000090: e6bc e5bb ba36 febc 7914 0fbd 3151 53bd
000000a0: 7a97 003d e006 8abc 76da 37bd b051 a9bd
000000b0: 99af 43bd 356b 783d 03b8 843d b081 92bd
000000c0: b408 fdbc 18e8 6ebd 169b 723c f54b 813d
000000d0: fb08 e6bc a895 97bd a8fb 8abd 4183 c23c
000000e0: 468e 783d 2256 4abd c2e6 09bd ad70 543d
000000f0: 7c53 06bb b61a e8bc 4d05 273d af44 5ebd
00000100: ed60 553d 474f 383d 0616 b2bd 3c25 a5bd
00000110: eedd 573d e5e2 d63c 8c5a 9f3d bde6 1ebd
00000120: 8808 f43b e6b7 813c 5e66 3b3a 3e6e 8f3d
00000130: 3b66 c039 c94d 193d fc1d ecbc 2842 b2bd
00000140: b8a1 503b 7564 233d 9f7e b03c 8437 1c3d
00000150: 878e e7bc f99c 2b3d 2bbb 36bd 5bdd 033d
00000160: 2ef0 a73b 0b7b b4bd fb3b 4a3d 01f6 963d
00000170: 2e18 213d 36a1 943d 3310 953d 5c8d 253d
00000180: 0f1e b4bd 06f5 78bd ac42 eb3c 09ba 463c
00000190: b2ca 8c3d 88d3 423d e1e7 81bd 27fd d13c
000001a0: 371d c1bc a413 babc b348 223d 5f91 a7bd
000001b0: 5764 9ebd 91f3 15bd 3ce2 893d b915 a23d
000001c0: ff52 74bd 4864 2e3d ae96 923d 3999 df3c
000001d0: 175b a33b 6cf8 fb3c c813 9bbd 328d 81bd
000001e0: ccd6 67bd cab6 28bb dd8b 803c 6e8b 943c
000001f0: 1ded 723c 8bed 89bd 51c4 0ebc ff2f 17bd
00000200: 1f2b 393d 5c7b 63bd a407 b43d 333b e73c
00000210: 4126 8abd e67d 09bd 2921 803d 33d1 ab3c
00000220: ccc2 00bc b2e3 ae3d 6d34 aa3d 5030 9a3c
00000230: 6312 243d 7b13 0f3d 978b 6bbd 3e35 86bd
00000240: eea5 30bd cd75 4cbd a03e 06bd 6902 413c
00000250: 3d27 c73c 0529 233c eac7 ab3d aa84 5c3c
00000260: c6b9 5ebc 34ca 2a3d 4a6a 2ebd 034a acbd
00000270: d3c7 a83d affd 9ebb 49f5 93bd e84c 573d
00000280: 3846 cb3c 345b 163d 718f 87bd 0509 fc3c
00000290: edf8 85bd 2396 313d 0d7e ffbc 8024 64bc
000002a0: c570 bc3c cf06 693d 8c2a 48bd ffb7 4f3d
000002b0: 15fb 5e3d 5d05 8a3d e2ca 1abc 28b1 c1ba
000002c0: 60cc 9e3d e1da c0bc 3d96 b4bd 584a 86bd
000002d0: 819a 20bc 1514 3ebb 90d4 b3bd 0071 5e3d
000002e0: 144c 2dbd 6ff0 683c 0419 97bd 4636 893d
000002f0: 75ba 903d 8814 413b f172 833d b7f9 3c3d
00000300: 681a a93d c9c3 4bbd 52e4 4e3d 35c9 1b3d
00000310: a149 743d f121 bd3c 639d 26bb 61a8 993d
00000320: d585 503d 7449 9dbd f3c1 ebbc 2116 9cbd
00000330: aac3 8abd 2ae6 3bbd 92ac 54bc bd82 8bbd
00000340: da66 b33b e3ae 1abd 380a 1cbd 4882 c23c
00000350: 4099 423d 7362 a53d b575 e4bc 9318 d2bb
00000360: 77f1 afbd 6239 a53c cd75 52bd ee26 5cbc
00000370: 6ce2 993c e4e4 82bd a2e3 313d 8002 8abd
00000380: 250e f8bc cfc7 a33b 297c b13c 516b 823d
00000390: 7513 173d 0570 22bc 138d 383c b4e5 2abd
000003a0: a482 efbb eb00 803d 586b ad3d 8b42 86bd
000003b0: 2e29 633d 09a1 b0bd 97b8 92bd 2f29 383d
000003c0: cbf4 15bd a567 053d 07a9 0c3d 3888 41bd
000003d0: 7079 acbd 1d65 cf3b b59b 893d f32b dfbc
000003e0: a1b5 d83c cdcb e3bb 1267 55bd 57ef 383d
000003f0: c662 0bbc 9ee8 923d 1806 64bc 3e58 513d

layer3.bias f4 [2]
0.06630685 -0.08545842
00000000: e3cb 873d d304 afbd
