ckpt/CartPole-v1_checkpoint.pt (torch, 72015 bytes, 6 tensors)

layer1.weight f4 [128, 4]
0.49286243 0.39666194 1.0433933 0.36363542 -0.16617356 0.17231955 -0.2252151 -0.111163884
-0.038480315 0.29167274 -0.063494846 0.39860517 -0.29862067 0.48620507 0.29539555 -0.4326383
-0.3254867 -0.1255586 -0.2834185 0.27354816 0.30158538 0.4248577 0.40272313 0.35335854
0.2506575 -0.080355875 -0.6077733 0.35992333 0.49723142 -0.20367122 -0.9073535 -0.46526048
0.16832471 0.10761778 0.18703486 -0.48658064 0.10508145 -0.44566053 0.040504746 0.3497212
0.050483663 0.28034785 0.010424116 0.15822871 0.19626674 0.25682995 -0.31287935 -0.36843732
0.21865751 -0.19312124 -0.025787579 0.07580519 -0.04463259 -0.37656176 0.02054166 -0.17528193
-0.051873397 -0.5663937 -0.18341644 -0.34524208 -0.21914332 -0.4106427 -0.54901993 -0.12669218
-0.24100244 0.3779497 0.8591731 0.521268 -0.38207912 -0.031838603 0.25783294 -0.060145233
0.1322955 -0.25867242 0.19908063 -0.056381226 -0.068092324 0.09427541 0.24326131 -0.27065796
0.14514086 0.11375908 -0.31580302 -0.2339102 -0.25677297 0.41549492 0.7099802 -0.06974282
0.38512796 0.51969254 0.507933 0.39791787 -0.21656464 -0.0884183 -0.2022695 0.35051835
-0.25561687 -0.27380028 -0.3528683 -0.16297315 -0.14850445 -0.20148566 0.18638897 0.25377205
-0.52184373 0.38921046 -0.3547522 0.051564455 0.03507799 0.15666918 0.18677701 0.22602725
0.09113512 0.14372768 -0.3643699 0.17354982 0.030876206 -0.2399505 0.011562508 0.4021673
0.32752392 -0.40069148 0.1118561 -0.27441186 0.7171839 -0.15040462 0.043710582 -0.1328556
-0.12923923 -0.073560394 -0.50411004 -0.12858656 -0.07561785 -0.09950271 0.47995463 -0.084907934
0.19876072 -0.38945314 0.50292546 -0.36554292 0.62780523 0.59232414 1.0668404 0.47289836
0.24034311 0.23458472 -0.6789568 -0.36955374 0.20743659 0.28878605 0.120935634 0.46041745
-0.37775245 0.059427544 0.44011742 -0.4707689 -0.55891496 -0.19066316 -0.5849353 -0.11947019
-0.098577045 -0.077073425 0.14187019 -0.4550841 0.1456796 0.13281538 -0.1674337 -0.37158224
-0.46882087 -0.077899285 -0.15477169 -0.06958062 -0.32185817 0.09807069 0.5560585 -0.106431164
-0.17482014 -0.10653156 0.031298008 -0.09101571 0.30873257 -0.11773722 0.3119134 -0.046482496
0.44327217 -0.22380966 0.7486847 0.4232825 -0.112133555 -0.3952808 -0.3523622 0.45639
-0.033723302 0.20751081 0.022158323 0.22332096 0.58095247 0.6282738 1.2373899 0.51678145
-0.2709287 -0.510226 -0.69961774 -0.41634768 0.2339975 0.11098987 -0.28511766 0.43166965
-0.009972979 -0.3892432 -1.0522909 -0.43059137 -0.10128829 0.10050698 0.06638572 0.0007216028
-0.13993713 0.14680552 0.7622526 -0.2815062 -0.36877674 -0.0013331751 0.28584597 -0.090961225
0.33251765 -0.108756825 -0.38350493 0.031652518 -0.38371533 0.40211275 0.23764898 0.22252767
0.37570542 -0.41782966 0.24493402 -0.008371807 0.37632078 -0.33966094 -0.7149662 -0.4093901
0.1248546 0.035251632 -0.28833196 -0.04518016 0.04468816 0.04532997 0.22897576 -0.045585454
-0.20275992 0.39362967 -0.48388395 -0.356666 0.43217203 -0.34849373 -0.2565393 -0.2940386
00000000: 7758 fc3e 4617 cb3e e98d 853f 6c2e ba3e
00000010: 6729 2abe 8974 303e ca9e 66be e4a9 e3bd
00000020: 899d 1dbd 2156 953e 9609 82bd fa15 cc3e
00000030: cfe4 98be dfef f83e 163e 973e c482 ddbe
00000040: 31a6 a6be 6f92 00be 3b1c 91be 810e 8c3e
00000050: 6669 9a3e f386 d93e ba31 ce3e 69eb b43e
00000060: 2e56 803e 9f91 a4bd 0897 1bbf df47 b83e
00000070: 1e95 fe3e 308f 50be 5248 68bf 9f36 eebe
00000080: 505d 2c3e b666 dc3d 1186 3f3e 1921 f9be
00000090: f134 d73d 9e2d e4be 4ee8 253d a80e b33e
000000a0: f5c7 4e3d c189 8f3e e9c9 2a3c b506 223e
000000b0: 26fa 483e 377f 833e b931 a0be d1a3 bcbe
000000c0: c1e7 5f3e 93c1 45be 7940 d3bc c03f 9b3d
000000d0: aad0 36bd b4cc c0be fc46 a83c 1b7d 33be
000000e0: 3379 54bd 2dff 10bf 85d1 3bbe 92c3 b0be
000000f0: 1b67 60be c33f d2be 928c 0cbf 98bb 01be
00000100: 58c9 76be a082 c13e c5f2 5b3f d271 053f
00000110: e09f c3be 3269 02bd ae02 843e d95a 76bd
00000120: 7978 073e b670 84be cbdb 4b3e 00f0 66bd
00000130: fd73 8bbd 7713 c13d 7e19 793e ae93 8abe
00000140: ce9f 143e 85fa e83d efb0 a1be 2886 6fbe
00000150: bf77 83be c0bb d43e 43c1 353f 53d5 8ebd
00000160: 7e2f c53e 920a 053f e607 023f e4bb cb3e
00000170: 1fc3 5dbe a714 b5bd bc1f 4fbe 2477 b33e
00000180: 37e0 82be 8d2f 8cbe 27ab b4be 6fe2 26be
00000190: 8d11 18be 4252 4ebe c0dc 3e3e 69ee 813e
000001a0: 8d97 05bf 9846 c73e 15a2 b5be 4035 533d
000001b0: f0ad 0f3d e36d 203e 7942 3f3e b073 673e
000001c0: 0da5 ba3d 592d 133e b18e babe 0bb7 313e
000001d0: 19f0 fc3c 95b5 75be ac70 3d3c dfe8 cd3e
000001e0: 37b1 a73e 6f27 cdbe d014 e53d b67f 8cbe
000001f0: 5d99 373f ab03 1abe de09 333d 4c0b 08be
00000200: 4a57 04be d5a6 96bd 5b0d 01bf 32ac 03be
00000210: 88dd 9abd 14c8 cbbd 9dbc f53e 36e4 adbd
00000220: ee87 4b3e 6766 c7be b9bf 003f 7128 bbbe
00000230: d8b7 203f 8ea2 173f 3a8e 883f bc1f f23e
00000240: 811c 763e fa36 703e 1dd0 2dbf 2636 bdbe
00000250: 426a 543e c4db 933e 1aad f73d d6bb eb3e
00000260: c568 c1be 4c6a 733d 1257 e13e 9f08 f1be
00000270: 0d15 0fbf 343d 43be 52be 15bf c9ac f4bd
00000280: c3e2 c9bd acd8 9dbd 6b46 113e c800 e9be
00000290: 082d 153e c100 083e bd73 2bbe 0740 bebe
000002a0: 4a09 f0be a989 9fbd 787c 1ebe 4980 8ebd
000002b0: 98ca a4be 49d9 c83d da59 0e3f 95f8 d9bd
000002c0: 0d04 33be 382d dabd 5732 003d 7266 babd
000002d0: 3212 9e3e 3620 f1bd 1db3 9f3e 6e64 3ebd
000002e0: 92f4 e23e 5c2e 65be cda9 3f3f 7cb8 d83e
000002f0: 47a6 e5bd 3f62 cabe d168 b4be f3ab e93e
00000300: 7221 0abd b77d 543e 5f85 b53c 40ae 643e
00000310: 4db9 143f 8dd6 203f cb62 9e3f ca4b 043f
00000320: 2bb7 8abe 2c9e 02bf 261a 33bf 862b d5be
00000330: 0a9d 6f3e a84e e33d f1fa 91be ce03 dd3e
00000340: b565 23bc e24a c7be 78b1 86bf 7976 dcbe
00000350: 3c70 cfbd 9bd6 cd3d 3df5 873d f229 3d3a
00000360: ae4b 0fbe 3054 163e fd22 433f 9521 90be
00000370: 4ed0 bcbe efbd aeba 675a 923e e149 babd
00000380: c13f aa3e e6bb debd c25a c4be 12a6 013d
00000390: 5676 c4be b9e1 cd3e 415a 733e 4bde 633e
000003a0: 765c c03e c5ed d5be fccf 7a3e e729 09bc
000003b0: 1ead c03e 0ae8 adbe 0608 37bf 949b d1be
000003c0: c5b3 ff3d 0464 103d 3fa0 93be d50e 39bd
000003d0: ef0a 373d ebab 393d 9f78 6a3e d0b7 3abd
000003e0: 4ca0 4fbe d489 c93e a3bf f7be ed9c b6be
000003f0: a745 dd3e c56d b2be 1e59 83be 3a8c 96be

layer1.bias f4 [128]
-0.19675234 0.7376095 0.69638354 -0.34741974 0.5308159 0.46027774 0.6087959 -0.33208054
-0.39318964 0.472003 0.71061355 0.58063793 0.6233914 0.27475938 0.32876658 0.0033858602
-0.34189427 0.28971073 0.61946076 0.6326244 0.32156542 0.13019067 -0.15032734 -0.48504922
0.3681021 0.44242933 0.7209854 0.53899384 0.5534795 0.5563993 0.645434 -0.18215692
0.42706612 0.5556864 0.40790644 -0.21658619 -0.48087552 0.6597853 -0.31845695 -0.23791362
-0.5131316 0.34294418 -0.2152819 0.4769614 0.35604557 0.66713655 -0.47223708 -0.43325427
0.49565616 -0.18536428 -0.20504321 0.4075876 -0.15254584 0.38178802 -0.13786069 0.3988245
0.7340181 0.19122861 -0.3623612 -0.27221256 0.5207565 0.33867 -0.55563 -0.2193546
0.71814483 -0.35290334 0.6269782 -0.08879604 -0.107224405 -0.577668 0.46608004 0.51062405
0.52619255 -0.36124343 -0.14508978 0.65362847 -0.23025425 -0.061994027 -0.110110454 0.27812177
0.28230247 0.68699735 -0.18693724 0.3404609 -0.45330006 -0.47957942 -0.13503174 0.20490634
0.72109014 0.7260657 -0.31317225 -0.30365336 -0.36051604 -0.26714063 -0.42284042 0.19577737
0.3556784 -0.26098272 -0.13650182 -0.40289098 -0.123720914 -0.33567044 -0.24207942 0.053670917
-0.334391 0.08878833 0.33823857 0.333285 -0.23731565 0.31200382 0.14228228 0.67811567
-0.33901706 0.3339333 -0.42569327 0.5367798 -0.40394294 0.5973795 -0.46974203 -0.2147805
0.29080483 -0.44767532 0.6485589 0.7399884 0.3855332 0.68978584 0.61368144 -0.15064012
00000000: 7279 49be fad3 3c3f 3146 323f 00e1 b1be
00000010: 8de3 073f 86a9 eb3e 0cda 1b3f 7606 aabe
00000020: 2750 c9be 61aa f13e c5ea 353f b0a4 143f
00000030: 9496 1f3f 43ad 8c3e 1854 a83e 4fe5 5d3b
00000040: c40c afbe f754 943e fb94 1e3f acf3 213f
00000050: 39a4 a43e b450 053e 69ef 19be 5f58 f8be
00000060: e177 bc3e 1986 e23e 8092 383f 80fb 093f
00000070: d5b0 0d3f 2f70 0e3f 2a3b 253f 5887 3abe
00000080: 69a8 da3e 7741 0e3f 1dd9 d03e c5c8 5dbe
00000090: 5135 f6be b0e7 283f ca0c a3be a19f 73be
000000a0: 985c 03bf 6196 af3e dc72 5cbe 4934 f43e
000000b0: 9b4b b63e 76c9 2a3f 0fc9 f1be 81d3 ddbe
000000c0: a5c6 fd3e 22d0 3dbe d9f6 51be 52af d03e
000000d0: fa34 1cbe b879 c33e 5a2b 0dbe ba32 cc3e
000000e0: 9ce8 3b3f 6fd1 433e 6887 b9be 725f 8bbe
000000f0: 4c50 053f 2766 ad3e c53d 0ebf 7e9e 60be
00000100: 57d8 373f bfaf b4be a581 203f b3da b5bd
00000110: 7898 dbbd 0de2 13bf 0ba2 ee3e 42b8 023f
00000120: 8eb4 063f e6f4 b8be 6a92 14be 3254 273f
00000130: c5c7 6bbe 73ed 7dbd 9781 e1bd fa65 8e3e
00000140: f389 903e 0fdf 2f3f 7a6c 3fbe e450 ae3e
00000150: f216 e8be 6f8b f5be c345 0abe f8d2 513e
00000160: 5d99 383f 71df 393f 1d58 a0be 7478 9bbe
00000170: 8f95 b8be a8c6 88be 8a7e d8be dd79 483e
00000180: 7b1b b63e 879f 85be 22c7 0bbe ba47 cebe
00000190: 6461 fdbd ffdc abbe abe3 77be 09d6 5b3d
000001a0: 4c35 abbe a8d6 b53d 9b2d ad3e 55a4 aa3e
000001b0: e002 73be f7be 9f3e 72b2 113e fd98 2d3f
000001c0: a593 adbe 4ef9 aa3e 78f4 d9be 676a 093f
000001d0: 9cd1 cebe dded 183f 0782 f0be 6bef 5bbe
000001e0: 5fe4 943e b335 e5be f507 263f e16f 3d3f
000001f0: 9c64 c53e ce95 303f 3a1a 1d3f 6741 1abe

layer2.weight f4 [128, 128]
-0.25011396 0.21764626 0.26841432 -0.08225899 0.17547256 0.10977883 0.120853886 -0.073305234
-0.07910791 0.010918524 0.22389738 0.15818551 0.19579875 0.13487741 0.16097 -0.004944924
-0.4428661 0.07190205 0.22817776 0.21158774 0.16583768 0.03190409 -0.1541566 -0.2551051
0.1326041 0.16354595 0.25486228 0.22307149 0.17778182 0.1157999 0.1721059 0.0036403842
0.024136094 0.14107133 0.21132156 -0.4453286 -0.04632326 0.15439588 -0.09470491 -0.1248892
-0.10767646 0.0349291 -0.26779655 0.12957303 0.22864074 0.2579809 -0.12237746 -0.04335689
0.27965173 -0.39075646 -0.29460418 0.06775888 -0.16974467 0.31637907 -0.061895072 0.19841531
0.22498257 0.14013675 -0.14279743 -0.3805298 0.20285916 0.1936666 -0.029277116 -0.2688818
0.15516034 -0.47834536 0.25074834 -0.005155588 -0.40357682 -0.164067 0.21585548 0.10306696
0.13761766 -0.308968 -0.08217175 0.23529536 -0.3523354 -0.06971227 -0.45205903 0.03444836
0.02933949 0.28368732 -0.32242823 0.16191705 -0.0492024 -0.51760477 -0.035260044 0.08411654
0.15069959 0.16263221 -0.32260957 -0.1471968 -0.059801668 -0.2523156 -0.039269097 -0.043672122
0.36189976 -0.35990494 -0.35164773 -0.09601588 -0.29285428 -0.14485548 -0.11304475 0.039186765
-0.123898245 0.1661992 0.25875136 0.1695355 -0.029429957 0.22336978 0.13200308 0.18186404
-0.018774938 0.14061128 -0.30881783 0.117535695 -0.3815605 0.23717497 -0.19196157 -0.08410728
0.12333764 0.039048407 0.21758696 0.2379971 0.05355499 0.1645528 0.2082644 0.042536795
-0.48891568 0.011206419 -0.15706837 0.06089961 0.03892567 -0.30578366 0.045785606 0.23641251
0.058187906 -0.14604855 -0.06166688 0.02468985 0.113305785 0.20571673 0.16655387 0.18855947
-0.68334985 -0.0021907112 -0.024167167 0.03976627 -0.01330934 0.015534113 0.081088305 -0.12449539
0.26155734 -0.15207484 0.09755232 -0.16506343 -0.02623265 -0.141761 -0.035616957 0.2138366
0.1054635 -0.08273223 0.00669218 0.2018448 0.114154115 -0.050216623 0.02259828 -0.042439904
-0.048007455 0.026641037 0.08601999 -0.07508295 0.10269437 -0.09748087 -0.2915486 0.06503547
-0.05657074 0.2088677 0.22491845 0.025970949 0.22540975 0.038267203 -0.06185081 0.001033355
-0.012605993 -0.10611991 0.12750344 0.44837683 0.055513248 -0.004141932 -0.03444132 0.3684591
-0.0031902466 0.29053634 0.020397533 0.034664564 0.07620413 -0.24229753 0.0130905 0.17972803
-0.017820884 0.298647 0.2290624 -0.06472887 0.20268416 0.12422602 -0.543633 0.008860856
0.022764092 -0.10601286 0.13533276 0.099010184 0.078563005 0.19213511 0.08106934 0.18801741
0.012105149 0.049142003 0.30647734 0.061639816 -0.4815761 0.27679372 0.028187225 0.12742089
0.08157869 -0.7910356 -0.23416433 0.116487086 0.306583 0.17269136 0.05893739 0.14097925
-0.02219227 0.20192158 0.0015857039 0.0041542924 0.14162013 0.25761 0.13266732 0.071257025
0.06534833 -0.03865675 0.2992729 -0.10825282 0.2919401 0.108287744 -0.2096151 0.12872279
-0.026338799 0.115806945 -0.006749473 -0.07894884 0.016328597 -0.042356733 -0.08407822 -0.06356728
00000000: f00e 80be a9de 5e3e 9a6d 893e 6777 a8bd
00000010: 14af 333e b9d3 e03d 3e82 f73d 0e21 96bd
00000020: 5403 a2bd 9ce3 323c 5b45 653e 62fb 213e
00000030: 787f 483e 4e1d 0a3e 52d5 243e 0709 a2bb
00000040: 58bf e2be 6241 933d 6ea7 693e 75aa 583e
00000050: 5ad1 293e ddad 023d 3adb 1dbe 239d 82be
00000060: 5fc9 073e 9778 273e 4f7d 823e da6c 643e
00000070: 700c 363e 7f28 ed3d 873c 303e 8393 6e3b
00000080: 0fb9 c53c 0175 103e ae64 583e 1c02 e4be
00000090: 75bd 3dbd f419 1e3e a6f4 c1bd e9c5 ffbd
000000a0: 7a85 dcbd d111 0f3d a11c 89be cbae 043e
000000b0: cc20 6a3e 1316 843e 09a1 fabd ff96 31bd
000000c0: 832e 8f3e 3b11 c8be 5cd6 96be 2bc5 8a3d
000000d0: 8cd1 2dbe 70fc a13e b085 7dbd 622d 4b3e
000000e0: d561 663e 0280 0f3e 7d39 12be cdd4 c2be
000000f0: 50ba 4f3e 8a50 463e 90d6 efbc e0aa 89be
00000100: 5ae2 1e3e afe9 f4be 1662 803e 35f0 a8bb
00000110: 9fa1 cebe 2e01 28be 3809 5d3e c514 d33d
00000120: a5eb 0c3e 0e31 9ebe aa49 a8bd 44f1 703e
00000130: 4e65 b4be 4ec5 8ebd 4874 e7be b919 0d3d
00000140: 5f59 f03c 773f 913e 5015 a5be 95cd 253e
00000150: 7588 49bd bf81 04bf d66c 10bd 4b45 ac3d
00000160: fe50 1a3e 0f89 263e 152d a5be c2ba 16be
00000170: 98f2 74bd 832f 81be a2d8 20bd 8ae1 32bd
00000180: ed4a b93e 7645 b8be 2c0b b4be f9a3 c4bd
00000190: fff0 95be ff54 14be 0284 e7bd 4d82 203d
000001a0: 5dbe fdbd 2030 2a3e 0f7b 843e b79a 2d3e
000001b0: 1817 f1bc 0cbb 643e d12b 073e 913a 3a3e
000001c0: e6cd 99bc 67fc 0f3e 5f1d 9ebe 8eb6 f03d
000001d0: e65b c3be ffdd 723e 9391 44be 7040 acbd
000001e0: 7298 fc3d 39f1 1f3d 1ecf 5e3e 83b5 733e
000001f0: 7a5c 5b3d 8780 283e 4343 553e 103b 2e3d
00000200: 2853 fabe 219b 373c 88d6 20be df71 793d
00000210: 8670 1f3d ad8f 9cbe b089 3b3d 1f16 723e
00000220: 7156 6e3d c08d 15be 6996 7cbd 5e42 ca3c
00000230: dd0c e83d 68a7 523e 198d 2a3e bc15 413e
00000240: 04f0 2ebf 0992 0fbb 39fa c5bc f5e1 223d
00000250: 6b0f 5abc cb82 7e3c a011 a63d 70f7 febd
00000260: d8ea 853e 82b9 1bbe 83c9 c73d 6306 29be
00000270: dbe5 d6bc cc29 11be 16e3 11bd fbf7 5a3e
00000280: 3ffd d73d 846f a9bd 134a db3b 67b0 4e3e
00000290: a2c9 e93d f2af 4dbd 0720 b93c 77d5 2dbd
000002a0: 77a3 44bd 4e3e da3c 402b b03d 17c5 99bd
000002b0: 6d51 d23d 0da4 c7bd dc45 95be 5131 853d
000002c0: b8b6 67bd 6ae1 553e 0651 663e 07c1 d43c
000002d0: d0d1 663e 12be 1c3d 4657 7dbd a471 873a
000002e0: 5e89 4ebc 6555 d9bd 4390 023e a691 e53e
000002f0: dc61 633d 0bb9 87bb 5712 0dbd aca6 bc3e
00000300: 7513 51bb 2ec1 943e ba18 a73c 6efc 0d3d
00000310: e910 9c3d d81c 78be 8979 563c a00a 383e
00000320: 1afd 91bc 42e8 983e 558f 6a3e 9290 84bd
00000330: 708c 4f3e 366a fe3d 882b 0bbf 202d 113c
00000340: c37b ba3c 451d d9bd ac94 0a3e dac5 ca3d
00000350: a4e5 a03d 11bf 443e af07 a63d a387 403e
00000360: ad54 463c 2049 493d 99ea 9c3e 087a 7c3d
00000370: 2591 f6be e8b7 8d3e e5e8 e63c 9f7a 023e
00000380: ba12 a73d 4f81 4abf c6c8 6fbe c890 ee3d
00000390: 72f8 9c3e 01d6 303e 5568 713d dd5c 103e
000003a0: 90cc b5bc 88c4 4e3e 65d7 cf3a bb20 883b
000003b0: de04 113e 75e5 833e f1d9 073e 34ef 913d
000003c0: 58d5 853d 8a56 1ebd 4c3a 993e a8b3 ddbd
000003d0: 2c79 953e f7c5 dd3d 57a5 56be e8cf 033e
000003e0: 77c4 d7bc 312c ed3d af2a ddbb eeaf a1bd
000003f0: 8dc3 853c 417e 2dbd 3431 acbd 902f 82bd

layer2.bias f4 [128]
0.18653612 0.04161608 0.21877797 0.04632946 0.13131668 0.15415019 0.14170617 0.072948575
0.16554108 0.024222655 0.023373231 -0.022528784 0.0053995983 -0.043074116 -0.05138995 -0.0699133
-0.010628123 0.31496534 0.04392634 0.18229224 0.12283095 0.16005437 0.20647968 0.18073599
-0.053694207 -0.0036606807 0.17516534 -0.038667586 0.026510151 0.14526275 -0.05636378 -0.050867103
0.12681401 0.075979926 0.011880989 -0.027787816 0.05990192 0.051811818 0.22406138 0.16759495
0.04354916 0.080246925 -0.04974082 0.044203464 -0.06461088 -0.01302954 0.23569022 0.2653747
-0.07656789 0.037795406 0.1679287 0.017291775 0.1614964 0.16631 -0.063216895 0.047540553
0.052122984 0.11195306 0.09936295 0.15928882 -0.049175117 0.1188894 0.13744624 0.14143778
0.035014328 0.22952072 0.04434159 0.11719038 0.22027217 -0.04608817 0.15940765 0.11566344
0.05546418 0.22085784 -0.06587897 0.24692062 0.019594287 0.033895127 0.04808021 -0.07453096
0.2297958 -0.07177599 0.12469764 0.2081776 0.28550503 -0.047367852 -0.03130602 0.27379447
0.0661645 -0.01446147 0.07788062 0.1257047 0.15991874 0.26638663 -0.04453402 -0.015847782
0.0333982 0.06560251 0.2038538 0.3323967 0.18930906 -0.054194577 0.0768293 0.26365232
0.055721518 0.25381592 0.31893048 -0.037098162 -0.021542799 0.16930337 0.2975383 0.11858951
0.16974708 0.018652348 -0.08703086 -0.030321062 -0.06623233 0.00710452 0.04947117 -0.022609087
0.25791427 -0.036674924 0.05982338 0.091265775 0.025635308 0.18646304 0.09771267 -0.054221462
00000000: 5303 3f3e 9f75 2a3d 5507 603e f6c3 3d3d
00000010: e177 063e 8cd9 1d3e 6c1b 113e 1066 953d
00000020: 9a83 293e 976e c63c 3879 bf3c 498e b8bc
00000030: 1def b03b 7c6e 30bd 457e 52bd b42e 8fbd
00000040: 9421 2ebc 2343 a13e 1bec 333d d1aa 3a3e
00000050: cb8e fb3d 4be5 233e 696f 533e db12 393e
00000060: 75ee 5bbd 08e8 6fbb 8b5e 333e e761 1ebd
00000070: d12b d93c c2bf 143e b5dd 66bd 065a 50bd
00000080: 88db 013e 5d9b 9b3d 7ba8 423c 46a3 e3bc
00000090: b75b 753d a138 543d 5970 653e 039e 2b3e
000000a0: 9b60 323d 8058 a43d 08bd 4bbd b10e 353d
000000b0: b652 84bd da79 55bc c758 713e 31df 873e
000000c0: a0cf 9cbd 5bcf 1a3d 80f5 2b3e 7ba7 8d3c
000000d0: 505f 253e 2b4d 2a3e dc77 81bd e2b9 423d
000000e0: e97e 553d a547 e53d cd7e cb3d 9c1c 233e
000000f0: d96b 49bd 497c f33d b5be 0c3e 11d5 103e
00000100: 2f6b 0f3d 7b07 6b3e 879f 353d 8301 f03d
00000110: 078f 613e f3c6 3cbd c23b 233e f4e0 ec3d
00000120: 682e 633d 8f28 623e 8eeb 86bd c2d8 7c3e
00000130: 3384 a03c 9ed5 0a3d c1ef 443d b0a3 98bd
00000140: 974f 6b3e 4aff 92bd 7a61 ff3d 822c 553e
00000150: b72d 923e cb04 42bd be3a 00bd ca2e 8c3e
00000160: 4181 873d cdef 6cbc e07f 9f3d bcb8 003e
00000170: bdc1 233e d463 883e 4e69 36bd 35d3 81bc
00000180: 8dcc 083d 9c5a 863d 0dbf 503e e62f aa3e
00000190: 3cda 413e 22fb 5dbd ae58 9d3d 70fd 863e
000001a0: 3f3c 643d 29f4 813e db4a a33e 3ef4 17bd
000001b0: 867a b0bc dd5d 2d3e f156 983e 0fdf f23d
000001c0: 2ed2 2d3e cfcc 983c 3c3d b2bd e063 f8bc
000001d0: d1a4 87bd 09cd e83b 48a2 4a3d b136 b9bc
000001e0: 570d 843e 7238 16bd 5c09 753d 8de9 ba3d
000001f0: 2301 d23c 2bf0 3e3e 951d c83d 5317 5ebd

layer3.weight f4 [2, 128]
0.27783528 -0.02743256 0.10280779 0.36937562 0.2195812 0.3435363 0.34291062 0.33834386
0.22197935 -0.67082113 -0.07551256 -0.15930372 -0.09247834 0.052254163 -0.38266525 -0.051019054
-0.06002447 0.25378078 -0.069631 0.3014496 -0.043653555 0.32926282 0.19969998 0.32850966
-0.21516451 -0.03973899 0.22434162 -0.0006652724 -0.15905327 0.29644707 0.075990975 -0.2798872
0.3398787 0.29859638 -0.39904255 -0.43944833 -0.06734011 0.07095409 0.22480743 0.3075897
-0.15463512 0.036831606 -0.02796925 -0.18127099 0.02295309 -0.24958256 0.22683795 0.28604218
-0.20328082 -0.13869743 0.27932212 0.18653375 0.34413433 0.36351308 0.05405964 -0.38780296
0.07178089 0.3474815 0.30533588 0.2622557 -0.011050475 0.29611215 0.24927317 0.3099858
0.30882373 0.32100734 -0.13783287 0.24860698 0.26400524 -0.13570446 0.27700105 0.3496514
-0.02107856 0.25728709 -0.00601712 0.31622013 0.3014531 0.041795645 0.48034406 -0.051507283
0.35776147 0.14716691 0.38978294 0.25123876 0.32114732 -0.17191318 -0.060205407 0.25037852
-0.2059328 -0.33034995 0.30043048 0.11242386 0.10897433 0.238682 0.06703027 -0.25843382
-0.012441413 -0.3190127 0.33241886 0.25890976 0.2714247 -0.02371459 0.2796889 0.23059471
-0.049503066 0.29772928 0.279245 -0.5072848 -0.13183206 0.3500697 0.3124046 0.32314742
0.29841304 -0.004347898 -0.37739208 -0.3244958 0.01858573 0.013017864 0.29842368 -0.49823925
0.34765407 -0.073451586 0.051582288 -0.2747019 0.19207807 0.26222482 0.28318915 -0.2854244
0.26401564 -0.24887486 0.21008967 0.3656438 0.2168508 0.3285168 0.35264602 0.3391616
0.2702443 0.042444415 -0.0774811 -0.2869755 -0.017536517 -0.0032817023 0.1358481 -0.26438633
-0.016032223 0.3723969 0.027204858 0.32422474 0.21512665 0.23092967 0.25527754 0.19444866
-0.07774104 -0.074893214 0.22980744 -0.045943744 -0.16305247 0.19566526 -0.053031467 -0.058725342
0.33971566 0.18672489 -0.7793722 -0.35468853 0.014972274 -0.05433626 0.26352063 0.3181293
-0.28669146 0.30058858 0.07902349 -0.29457217 0.06703138 -0.33167326 0.28865486 0.3435882
-0.3350305 -0.21443829 0.35514024 -0.09371837 0.23168047 0.38621497 0.029421885 -0.14748362
-0.07862884 0.27269575 0.20239808 0.30088404 0.07802162 0.28022686 0.31048355 0.25281754
0.24045162 0.19797477 -0.22764172 0.20705603 0.28346306 -0.12246288 0.29113305 0.24221405
-0.009703856 0.30522025 -0.065073565 0.29950985 0.35083738 -0.028458687 -0.07302702 -0.069402866
0.2760882 -0.14895132 0.36402875 0.36515823 0.19954027 -0.30220756 -0.19644658 0.35772046
-0.23678753 -0.36145526 0.32660764 0.3995704 0.3055246 0.3534692 -0.1336945 -0.2661204
-0.06462204 0.24269547 0.23537783 0.2687334 0.35012978 0.02278833 0.25997606 0.19736612
-0.018742628 0.19867837 0.34135756 -0.491875 -0.30230382 0.301198 0.27361885 0.31010768
0.1753681 -0.0375306 -0.33099374 -0.10355674 -0.039236374 -0.23148535 0.2698334 0.357357
0.20377372 -0.026096502 0.30768985 -0.1758317 -0.04989762 0.38997456 0.3287191 0.12064534
00000000: 6d40 8e3e 40ba e0bc e48c d23d cd1e bd3e
00000010: e5d9 603e fde3 af3e fb91 af3e 683b ad3e
00000020: 8e4e 633e efba 2bbf 54a6 9abd 8420 23be
00000030: 4965 bdbd 7608 563d b3ec c3be 5bf9 50bd
00000040: 38dc 75bd 8eef 813e b39a 8ebd 9a57 9a3e
00000050: 12ce 32bd 2395 a83e 277e 4c3e 6b32 a83e
00000060: 1654 5cbe 5ac5 22bd cfb9 653e ad65 2eba
00000070: dcde 22be e9c7 973e 28a1 9b3d 604d 8fbe
00000080: 9504 ae3e a0e1 983e 4e4f ccbe 5fff e0be
00000090: 9de9 89bd 6150 913d eb33 663e 667c 9d3e
000000a0: ab58 1ebe bddc 163d c51f e5bc 1a9f 39be
000000b0: 1e08 bc3c 9292 7fbe 3548 683e 1f74 923e
000000c0: d928 50be b306 0ebe 4f03 8f3e b402 3f3e
000000d0: 6032 b03e 631e ba3e a46d 5d3d 1c8e c6be
000000e0: dc01 933d 18e9 b13e fc54 9c3e 6146 863e
000000f0: 0d0d 35bc 039c 973e 7741 7f3e 75b6 9e3e
00000100: 251e 9e3e 135b a43e 0f24 0dbe d492 7e3e
00000110: b22b 873e 1cf6 0abe 15d3 8d3e 8205 b33e
00000120: f2ac acbc 22bb 833e 432b c5bb 9be7 a13e
00000130: 1058 9a3e e931 2b3d a8ef f53e 4df9 52bd
00000140: 832c b73e ecb2 163e a191 c73e 5ea2 803e
00000150: 6c6d a43e 020a 30be f299 76bd 9d31 803e
00000160: 0ce0 52be a123 a9be 06d2 993e 7b3e e63d
00000170: ef2d df3d 0e69 743e 2b47 893d 7051 84be
00000180: 11d7 4bbc a255 a3be ce32 aa3e d28f 843e
00000190: 2ef8 8a3e 1a45 c2bc 6233 8f3e 0521 6c3e
000001a0: bac3 4abd f96f 983e 33f9 8e3e 6bdd 01bf
000001b0: fcfe 06be 563c b33e 7ff3 9f3e 9473 a53e
000001c0: 98c9 983e d078 8ebb 8939 c1be 5024 a6be
000001d0: 1a41 983c e148 553c fdca 983e 3719 ffbe
000001e0: b7ff b13e c96d 96bd f347 533d baa5 8cbe
000001f0: 1db0 443e 5542 863e 2bfe 903e 2623 92be
00000200: 0f2d 873e 0dd9 7ebe bf21 573e aa35 bb3e
00000210: 230e 5e3e 5b33 a83e 058e b43e 97a6 ad3e
00000220: 765d 8a3e 32da 2d3d 69ae 9ebd 74ee 92be
00000230: bea8 8fbc d411 57bb c41b 0b3e a55d 87be
00000240: 0256 83bc ceaa be3e b9dc de3c c900 a63e
00000250: 294a 5c3e d478 6c3e bdb3 823e 8d1d 473e
00000260: b236 9fbd 9d61 99bd a452 6b3e 822f 3cbd
00000270: 3af7 26be 795c 483e 8637 59bd fc89 70bd
00000280: 36ef ad3e cf34 3f3e f084 47bf bc99 b5be
00000290: 454e 753c b38f 5ebd 2dec 863e d8e1 a23e
000002a0: 39c9 92be bfe6 993e 11d7 a13d 2ad2 96be
000002b0: c047 893d 14d1 a9be 92ca 933e cbea af3e
000002c0: 1e89 abbe b695 5bbe f1d4 b53e 6bef bfbd
000002d0: a53d 6d3e f8bd c53e 2a06 f13c f205 17be
000002e0: 2808 a1bd c79e 8b3e 7141 4f3e 790d 9a3e
000002f0: cdc9 9f3d e579 8f3e b3f7 9e3e 4d71 813e
00000300: f338 763e e6b9 4a3e e91a 69be 7f06 543e
00000310: 1222 913e d2cd fabd 640f 953e f606 783e
00000320: ecfc 1ebc d445 9c3e 4a45 85bd 5b59 993e
00000330: f5a0 b33e 3122 e9bc 318f 95bd 1723 8ebd
00000340: 6f5b 8d3e b286 18be fa61 ba3e 05f6 ba3e
00000350: 4954 4c3e f3ba 9abe 4b29 49be 2327 b73e
00000360: 6e78 72be aa10 b9be 1e39 a73e 7e94 cc3e
00000370: b86d 9c3e eaf9 b43e 36e7 08be ef40 88be
00000380: 8f58 84bd 2985 783e e306 713e 6d97 893e
00000390: 3644 b33e 98ae ba3c 951b 853e 581a 4a3e
000003a0: 248a 99bc 5872 4b3e 6bc6 ae3e 0ad7 fbbe
000003b0: 91c7 9abe a036 9a3e c517 8c3e 6fc6 9e3e
000003c0: b293 333e b0b9 19bd 0378 a9be 8e15 d4bd
000003d0: 52b6 20bd 7f0a 6dbe 9a27 8a3e 7ff7 b63e
000003e0: 0faa 503e 55c8 d5bc 8689 9d3e 3a0d 34be
000003f0: 7261 4cbd bfaa c73e df4d a83e e714 f73d

layer3.bias f4 [2]
0.09149411 0.102784835
00000000: 4461 bb3d db80 d23d
