ckpt/LunarLander-v2_checkpoint.pt (torch, 75111 bytes, 6 tensors)

layer1.weight f4 [128, 8]
000000 74 6d a0 be b9 e4 64 be 73 3e 96 be a1 41 8a be
       -0.31333506 -0.22352876 -0.2934452 -0.27003196
000010 e1 01 1e 3e ec af ab bd 69 28 ba bd 8a 34 3f 3e
       0.15430404 -0.08383164 -0.09089739 0.18672386
000020 d9 34 84 3d 74 6d 92 3d 9d 9e 74 3d 51 ef b8 bd
       0.064553924 0.07149783 0.059721578 -0.09030021
000030 8b 1d ce 3c fa a0 df bd b3 f9 02 be ec fa c0 bd
       0.025160572 -0.10919376 -0.12790565 -0.094228595
000040 1a 0c 1f 3e cd 96 1a 3e 5c 8b ac 3e f3 40 21 3e
       0.1553196 0.15096588 0.33700073 0.15747432
000050 66 0e 00 3e b2 f5 ad bd bc 55 a8 be 98 97 ac be
       0.12505493 -0.08494128 -0.3287791 -0.33709407
000060 ea cb 15 be c2 db 2e be b6 5a 2c 3e c7 e1 b7 bd
       -0.14628568 -0.17076018 0.16831478 -0.089786105
000070 70 fc 8b 3e 66 17 c6 3d 7c 3e a6 be fb 0d 17 be
       0.27341032 0.09672432 -0.32469547 -0.14751427
000080 27 34 97 3d f8 85 5a be 35 c5 fe 3d 81 d8 10 be
       0.07382994 -0.21340168 0.12439958 -0.1414509
000090 79 93 89 be e6 f9 39 3e 92 a0 43 3e e2 a0 30 be
       -0.26870325 0.18161735 0.19104221 -0.17248872
0000a0 99 9e ab 3d 84 0e 20 be 78 f2 8a 3e 05 28 02 3d
       0.083798595 -0.15630537 0.27138114 0.031776447
0000b0 9f dc da bd 77 54 a0 be 1d ea 64 be 8c b5 1c be
       -0.106866114 -0.31314442 -0.22354932 -0.1530363
0000c0 b3 ae ce 3d e7 8a 35 3d 39 f3 9c 3c 58 be b3 be
       0.10091915 0.04432192 0.019158946 -0.35106158
0000d0 b4 6f 85 3e d8 5b 9e bc 48 1b 39 3e 22 52 31 3e
       0.26061785 -0.019330904 0.18076813 0.17316487
0000e0 94 04 69 3e 9c b1 f1 bc 62 11 21 3d c3 a7 5f be
       0.22755653 -0.029503636 0.03932322 -0.2184134
0000f0 bb 71 93 3e ec e2 81 be f6 28 c7 3d e1 4d 55 3e
       0.28797707 -0.2536844 0.097246096 0.2083049
000100 45 8f 69 3d cf a8 82 3e 2a f0 a9 be e5 c8 1a 3e
       0.057021398 0.25519416 -0.33191043 0.15115698
000110 6d 53 96 be 7d b2 ad 3e dc 8f 8f be 18 b1 ea 3d
       -0.29360524 0.33925238 -0.28039443 0.11459559
000120 2f 05 e9 bd 33 0d 9a be 6c 3b c1 3c 84 e1 97 be
       -0.11377942 -0.30088195 0.023587905 -0.29664242
000130 7c fa 9f be 50 37 5e bd 00 e2 1d 3d dc ef 8d 3e
       -0.31245792 -0.05425197 0.03854561 0.2772206
000140 4e 19 ef 3d a4 22 fe 3d 4c f2 86 be 03 45 94 3e
       0.11674748 0.12408951 -0.26356733 0.28958902
000150 5e 35 bd bd 0d 84 37 3e a0 be 19 3c c4 06 54 be
       -0.092386946 0.17921467 0.009383827 -0.20705706
000160 bf 78 55 be e6 83 8e 3e b9 82 87 3e 5a da 99 be
       -0.20846842 0.27835006 0.2646692 -0.30049402
000170 e0 f3 91 be da 5e 26 bd 42 2f a1 3d 37 08 79 be
       -0.28506374 -0.0406178 0.07870342 -0.2431954
000180 a1 ad 4a be d9 75 1b 3e 32 95 2d 3e 83 a5 5a be
       -0.19792797 0.15181674 0.16951445 -0.213522
000190 b8 dc 86 be c3 ab 24 3c 93 b7 54 3e 81 c3 cc bc
       -0.2634027 0.010050717 0.20773153 -0.024995567
0001a0 0b 77 7b be 96 5e f2 3c 29 05 39 be c1 e0 4b be
       -0.2455713 0.029586118 -0.18068375 -0.19909956
0001b0 72 13 db 3d a1 1c 4c bd 92 75 30 3e 31 03 96 bd
       0.10697068 -0.04983199 0.1723235 -0.073248275
0001c0 46 f1 01 3e a4 ca dd bd d7 c7 1b be 8e d4 0a be
       0.12689695 -0.10829666 -0.15212952 -0.13557646
0001d0 72 19 13 be 94 27 a9 3e 16 08 1e 3e 3c ff 84 bd
       -0.14365175 0.33038008 0.15432772 -0.064939946
0001e0 f6 9b b1 bd f9 10 91 3e 01 e3 df bd 4e 6e 18 3e
       -0.08672325 0.28333262 -0.109319694 0.14885828
0001f0 06 c4 90 be 6f b2 1c 3d c0 77 12 3b 99 5d a3 3e
       -0.28274554 0.038256105 0.0022349209 0.31907347
000200 4b 88 4a be 82 42 90 bc 7e de ac be 21 ff a7 3e
       -0.19778554 -0.017609838 -0.33763498 0.32811835
000210 bf 0c 75 bc 94 d5 7d be 46 68 1a 3e 54 3a ad be
       -0.014956652 -0.24788505 0.1507884 -0.33833563
000220 10 e7 d8 3d 95 d0 6e 3d aa ae b1 3e 43 3e fa 3d
       0.10590947 0.058304388 0.3470357 0.12218907
000230 17 72 6b bd 96 69 92 3e e0 d6 86 3d b4 20 8b bd
       -0.05748185 0.2859618 0.06583953 -0.06793347
000240 0f 63 84 3e 4c 39 33 be eb 3f 6d 3e cd c1 8c be
       0.25856826 -0.17502326 0.23168914 -0.27491608
000250 ed 6b 73 3e 3f 98 ba 3b a5 fb 82 bd aa 55 4b bc
       0.23771639 0.0056944187 -0.06395654 -0.012410561
000260 6e 10 91 3d 10 98 91 3e 63 37 a7 be 09 71 33 3e
       0.07083212 0.28436327 -0.32659444 0.17523588
000270 88 59 9b be b9 20 a6 3e 9b de 50 3e fb 47 6a 3e
       -0.30341744 0.3244684 0.20397417 0.22879021
000280 55 c6 76 3c 1e 01 97 be 8a 02 7b be bc da 98 3e
       0.0150619345 -0.2949304 -0.24512687 0.2985438
000290 a6 9b a4 3e e2 ec c1 bd cb fd 18 3e 2a 39 24 3d
       0.3215 -0.0946901 0.14940564 0.04009358
0002a0 91 b1 a5 bd 4d 67 ad be 6c e1 6e ba af 1f 3a ba
       -0.08090509 -0.33867875 -0.000911257 -0.0007100058
0002b0 d0 75 3f 3d 14 e7 42 be 17 fa 6f 3e d8 59 25 3e
       0.046743214 -0.19033462 0.23435245 0.16147554
0002c0 41 c0 82 be 51 17 af be e1 7e 98 be 4d e3 85 3d
       -0.25537303 -0.34197477 -0.297843 0.06537495
0002d0 f3 b4 8e 3e 39 2a 9e 3e 80 33 58 3e 04 94 b3 be
       0.27872428 0.30891588 0.21113396 -0.35073864
0002e0 e7 49 a4 be a8 7c 93 be 38 5b 91 3e d1 c3 80 3d
       -0.32087633 -0.28806043 0.28389907 0.06287349
0002f0 3b 6d 98 3e 75 9b 86 3e e6 fd 9c be 20 e5 8f 3e
       0.29770836 0.2629048 -0.3066246 0.28104496
000300 74 71 4d be da cb 14 be 7e a9 96 3b 47 97 67 bd
       -0.2006281 -0.14530888 0.0045978418 -0.056540754
000310 a0 20 9e bc a9 23 60 be bf 0a 94 3e 2c fa 2f 3d
       -0.019302666 -0.21888603 0.2891445 0.042963192
000320 d3 aa 54 3e 97 4c 7c 3d f2 64 6f bb d6 a2 92 be
       0.2076829 0.06159648 -0.0036528674 -0.2863986
000330 ef f7 1f be 09 58 80 be cb 25 27 be a0 8e b3 3d
       -0.15621923 -0.25067165 -0.1632301 0.08767438
000340 ab 61 fd 3d eb 4d a0 3e f2 5d 61 be ca 29 0a 3e
       0.12372144 0.31309447 -0.22008494 0.13492504
000350 2f ac 7c 3e 06 1a 06 be 48 e5 93 3e 78 7f 84 3e
       0.24675058 -0.13095865 0.28885865 0.258785
000360 16 bd 2a 3e 58 65 f3 3d 0c 2a 3e 3e 03 8b 8f 3e
       0.16673693 0.11884564 0.18570727 0.28035745
000370 4b 58 99 3d c2 9b f5 bd 25 fa 90 3e d3 d5 80 3d
       0.07487544 -0.11992599 0.28315845 0.06290784
000380 e5 f1 83 bd 1c f9 ab bd 08 4a b2 be 65 1d 0a 3e
       -0.06442622 -0.08397123 -0.34822106 0.13487776
000390 10 5e a1 3c 29 34 c8 bb c6 99 8f 3e d1 27 a9 3e
       0.019698173 -0.0061097336 0.28047007 0.3303819
0003a0 ea c6 42 bd 7a 37 bb bd 16 89 f1 3d a4 ed b3 be
       -0.04755298 -0.09141441 0.11793725 -0.35142243
0003b0 60 cc 98 3d 83 13 52 3e cb 47 46 3d a3 8f a7 be
       0.074608564 0.20515256 0.04840831 -0.32726774
0003c0 ea 3d 84 3e d6 0a 16 3e be 59 9e be f2 bf 9e be
       0.25828487 0.14652571 -0.30927843 -0.31005818
0003d0 1a 45 49 3d 47 75 c0 bd 96 76 63 be a8 9d a1 3d
       0.049138166 -0.09397369 -0.22213206 0.07891399
0003e0 c2 cf 2c be d2 10 85 be 2f 7b 6f be bd b8 93 3e
       -0.16876128 -0.25989395 -0.23386835 0.28851882
0003f0 41 08 fa bd 8c 02 93 3e 9d 47 90 bd 0c c9 1c 3e
       -0.122086056 0.2871288 -0.07044909 0.15311068

layer1.bias f4 [128]
000000 2a 5c 09 be d6 d0 a5 bd 89 58 c3 3c 86 39 12 bb
       -0.13414064 -0.08096473 0.023845928 -0.0022312119
000010 57 84 fc 3d 9e 60 5d 3d 12 e9 a1 3e a3 3b 59 3e
       0.12329929 0.05404722 0.3162313 0.21214156
000020 15 37 9e 3e 70 d3 af be 6d 11 11 bd f7 69 9a 3e
       0.309014 -0.34341002 -0.03541701 0.3015897
000030 ee 78 9d bd f9 ae a9 3e 0a 14 53 3e d9 b9 5b 3e
       -0.07689081 0.33141306 0.20613113 0.21457614
000040 08 db 4d bd b4 ac 9d bd ee 73 85 be 42 8a 6a 3e
       -0.050257713 -0.07698956 -0.2606501 0.22904304
000050 81 2a 94 3e e7 3c 28 bd 94 c4 f8 bd a8 7e 4f 3e
       0.28938678 -0.041073706 -0.12146869 0.2026316
000060 54 37 14 be 42 93 9f be 3b 0f 1f be 18 13 94 3e
       -0.14474231 -0.31167036 -0.15533154 0.28920817
000070 69 2a 8a 3e f8 8b 96 3d 38 94 11 3e df 43 b3 bd
       0.2698548 0.07350916 0.14216697 -0.0875318
000080 8c ae 3d be 6a d3 bb 3d e4 1f cd 3d fc b3 49 be
       -0.18523616 0.091711834 0.10015848 -0.19697565
000090 ba 02 bc bc 23 e0 95 3e ac a0 02 3c c3 71 96 be
       -0.022950519 0.29272565 0.0079728775 -0.29383668
0000a0 f9 78 b1 3e 72 c8 e7 bd 14 e7 b3 bd fb 11 62 be
       0.34662607 -0.11317529 -0.08784309 -0.22077172
0000b0 dd fa f9 3d b0 28 83 be 31 66 b1 be a4 15 e6 bc
       0.122060515 -0.2561698 -0.34648278 -0.02808649
0000c0 73 e8 4e be cb 41 9e 3d a4 da 67 be 6d 13 2c 3e
       -0.2020586 0.07727393 -0.22641999 0.16804285
0000d0 34 0b a7 be ce 03 b8 3d c0 23 f9 3d 97 1c 10 3b
       -0.32625735 0.08985101 0.12165022 0.0021989697
0000e0 65 c7 85 3e 17 d9 ff 3d b1 ee 98 3d 4f db 47 be
       0.26128688 0.124925785 0.07467402 -0.19517253
0000f0 50 fd 47 3d 7c 4b 35 3c 41 8c b2 3e c3 82 ac be
       0.048825562 0.01106536 0.3487263 -0.33693513
000100 2e 50 8e be ef 6e 14 3e 49 93 a5 3e f1 99 fe 3d
       -0.27795547 0.14495443 0.32338932 0.12431706
000110 97 f4 e8 3c b9 1e a8 3e 8f 36 f8 3d 72 e0 9f 3e
       0.028436942 0.3283594 0.12119781 0.31225926
000120 a5 de 6d be 5b 46 35 bc 67 57 6e 3d 69 a6 53 3c
       -0.23229463 -0.011064137 0.058188822 0.012918093
000130 1a 40 5d 3e a3 63 a0 bd cf ca 9b 3d 3e 51 84 bb
       0.21606484 -0.07831504 0.07607042 -0.004038005
000140 b9 43 7b be 70 26 dd 3d a2 9c 83 be 39 69 a9 3e
       -0.24537553 0.10798347 -0.2570544 0.3308809
000150 f4 28 73 bd 2b a2 8c 3e a1 47 85 3e 2a 62 b2 3e
       -0.059365228 0.27467474 0.2603121 0.34840518
000160 22 87 d9 3c e7 61 76 3e ba 0c ae 3e f0 16 a9 be
       0.026553694 0.24060784 0.33994085 -0.33025312
000170 41 d3 81 bc 1a 8c 23 bd f3 f8 1f be 7c e9 77 3e
       -0.015847804 -0.039928533 -0.1562231 0.24210161
000180 6d e6 fd bd b2 fa ae 3e 71 11 a4 3e 55 63 9f 3d
       -0.12397466 0.3417564 0.32044557 0.07782618
000190 02 82 3b be 0d f5 25 3d cc 4e 97 be 63 6e 2a bd
       -0.18311313 0.0405169 -0.29552305 -0.04160918
0001a0 cd cd 8d 3d 7f 62 c4 3d 1a 05 d3 3d 7e bb 98 be
       0.06924019 0.09589099 0.103037074 -0.29830545
0001b0 22 0e 84 be d3 fb 47 3e ca 58 83 be 30 ba b4 be
       -0.25792032 0.19529657 -0.25653678 -0.352983
0001c0 48 bb e6 bd ad 90 ab bd 61 1c 7d be 85 64 61 3e
       -0.1126619 -0.08377204 -0.24717857 0.22011001
0001d0 52 c7 5c be 16 4e 90 bc dc bd 7c bd fa 1c 51 bd
       -0.2156041 -0.01761536 -0.0617045 -0.051053025
0001e0 de 36 4a 3e 91 ef aa 3d 7a 49 6d be e5 2d 31 3e
       0.19747493 0.08346475 -0.2317256 0.17302664
0001f0 0b 9f 99 3e 3c 72 d8 3d 32 4f 24 3e 32 1c 9e be
       0.30004153 0.105686635 0.16045836 -0.30880886

layer2.weight f4 [128, 128]
000000 a5 2a be 3c 26 78 10 bd ff 65 d3 bc 9e ab bb 3c
       0.023213694 -0.035270832 -0.025805471 0.022908982
000010 33 67 96 bd e1 e4 29 bd bb 8a b1 bd c7 bc 30 bd
       -0.073439024 -0.04147804 -0.08669039 -0.043148782
000020 ad 9b 41 bc 79 23 b8 bc 1c 72 8b 3c c6 a8 90 bc
       -0.011816901 -0.022477852 0.017022185 -0.017658602
000030 db 0f bf 3c 50 71 72 3d 10 75 1d bc c3 64 59 3d
       0.02332299 0.059190094 -0.009610429 0.05307461
000040 3c e0 8e bd d9 e3 21 bd ea df 97 bb f4 e0 ef bb
       -0.06976363 -0.039523933 -0.004634847 -0.0073205177
000050 84 97 75 3d fa 1e 6c bd 52 ac 4f bd 32 b4 e0 bc
       0.05995895 -0.05764673 -0.050701447 -0.027429674
000060 a4 da 80 bc d9 0f 17 3b 61 6c 99 bc e2 32 36 3d
       -0.015729256 0.0023050217 -0.018728437 0.04448212
000070 2b 85 a2 bc 14 0b 4d bd d5 dd 0f bd 78 50 15 3c
       -0.01983889 -0.050059393 -0.035123665 0.0091134235
000080 93 0e b7 3c 01 ef 4e bd 6b 83 23 bd 87 55 c8 3c
       0.022345817 -0.0505209 -0.03992025 0.024454845
000090 b4 d4 44 bd f1 71 66 bd 8b 50 76 3d 3f aa 99 3d
       -0.048054412 -0.056261007 0.060135406 0.07503175
0000a0 8b 22 62 3d bb 54 8a 3d d7 e2 15 bd 30 5b 84 bd
       0.055208724 0.06754442 -0.036593284 -0.06462705
0000b0 a2 4b a9 3d 8a 7d 9c bd 25 2d a2 bd e3 1f e7 3c
       0.08266379 -0.07641132 -0.07918767 0.028213447
0000c0 6a 48 91 3d e0 3b 1d bc bf 06 21 bd c5 ff 5e 3d
       0.0709389 -0.009596795 -0.039313074 0.05444314
0000d0 4c 9d ea ba 35 4f b3 3c cc e6 0c 3d f9 4b 97 bc
       -0.0017899661 0.021888355 0.034399793 -0.018468844
0000e0 83 f4 95 bd ee 35 bf bc 29 d5 33 3c ef 5c ad 3d
       -0.073220275 -0.023341145 0.010976114 0.08464991
0000f0 7f aa f5 3c c7 ae 92 bd f3 c1 00 3d 6e f2 a5 3d
       0.029988525 -0.071622424 0.031434964 0.081028804
000100 af 7e a6 3d 9e 53 95 bd 73 db af 3d f3 55 ad bd
       0.08129632 -0.07291339 0.085867785 -0.08463659
000110 4c c2 66 3d 4c b8 18 3d de f5 43 bd 5d 49 4a 3c
       0.05633764 0.037285134 -0.0478419 0.012346593
000120 0a f3 85 3d a1 be 57 3d a9 fc 41 bd 51 8c 3b bd
       0.06540497 0.052672032 -0.047360096 -0.045788113
000130 d4 ab 35 bc 56 61 db bb c1 8b dd 3c eb fe a6 bd
       -0.01108833 -0.006694953 0.027044179 -0.081540905
000140 b7 4a 36 bd 04 c9 40 bd ed cc 8a 3d 7f 03 88 bd
       -0.044504847 -0.047066703 0.06777368 -0.06641292
000150 44 89 8b 3c f6 5b 7c bd 5c 63 72 3c 6c 4b b1 3d
       0.017033227 -0.06161114 0.014794197 0.08656964
000160 58 c9 94 bd 3f 69 af bd 82 28 56 bd 59 b1 57 bd
       -0.07264966 -0.08564996 -0.052284725 -0.052659366
000170 69 7f b5 bc c8 ea ce b9 3d 06 4f 3d 6d 68 e4 3a
       -0.02215548 -0.00039466307 0.05054306 0.0017426141
000180 27 ea f2 bc e8 18 87 3d 8e b5 92 bd f7 81 0d 3b
       -0.029652668 0.06596547 -0.07163535 0.0021592358
000190 bc 5b 0d 3c 01 c1 7b 3d d3 7f 84 bc 30 32 da bc
       0.008627828 0.06146336 -0.016174233 -0.02663526
0001a0 eb 49 17 3d f1 53 36 bd dd 29 1e bc d0 e3 0a 3d
       0.036935728 -0.044513647 -0.009653536 0.033908665
0001b0 87 45 72 bd a6 66 66 bd c2 60 a7 bd 63 67 60 bc
       -0.059148338 -0.056250237 -0.08172752 -0.013696524
0001c0 e5 0f 10 bd d6 78 40 bc 6f 17 91 3d 33 97 b7 3c
       -0.03517141 -0.0117475595 0.07084548 0.022410965
0001d0 22 4a 5b bd 0d 01 8c bd e9 ad 12 3d b7 45 86 3d
       -0.053537495 -0.06836138 0.035810385 0.06556266
0001e0 4f ad b9 3c 9f 4c 9a 3d 5a 92 43 bd c2 96 11 3c
       0.022665648 0.075341456 -0.047746994 0.008886041
0001f0 4b ef 86 bd 17 ac 79 bd 2f 00 93 3d 61 33 94 3d
       -0.0658861 -0.060955133 0.071777694 0.07236362
000200 d4 83 53 3d d7 50 ad 3d b2 9c 73 bb f0 7c 33 3d
       0.051639393 0.084626846 -0.0037172255 0.04382032
000210 98 11 f7 3c 22 4b 06 3d 54 88 8d 3b 6e 15 23 3d
       0.030159757 0.032786496 0.00431923 0.03981536
000220 5c 3e 37 3d 95 02 9d 3d 5b 0b 8c bd 38 d6 35 3d
       0.044737205 0.07666508 -0.068381034 0.044393748
000230 a8 06 cd 3c 63 ad 99 3d a3 dc 88 3d 03 b3 32 bd
       0.025027588 0.07503774 0.06682708 -0.04362775
000240 0f f5 c5 3c 35 62 f7 3c b0 58 83 3d 0c 48 af bc
       0.024164705 0.030198196 0.064134 -0.02139666
000250 93 04 c6 bb 57 56 55 3d 26 05 b1 bb 05 46 45 3d
       -0.0060430258 0.052084293 -0.005402225 0.04816248
000260 2e 54 54 3b 5c 41 e4 bc b5 7e ae 3d eb ca 89 bd
       0.0032398808 -0.027863197 0.08520261 -0.06728157
000270 6a 61 4c 3d f6 15 87 bc e9 e4 18 3d 89 28 9b 3d
       0.04989759 -0.016489964 0.03732768 0.07576091
000280 35 9f 35 3d 52 a7 a5 bd 68 6f 82 3d 51 4a 84 3d
       0.044341285 -0.080885544 0.06368905 0.06459487
000290 41 ee 06 bd e0 9f 8a 3d bd 14 a3 3d c9 cc a6 bd
       -0.03294206 0.06768775 0.0796294 -0.081445284
0002a0 0d ff 77 3b 7e 81 ab bd e0 ce 9b bd 89 6d ca 3c
       0.003784123 -0.08374308 -0.07607818 0.024710434
0002b0 a9 d7 c7 3c 05 da b3 3c 21 37 9c 3a 7e e6 98 3c
       0.024394827 0.021954546 0.0011918285 0.018664595
0002c0 f1 f9 24 bd 03 8a 71 bd 04 71 76 bd aa 0e a8 3d
       -0.040277425 -0.05896951 -0.060166374 0.08205922
0002d0 cc 1f 4a 3d d2 5b ad bd 1e ce 49 3d 70 85 9a 3d
       0.04934673 -0.08464779 0.049268834 0.075449824
0002e0 88 fa 32 bd 23 98 ad 3c bd 80 4a bc a0 8b 43 bc
       -0.043695956 0.021190709 -0.012359795 -0.011935145
0002f0 30 4e ea bb be f2 77 3d 81 cf ab bd b9 fb 9d 3d
       -0.007150434 0.06053423 -0.083891876 0.07714028
000300 0e 1a ce 3c db f4 be bb 6b db 5e bd 8b 11 9d bd
       0.025158908 -0.005827529 -0.054408472 -0.07669362
000310 b1 0b 84 3d 7e 9d 16 bd 1a b0 24 bd 87 cb 1d 3d
       0.064475425 -0.03677129 -0.040207006 0.038524177
000320 a4 de 54 bc 2b 4f 1b bd 5f a6 96 bd f1 3d c1 3c
       -0.012992535 -0.037917297 -0.073559515 0.023589106
000330 a4 5c 6c 3d bf d6 93 3d 24 7e 09 3c 7d c4 fc 3c
       0.057705536 0.07218694 0.008391891 0.030855412
000340 53 cc 87 bd 9b ba 42 bd 0d 4f 44 bd 6f 1c 9d 3d
       -0.066307686 -0.047541242 -0.04792695 0.07671439
000350 df 69 9f 3d 28 2a 64 bd 99 3f 04 bd aa 67 a1 bd
       0.07783865 -0.055704266 -0.032287214 -0.078811005
000360 33 24 af bd 0a 11 4e bd 85 2e 34 3b 94 48 72 3b
       -0.08551826 -0.05030922 0.0027493548 0.003696953
000370 0d 0d ad 3d af ce 57 3d 54 ff 94 bc 5d 36 b8 ba
       0.08449755 0.052687343 -0.018188156 -0.0014054287
000380 bb 77 81 bd 04 c3 05 bd 96 ee 0c bd a6 61 41 3c
       -0.06321665 -0.032656685 -0.03440722 0.011803066
000390 f9 b7 1f 3d 4a d6 13 3d 37 15 0f bd 92 f3 d8 3c
       0.03899381 0.036093034 -0.03493234 0.02648333
0003a0 8b ff a6 3d d1 a4 6f bd 27 54 77 3c e7 bd 92 bd
       0.0815421 -0.05850679 0.015095747 -0.07165127
0003b0 a8 bf 87 bd 4d 5e a2 3b 25 d1 10 bd 11 4b 1d bd
       -0.066283524 0.004955089 -0.035355706 -0.038401667
0003c0 c2 6b a2 3d 02 84 93 bc 25 09 62 bd 09 f4 82 3d
       0.079307094 -0.018007282 -0.055184502 0.06394202
0003d0 5a 00 e8 3c 41 a1 7c 3d 1b a4 26 3c 8e 45 84 3c
       0.02832048 0.06167722 0.010170962 0.016146448
0003e0 dd f3 28 3d ed 2d 57 bd 65 25 4b 3d d8 b1 e2 bb
       0.04124819 -0.052534033 0.04959621 -0.0069181733
0003f0 15 7f a5 bd 30 f5 df 3c 83 99 8b 3d 1b 3f 57 3d
       -0.080808796 0.027338594 0.068163894 0.052550416

layer2.bias f4 [128]
000000 35 d5 21 bb 0f f6 55 bd 03 8f a7 bd d7 3b a7 bd
       -0.0024693732 -0.052236613 -0.08181574 -0.081657104
000010 2b 21 09 3d ef e9 2e 3c 72 fa 57 bb 66 40 40 3b
       0.033478897 0.010675891 -0.0032955674 0.002933526
000020 91 95 a6 bc 9b 62 83 bd 81 06 2b bd e7 98 3d bd
       -0.02033499 -0.06415292 -0.04175425 -0.046288397
000030 23 ff b4 3d 99 5f cd 3b 66 32 66 bd a1 b3 3d bd
       0.08837726 0.0062674996 -0.056200407 -0.046313886
000040 12 54 91 3d 85 bb 30 bd f3 57 71 bd 5a 9a 1f 3d
       0.07096113 -0.043147583 -0.058921766 0.03896556
000050 7c 7b 62 3d 9f c2 a7 bd a0 4c dc 3b 6f f5 04 3d
       0.055293545 -0.08191418 0.0067230016 0.032460626
000060 35 17 a5 3d 5f ed 86 bb 8d dc 46 bc 4a 2c 7d bd
       0.08061067 -0.0041176523 -0.012137544 -0.061809815
000070 99 83 05 3c 5c 90 a4 bd 15 86 79 3b 23 b6 d0 3b
       0.008149051 -0.08035347 0.0038074304 0.0063693686
000080 c0 1b 29 3d 2e 49 23 bd 26 e7 04 bd cf 37 69 3d
       0.04128623 -0.03986471 -0.032447003 0.05693799
000090 49 c2 bc bc 24 24 7e bd 09 e7 b1 3d c8 50 58 bd
       -0.023041861 -0.062046185 0.086866446 -0.052811414
0000a0 bb 3b 9a 3d e7 3e dc 3c 8d aa a3 3c 12 9e 70 3d
       0.07530924 0.026885463 0.019978786 0.058744498
0000b0 d7 b6 a7 3d 8d fa fe bc c6 0c 5f 3c d4 74 b3 bd
       0.08189171 -0.031125331 0.013613885 -0.087625176
0000c0 f2 51 3e bd 21 ae 06 3c 87 f2 ac 3d 5d 41 78 3d
       -0.046464868 0.0082202265 0.08444696 0.06060921
0000d0 3c a8 31 bd 51 0e 9f bd ca e9 1b 3d d4 75 fb 3c
       -0.04337333 -0.077664025 0.038064755 0.030695833
0000e0 ae a6 56 38 7b cd 8b bd 35 9e 2a bd 01 73 9e 3b
       5.117681e-05 -0.06826302 -0.041654784 0.004835487
0000f0 7c 00 1c 3d f0 37 4c 3c 2b 69 81 3c 1e cf eb bb
       0.0380864 0.012464508 0.015797218 -0.007196321
000100 1e 6a 38 3d 85 f7 9a 3b ed 4f 02 3c 1c 93 5f 3d
       0.045023076 0.0047292137 0.007953626 0.054583654
000110 6a 80 90 3d d0 ea 33 bb ca 8e 7f 3d 05 b0 5e 3d
       0.07055743 -0.0027453192 0.062392034 0.054367084
000120 78 86 af 3d 72 62 e3 39 31 bb 8f 3d 09 83 af 3d
       0.0857057 0.0004337016 0.07018126 0.08569915
000130 98 79 af bd 24 39 20 3b 79 95 40 bc fa 5f 82 3d
       -0.08568114 0.002444812 -0.011754387 0.06365962
000140 83 f9 69 bd 75 eb 93 3d 08 0f b8 3c d0 03 48 bc
       -0.05712272 0.07222644 0.022468105 -0.01220794
000150 eb 92 21 ba 7b af 4f bd f0 19 8f 3d a5 e1 4e bd
       -0.0006163555 -0.05070446 0.06987369 -0.05050816
000160 71 1e 00 ba 34 87 69 3d e3 a1 86 bd ff a9 b2 bd
       -0.00048873486 0.057013705 -0.06573846 -0.087238304
000170 04 54 30 bd c9 0e 81 3d 25 a5 80 ba f1 77 33 3d
       -0.043048874 0.06301648 -0.0009814842 0.043815557
000180 68 74 22 bd c9 b3 2a 3d bb 81 8c 3d 00 5f eb 3c
       -0.039661795 0.041675363 0.068606816 0.028731823
000190 26 75 8f 3d 5c 9c 67 bc dc 18 70 bd 08 96 1b 3d
       0.07004766 -0.0141364 -0.058617458 0.037984878
0001a0 46 aa 4b bd b3 49 79 3d aa c5 0c bd fe 8f 55 bd
       -0.049722932 0.0608613 -0.034368195 -0.052139275
0001b0 cb 13 a1 bc 0b f6 6b bd 54 a1 db bb 16 12 92 bd
       -0.019662758 -0.05760769 -0.0067025814 -0.07132356
0001c0 dd db 6c bd 7b 59 2f 3c ef a9 29 bd 03 a3 eb 3b
       -0.057826865 0.010702486 -0.041421827 0.0071910634
0001d0 89 41 a7 bd bc 9e 94 bd df e5 62 bd ed 75 b0 bd
       -0.08166797 -0.07256839 -0.055395003 -0.086162426
0001e0 d8 23 50 bd d6 d8 40 3d 2d 17 ec bc f4 e9 0f bd
       -0.050815433 0.04708179 -0.028819645 -0.035135224
0001f0 40 c5 94 3d cf fc 8d bd 5d aa 91 3d f6 27 99 3d
       0.07264185 -0.06932985 0.07112572 0.07478325

layer3.weight f4 [4, 128]
000000 0a a1 be 3c 6e 06 8d bd 0b c9 f3 bc c6 42 55 3d
       0.023270149 -0.06885992 -0.02975895 0.052065633
000010 e7 1f 1d bc a6 ad ab bd 07 fd ae 3d 53 9f 6b 3d
       -0.009590126 -0.0838273 0.08544355 0.05752499
000020 ca 01 9d 3d 80 e6 58 bd b3 56 41 bd a3 ec 76 3d
       0.07666357 -0.052954197 -0.047201823 0.060284268
000030 ce ef 23 bc 0e 4f a5 3d a9 25 0e bd 5c a0 4e bc
       -0.010005904 0.08071719 -0.034703884 -0.012611475
000040 e9 8e 42 3d f6 21 1e 3d 83 57 92 bd 26 e7 ad 3d
       0.04749957 0.038606606 -0.07145598 0.08491354
000050 14 0d 42 ba ff 4d 19 3d 39 08 52 3d a9 01 ac bb
       -0.00074024615 0.0374279 0.051277373 -0.0052492213
000060 cc 2d 91 bb d3 7b 47 bc 61 79 07 3c c4 d8 fe 3b
       -0.0044305082 -0.012175518 0.008268685 0.0077773053
000070 a8 c5 2f bd a0 f1 a2 bd 3d 08 85 3d 4f e5 85 bd
       -0.04291311 -0.079562426 0.06495712 -0.06537878
000080 63 7d d5 3c 11 54 81 bd 06 22 58 bd 02 cc 3a bd
       0.026060766 -0.063148625 -0.052766822 -0.045604713
000090 46 80 22 bd c0 73 b2 3d d1 4a 16 3d 29 e7 2e bd
       -0.039673112 0.08713484 0.036692444 -0.04270092
0000a0 93 32 a6 bd 2e e6 b4 3d 7a 8d e1 bc 9b 26 4e bd
       -0.08115115 0.08832966 -0.027533282 -0.050329786
0000b0 68 c7 87 3d 60 71 f1 bc 00 2a 1d 3d 17 2c 90 3d
       0.066298306 -0.029473007 0.038370132 0.070396595
0000c0 34 ca 89 bd 85 fc 79 3b 24 5e de 3c 05 21 12 3d
       -0.0672802 0.0038144898 0.0271445 0.03567602
0000d0 af ba 10 3d 49 fa 04 3d 8e 49 5c bd ef d0 9f 3c
       0.035334285 0.032465253 -0.053781085 0.019508807
0000e0 41 85 7f 3c 7a 65 7f 3d 76 28 93 bd 10 be 08 3d
       0.015595735 0.062352635 -0.07185452 0.033384383
0000f0 49 10 74 3d 52 b1 63 3d 4d aa 8c 3d 31 f0 4f 3c
       0.059585843 0.055589028 0.0686842 0.012691543
000100 01 c7 18 3d b6 66 69 3d 66 18 a9 bd 12 03 31 bc
       0.03729916 0.05698272 -0.08256607 -0.010803955
000110 35 37 9e 3d cd 72 0e bd e3 d6 ae bc b8 db 92 3c
       0.07725374 -0.03477745 -0.0213427 0.017927036
000120 1e ec 9e bc b5 f9 ee 3c 10 67 85 bd b6 98 9d 3d
       -0.019399699 0.029171804 -0.06513798 0.07695143
000130 bd b0 80 3d 81 f1 60 bd 15 ab cd 3c 9c a2 3c bd
       0.0628371 -0.054917816 0.025105992 -0.046053514
000140 10 ff aa bd f9 54 86 3d 71 a9 96 bd 83 d7 98 3c
       -0.083494306 0.06559176 -0.07356537 0.018657451
000150 4b 0c 38 bd 11 b1 80 bd bb b9 3a 3d ed 1f a5 3c
       -0.0449336 -0.06283773 0.045587283 0.020156825
000160 2c d5 80 3d 9c d2 c1 3c 1a 08 0a bd 97 ce 8c 3d
       0.06290659 0.023659997 -0.033699133 0.068753414
000170 c7 40 88 bd 6f 06 32 bd e1 81 aa 3c e1 b6 c5 bb
       -0.0665298 -0.043463167 0.020813884 -0.0060337638
000180 d8 49 e8 3c f4 09 33 3d e6 73 ad bd 65 b4 a4 3d
       0.028355524 0.043710664 -0.084693715 0.0804222
000190 d6 f5 a6 3d 71 4b 88 3d 3e ed 7b 3d 9b 6d 17 3d
       0.08152358 0.06655014 0.06150555 0.036969762
0001a0 f3 2b 3e 3d 77 4c 7f 3a 26 f9 b3 3d 71 6b a7 3d
       0.046428632 0.0009738872 0.08787756 0.0817479
0001b0 10 a9 5b 3c 38 8d a8 bd ca 88 c4 3c 3c fc 3a 3d
       0.013407007 -0.0823006 0.023991007 0.045650706
0001c0 09 48 a0 bd 97 75 bb bc 16 0f 4d bd 3c 15 4e bd
       -0.078262396 -0.02288322 -0.050063215 -0.05031322
0001d0 7e e4 05 bd 57 ba 29 bd 42 6e ae 3d 40 f6 78 bd
       -0.03268861 -0.041437473 0.08517124 -0.060781717
0001e0 dc 1c b2 bd c4 0f 9c bd ce db c9 3c 7a 98 16 bc
       -0.08696911 -0.076201946 0.024640944 -0.009191627
0001f0 47 fd f4 bc 0a a2 93 3d 0c 50 9e 3c c2 50 ed 3c
       -0.029905928 0.07208641 0.019325279 0.028969172
000200 3d e8 9e bd 56 65 97 bd ce 24 af bd 27 bc 53 bc
       -0.0775914 -0.07392375 -0.08551942 -0.012923277
000210 cf 66 84 3b 4c 86 95 3c 54 ad 97 3d 2c 17 43 3d
       0.004040576 0.018252514 0.074061066 0.04762952
000220 46 4a b4 bd 1a 9a c2 3c 5d dc 8a 3d d4 48 53 3d
       -0.08803229 0.023755122 0.06780312 0.051583126
000230 75 fb 45 3d 69 2d 5f 3d 1d 95 45 bc 3e f3 ec bc
       0.04833551 0.054486666 -0.012059477 -0.02892458
000240 d1 ed 9b 3d 65 c2 51 3d 3e e1 a9 bd 4d 93 0f 3d
       0.07613719 0.05121078 -0.08294915 0.035052586
000250 49 01 3f 3d 40 ef a3 bc fd 82 87 bc 7a b7 1d bd
       0.046632085 -0.020011544 -0.016541952 -0.038505055
000260 e5 a8 60 bd 37 26 1a 37 8d 5f c5 3c 01 01 5f 3d
       -0.05484857 9.188013e-06 0.024093414 0.054444317
000270 11 c5 a6 bd 13 9e 84 bd b7 9d 25 3d 5d ad 9f bd
       -0.08143056 -0.06475463 0.04043361 -0.07796738
000280 07 4a aa 3d 84 a8 8d 3d 46 61 6d bd df 21 23 3d
       0.08314901 0.069169074 -0.057954095 0.039827224
000290 4e 5d 9f bd 2b 41 aa bd 1a bb 0e bd 2d 21 03 3d
       -0.07781468 -0.08313211 -0.034846403 0.03201406
0002a0 04 74 a7 3d ef bb 5d bd 4d ec 92 3d f3 de b7 3c
       0.08176425 -0.054134306 0.07173977 0.022445178
0002b0 7d c3 a6 3d 69 71 9a bd 23 20 44 3d ba 24 ac 3d
       0.08142755 -0.075411625 0.04788221 0.084054425
0002c0 93 b2 44 bd 23 d5 d9 bc e8 1e fa bb e1 a3 ff bc
       -0.048021864 -0.02659089 -0.007633079 -0.031206073
0002d0 c1 eb 90 bd 9b ea b3 bd e1 04 94 3b 91 4d de bc
       -0.070762165 -0.08784982 0.004517183 -0.027136596
0002e0 51 97 a2 bd 53 ee 8f bd f3 b3 a8 3d 67 22 b3 3d
       -0.079390176 -0.070278786 0.082374476 0.08746796
0002f0 af b6 e6 3c fd a3 aa 3d f2 c8 a9 3d cc 25 9f bd
       0.028163282 0.083320595 0.082902804 -0.07770881
000300 a5 50 a9 3d 80 8f 11 3d 7a 5b 96 3d 7d 56 52 bc
       0.08267335 0.035537243 0.073416665 -0.012838003
000310 84 8a 9d 3d 73 4a 73 3c 14 e6 b2 bd 80 d4 67 3d
       0.076924354 0.014849293 -0.0873529 0.05659914
000320 31 ba 93 bb 9e 32 0c 3d 8e a2 5b bd 95 86 61 3d
       -0.0045082797 0.03422796 -0.05362182 0.055059988
000330 cc 9c 79 bd 1f 16 aa 3d db 38 46 3d e7 97 2b bc
       -0.06094055 0.083050005 0.048394065 -0.010473228
000340 67 e4 a3 3d 2e a2 46 3d 01 43 92 bd b4 32 24 3d
       0.08002549 0.04849451 -0.07141686 0.040087417
000350 67 60 8f 3d 48 a4 26 3d 06 7f 22 bd 2c f4 9d 3d
       0.07000809 0.040684015 -0.03967192 0.07712588
000360 69 d0 76 3d 39 59 0a bd a3 e0 9e 3d 35 8b 83 3c
       0.06025735 -0.033776496 0.0775769 0.01605759
000370 78 56 e3 3c eb fc 36 bd 76 18 a0 3c d6 af ab bc
       0.027751192 -0.044674795 0.019542914 -0.020957869
000380 2d 5a 27 3d 15 c3 7f bc 3f aa 48 bb 60 2b 96 3d
       0.040857483 -0.015610476 -0.0030619053 0.07332492
000390 d5 ac 1c 3d f0 a7 df 3b bf 25 ac 3c 8b 69 4d 3d
       0.038250763 0.0068254396 0.021014092 0.05014948
0003a0 85 da 92 3d 22 b6 09 bd 3f 18 a7 bc 06 c6 02 bd
       0.071705855 -0.03362096 -0.020397304 -0.03192713
0003b0 cf 70 a0 bd 0e c2 55 3d b4 ed 19 3d ee 38 ff bb
       -0.078340165 0.052187018 0.037580207 -0.007788769
0003c0 d2 51 f9 3c 45 e6 81 3d 2a f4 54 3c d7 6d 73 bd
       0.030434523 0.063427486 0.012997666 -0.059430923
0003d0 b4 cb bb bc 39 05 ab bb 4d a3 da bc bd b5 80 bc
       -0.022924282 -0.0052191284 -0.026689196 -0.01571166
0003e0 6e 28 2a 3c 99 fa 12 bd 79 25 79 3c 5e e2 e2 3b
       0.010385616 -0.03588352 0.015206688 0.0069239577
0003f0 57 82 aa bc 2d b2 a1 3d 4c 20 2e 3d 78 05 80 bc
       -0.020814104 0.078953125 0.04251127 -0.015627608

layer3.bias f4 [4]
000000 15 27 6b bd 69 ce 4e 3c e8 71 85 bd cd b2 af bd
       -0.05741032 0.012622454 -0.065158665 -0.085790254
