ckpt/LunarLander-v2_checkpoint.pt (torch, 75111 bytes, 6 tensors)

layer1.weight f4 [128, 8]
000000 a2 7c 8d 3d 43 ea 5d be 78 c5 41 3d 25 09 c8 bc
       0.069085374 -0.21671395 0.04730746 -0.024418423
000010 32 2b 38 be 5d 00 36 3f 08 46 62 be 1c 54 c8 3e
       -0.17985228 0.71094304 -0.22097027 0.3912667
000020 5e e3 64 3c d7 e0 61 3c 0a 6c a3 be 27 f5 cc 3f
       0.013970224 0.013786516 -0.31918365 1.6012315
000030 68 28 89 bd 14 c9 76 bd 7b ac 97 be b1 ee a3 be
       -0.0669716 -0.060250357 -0.2962378 -0.32018045
000040 d4 a9 91 3e d3 90 a0 be 09 11 82 3e 3a 40 16 be
       0.2844988 -0.31360492 0.25403622 -0.14672938
000050 ee f5 bc be 18 83 be be 4a 3b 4d 3e 78 3f 00 bd
       -0.3690638 -0.37209392 0.20042148 -0.03131053
000060 68 fd 80 3e cb a4 9d 3d c1 71 bd 3e 49 f6 22 3e
       0.25193334 0.076974474 0.3700085 0.15914263
000070 f4 8d 01 3e d5 14 02 bf cd 26 ec be 03 f8 10 bd
       0.12651807 -0.5081304 -0.46123353 -0.035392772
000080 9f 00 68 bd 0a 82 0b 3f 79 1e 3a be b6 c6 fd be
       -0.056641217 0.544953 -0.18175687 -0.49565667
000090 11 5e 9f be aa 09 10 bf 41 52 0b be c7 50 88 3e
       -0.31126454 -0.56264746 -0.13605596 0.26624128
0000a0 5a 43 bf bc 84 93 8a 3e f6 88 a5 bb 70 0a f9 3e
       -0.023347545 0.2706567 -0.0050517274 0.48640776
0000b0 82 32 85 3d bf 70 be be e4 b7 59 be 6a 12 87 3e
       0.06503774 -0.37195393 -0.21261555 0.26381236
0000c0 44 84 8a be ca f5 4b 3e 59 9f 9d bd c5 aa db 3c
       -0.27054036 0.1991798 -0.07696409 0.026814828
0000d0 f2 63 96 3e 9b 85 47 3f 02 55 0f 3e 92 19 93 3e
       0.29373127 0.7793824 0.13997272 0.28730446
0000e0 08 87 5d bd 75 de c3 bd dd f5 67 3e d9 cb 82 be
       -0.054083854 -0.09563915 0.22652383 -0.25546148
0000f0 69 43 c6 be f6 3b cc be c6 6a c2 3e da 9d d2 3d
       -0.38723305 -0.39889497 0.37972087 0.10284014
000100 e4 07 83 be e9 b9 9b 3e 7e 82 9b bc e8 2f a1 bd
       -0.25591958 0.30415276 -0.018983122 -0.078704655
000110 f6 38 27 bf 40 93 21 3f 96 43 9c bd 2b 25 db bd
       -0.6532129 0.6311531 -0.076300785 -0.107004486
000120 d9 64 1a 3e 4c 90 5e be 79 db 44 3e 4d 6f dc bd
       0.15077533 -0.21734732 0.19224347 -0.107634164
000130 05 d3 a8 be d2 3b f4 be b3 13 56 3e 8a 69 48 3e
       -0.32973495 -0.4770189 0.20905952 0.1957151
000140 85 26 b9 3e e8 a9 77 3d 6c 06 b9 bd fb 25 be bd
       0.361622 0.06046477 -0.09034428 -0.09284588
000150 f4 c6 a6 be e7 9f 1f bf 13 ee 60 3e d8 ba 88 3e
       -0.32573664 -0.62353367 0.21965818 0.2670505
000160 d7 af f2 bd 24 04 50 3f 0b b6 29 be 20 ff 23 bf
       -0.11849945 0.8125632 -0.1657335 -0.64061165
000170 71 bc 04 3f dd 4c 1d 3e 2d f8 42 be 26 16 20 3d
       0.5185004 0.15361352 -0.19039984 0.039083622
000180 c2 dc 72 3e 2e 9d b1 3e 5d ce 56 bc 4a 88 19 3f
       0.23717025 0.3469023 -0.013110724 0.59973586
000190 94 5b 16 be 43 bd ae be 35 19 8b bd 83 22 86 be
       -0.14683372 -0.3412877 -0.06791917 -0.26198205
0001a0 c0 6d 4b bd 4b 87 bf bd 43 ab a9 3e 8f 0f 03 bf
       -0.049665213 -0.09351977 0.33138475 -0.51195616
0001b0 78 50 d8 be 3e 23 c5 3e c0 9c 7d 3d 37 51 4d be
       -0.42248893 0.3850345 0.061917067 -0.20050512
0001c0 4b 59 dc be 2d 9d 8e be c6 68 07 bf 65 fc cc be
       -0.43036875 -0.2785429 -0.52894247 -0.40036312
0001d0 7b 89 9c bd e9 01 13 3e cc eb 3d be 76 cc f2 3d
       -0.0764341 0.14356197 -0.1854698 0.11855404
0001e0 97 ae b0 3e 5b 88 54 3e 28 92 c1 bc 93 44 98 3f
       0.345082 0.2075514 -0.023629263 1.1895927
0001f0 a7 8f 0f be 1f 7d 8d bd ca 4c 81 be 31 8d 7f be
       -0.14019643 -0.069086306 -0.25253898 -0.24956204
000200 bd 64 0e 3f c0 50 16 3e 58 15 18 3f 57 91 18 3f
       0.55622464 0.14679241 0.5940757 0.5959677
000210 68 3e c8 3e e6 ec 07 be c3 1a 71 be fe c4 42 3e
       0.39110112 -0.13273963 -0.23545365 0.19020459
000220 6d de 77 3e fd 46 f6 3e 6f a5 bf bc 9a 4b 21 bf
       0.24205942 0.48101035 -0.023394315 -0.63005984
000230 ee a2 36 be f9 e2 61 3e 98 c7 43 3d e0 47 56 be
       -0.1783559 0.2205924 0.04779777 -0.20925856
000240 e7 0b 43 be f5 c2 e8 3e 87 13 c7 be d0 4d ef bd
       -0.19047509 0.4546124 -0.38882086 -0.116847634
000250 19 88 38 3e 57 bb 00 3d 3a fd d5 3e fa 1a 9e bd
       0.18020667 0.03142866 0.4179476 -0.07719989
000260 5d cb c3 bc 32 e2 09 3f f2 3a 51 be 1b 54 2e bf
       -0.023900682 0.5386077 -0.20432642 -0.68097085
000270 ea f6 0b bf 9f e6 07 bf 15 94 c6 3e 1e d6 a0 be
       -0.54673636 -0.53086275 0.38784853 -0.31413358
000280 d6 3e 66 be 4c ea a6 3e cb 59 16 3e bb 11 b4 3e
       -0.22484908 0.3260063 0.14682691 0.35169777
000290 38 4f f3 ba af b3 59 3f 60 02 a6 3e c0 04 df be
       -0.0018563038 0.850398 0.32423687 -0.4355831
0002a0 8e 8c 10 3e e7 15 d2 3e 5e 47 70 bd 6d 42 12 bf
       0.14116117 0.41032335 -0.05866181 -0.5713261
0002b0 73 dd 36 3e 02 18 79 3e b7 22 76 3e f6 a0 e8 bb
       0.17857914 0.24325565 0.2403668 -0.007099266
0002c0 42 05 58 3e fc 84 74 bd 27 3f 73 be 01 96 b5 3b
       0.21095756 -0.059697136 -0.2375456 0.0055415635
0002d0 10 19 dd bd 1b 3e 4a bf 76 04 2f 3e 77 53 3a 3e
       -0.10795796 -0.79001015 0.17091545 0.18195902
0002e0 ef 0f 3c be 4f 41 87 be 68 dd c3 3e 98 e7 cf 3e
       -0.18365453 -0.26417014 0.38254857 0.4060638
0002f0 da 8b 9f be 1b c3 11 bf 42 54 89 3e 6e e2 dd 3d
       -0.31161386 -0.5693833 0.26822096 0.10834204
000300 dc cc d5 3e a7 21 fc 3e bb 2a 76 be c6 10 07 bf
       0.41757858 0.49244425 -0.24039738 -0.5275997
000310 dc 4a 05 bf f9 08 f2 3e 92 af a3 be 8c fa 6a 3e
       -0.5206735 0.4727247 -0.31969887 0.22947139
000320 9f e5 c3 bd 48 d1 0e 3d 77 99 00 3e 7b fb e3 3d
       -0.09565281 0.034867555 0.12558542 0.111319505
000330 c4 36 bc 3e 51 b7 17 3f 8f 88 96 3e 39 a8 33 be
       0.36760533 0.59264094 0.2940106 -0.1754464
000340 c5 ed 4d 3e 65 cd b4 3e 69 ba da 3c c7 dc 4a 3e
       0.20110233 0.35312954 0.026700215 0.19810782
000350 63 18 06 3e 66 49 0d 3f 69 a2 b7 3e 2d 0d 1f be
       0.1309524 0.5519012 0.35866097 -0.1553237
000360 da 86 ff 3e da b1 f2 3d 8a de d4 be 68 2a d2 bd
       0.4990757 0.11850329 -0.41576034 -0.102619946
000370 a2 2c 6d 3f 2c fb f1 be 79 af d0 3c f7 fd 07 3d
       0.9264623 -0.4726194 0.025474297 0.033201184
000380 08 5e fc be 33 b7 c3 3e f1 f0 cf 3e 85 c5 1c be
       -0.4929049 0.38225707 0.4061351 -0.15309723
000390 bf 11 a4 be 69 64 b8 3e 0f c4 3e 3e da 01 c7 3d
       -0.3204479 0.36014107 0.18629478 0.0971715
0003a0 a0 8c 89 be d3 9a a3 3d 22 2f 23 3e a3 f1 08 3e
       -0.268651 0.07988515 0.15935948 0.13373427
0003b0 15 64 37 3d b5 61 a2 3d ed 7c a6 be 3b be 4e 3d
       0.04477318 0.079287924 -0.32517186 0.050474387
0003c0 ae 2f 52 bd 86 b0 89 3e 87 c0 9c bd 5e 3c 36 be
       -0.051315002 0.2689249 -0.07653909 -0.17796466
0003d0 b5 27 df 3e 60 43 dd 3e dd b4 ac 3d 77 e0 6a 3e
       0.43584982 0.43215466 0.084329344 0.22937189
0003e0 da b6 83 bc 60 2b 38 3e 6a 0d 4f be cc 58 1c 3e
       -0.016078401 0.17985296 -0.20219961 0.15268248
0003f0 fb 60 ce 3e fe 54 29 3f 0e 07 65 3e 45 a3 a5 bc
       0.40308365 0.6614531 0.22365972 -0.020219455

layer1.bias f4 [128]
000000 c8 7f 2e be b2 ee 22 3c 1d 6c 11 bd ec 3b 9e 3e
       -0.17040932 0.009944605 -0.035503495 0.30905092
000010 9e cb 10 3f 2e 45 00 3e 87 65 02 bd 2d 11 3c be
       0.56560695 0.1252639 -0.031835105 -0.18365927
000020 fa 64 e7 3e e1 ff 8e bd c7 54 b9 bd f4 d4 ca 3e
       0.45194227 -0.06982399 -0.09049373 0.39615595
000030 0e 83 ec 3d 4e 61 ea 3e 2b 12 98 be 54 b7 8f be
       0.11548434 0.45777363 -0.2970136 -0.28069556
000040 2b df 61 be 9b 28 88 3e 31 27 07 3f 7f 6a 60 3a
       -0.22057788 0.2659348 0.52794176 0.0008560791
000050 ee e5 a0 be d7 c6 09 be b0 6f 36 3e 56 d6 3b be
       -0.31425422 -0.13454758 0.17816043 -0.18343481
000060 52 c8 65 bc 86 12 03 3e 5b 21 b0 be d7 06 c6 bc
       -0.014024811 0.12800035 -0.34400448 -0.024173183
000070 ce 75 ac 3d cd dc aa be 57 9a 18 be f8 4b 20 3e
       0.08420907 -0.33371583 -0.14902626 0.1565398
000080 d6 82 ef 3d d2 27 35 bd e1 a3 a9 3e 01 66 61 3e
       0.11694877 -0.04422743 0.33132842 0.22011568
000090 35 55 80 be 42 88 15 3c 3c a9 04 3f d2 05 bf 3e
       -0.25065008 0.009126725 0.5182073 0.37309128
0000a0 3d b2 4a 3e f8 a1 f8 bc cd 64 0f be 46 09 96 3c
       0.19794555 -0.03035067 -0.14003296 0.018314969
0000b0 80 a4 18 3f 90 31 a7 be 38 db a9 3e ef c7 67 3e
       0.5962601 -0.32655 0.33175063 0.22634862
0000c0 66 09 62 3e f7 ea c0 3e 9b 75 cc 3e 0d fb 7d 3d
       0.22073898 0.37679264 0.39933476 0.062007
0000d0 ef b8 f4 bd 1c 86 01 bd 49 46 74 3e b4 62 24 3c
       -0.11949336 -0.031622037 0.23854937 0.010033298
0000e0 bf bf 99 3e d0 a2 06 bd 71 b7 64 3e bb d4 53 3d
       0.30029103 -0.032870114 0.22335602 0.051716547
0000f0 b6 f3 30 3e c2 57 89 3e e3 c7 bf bd a9 04 1e 3d
       0.17280468 0.26824766 -0.09364297 0.038578663
000100 67 7e b1 be 89 4c 67 3d d3 27 f4 3e cc d5 3b be
       -0.3466675 0.056469474 0.47686633 -0.18343276
000110 c2 47 c7 bd e5 b2 5f 3e 1c 4b fd 3e 70 c6 fc 3e
       -0.097304836 0.21845587 0.49471366 0.49370146
000120 51 62 e7 bc 02 bc d4 3e 4c a9 f3 3e a6 b3 e4 3c
       -0.028245123 0.4154969 0.475901 0.027917694
000130 cb 5c 5c ba 57 3d 2a 3e b7 68 a2 3e b9 00 67 3e
       -0.0008406161 0.16624962 0.31720516 0.2255887
000140 8b 69 07 be 54 c7 11 bd b9 a2 a5 3d 3f 1f 86 3d
       -0.13223855 -0.035590485 0.080876775 0.065489285
000150 ff ae 4d 3e 15 4a a6 3e 79 9d c6 3e b7 2c 28 3e
       0.20086287 0.32478395 0.38792017 0.16423307
000160 90 59 3f be a1 12 60 be 03 30 56 3e 19 7f 04 be
       -0.18686509 -0.21882106 0.20916753 -0.12939109
000170 bb 78 2e 3d 1e fc 15 be 29 9b 33 3e f3 24 c8 be
       0.042595606 -0.14646956 0.17539658 -0.3909069
000180 b5 fc bb 3e bc 50 cb 3e 0b 28 c8 3e ee f0 80 3d
       0.36716238 0.39710033 0.3909305 0.06295954
000190 56 7a 67 bd 41 2d e1 3e ee 46 5a bd 50 01 80 3e
       -0.056513153 0.43979838 -0.0532903 0.25001
0001a0 78 ca c1 3d 9c 97 0d 3f 20 03 d1 3d 42 e6 61 3e
       0.09462446 0.5530946 0.10205674 0.22060493
0001b0 ca 3d ab be 86 f2 ce bd 28 84 a2 3e ee 1d 1e bc
       -0.3344558 -0.101048514 0.31741452 -0.0096506905
0001c0 b1 56 8d 3e 69 88 2f be e7 04 e4 3d 19 7d d5 3e
       0.27605203 -0.1714188 0.111337475 0.41697004
0001d0 bf db dc bb e9 4f 81 3d 9d 7c 53 be 12 84 1c 3f
       -0.006740063 0.0631407 -0.20653005 0.61139023
0001e0 42 b8 3c 3e a5 86 0a be f0 43 ac 3e c5 6a 9e be
       0.18429664 -0.13527925 0.33645582 -0.30940834
0001f0 9a d1 99 3e 13 d9 0e 3a b1 b2 7f 3e 9c 3a 17 3e
       0.30042726 0.00054492167 0.24970509 0.14768451

layer2.weight f4 [128, 128]
000000 b5 2c 0a 3f 72 67 3b 3f 2c a2 02 3e 8b f9 08 3e
       0.5397447 0.7320472 0.12757176 0.13376443
000010 22 89 09 3d 70 97 02 be f9 d5 2b 3e 41 03 e5 bc
       0.033578046 -0.12753081 0.16780843 -0.027955653
000020 23 73 ef bd 7e b9 5e bc e5 19 af bd 2b 46 1d bc
       -0.116918825 -0.0135940295 -0.08549861 -0.009599249
000030 bd 97 13 3d c4 9a 52 be e6 5b b2 be b2 02 08 3f
       0.03603338 -0.20566851 -0.34835738 0.5312911
000040 6d 46 41 3f bb 34 74 bd 8b 33 f0 3d a1 f9 1e bd
       0.75498086 -0.0596206 0.11728581 -0.038812283
000050 6a b5 d3 3d 2b 74 af 3d 4f e4 bb bb 33 ca 0d bd
       0.10337336 0.08567079 -0.0057340036 -0.03461666
000060 a2 c4 cb 3d 90 ec 8b 3e ed 48 aa 3e 0d b8 42 3f
       0.09949614 0.2732892 0.33258763 0.7606209
000070 fb a7 0d be a8 43 3e bd d2 8b 01 3f 45 e9 99 3e
       -0.1383361 -0.04645124 0.50603974 0.30060783
000080 52 66 b5 bb d3 12 ff bd b3 52 0c 3e af cf 53 bc
       -0.005535879 -0.12454762 0.13703422 -0.012927934
000090 4d 25 b9 bd 06 41 1b bd ec ed 5f bd 5f ad 2f 3d
       -0.09040318 -0.037903808 -0.05467026 0.04288995
0000a0 87 7f 58 be 9c fd ad 3e 8a 10 91 3d f9 c0 e1 3d
       -0.21142398 0.3398255 0.07083233 0.11023135
0000b0 e9 5b 4e 3d 3a 7b 25 be f4 ab 18 be f9 e2 8c be
       0.05038062 -0.16160288 -0.14909345 -0.27516916
0000c0 ea 4a fa bd f7 2d a2 3d 62 fe 95 3d 08 50 63 bd
       -0.1222132 0.07918923 0.0732391 -0.055496246
0000d0 db f6 60 be ee dc 81 3e 00 89 96 be c8 ba 82 be
       -0.21969168 0.25363868 -0.29401398 -0.25533128
0000e0 d7 4b b6 3e 0a ec 2d be 9a e3 33 3e aa 25 48 3e
       0.35604736 -0.16984573 0.17567292 0.19545618
0000f0 3a b5 d1 3d 1e 2d 10 3e 37 d2 28 3e d1 74 0e 3e
       0.10239644 0.14079711 0.1648644 0.1391175
000100 00 f4 93 3e 2f 5d 02 3e 5e f3 3e 3e db 1c 12 3f
       0.28897095 0.12730859 0.18647525 0.5707528
000110 eb ae b1 3e 01 8e f5 3c d8 c4 9f bd 39 34 00 3f
       0.34703764 0.02997494 -0.07801217 0.50079685
000120 f2 0b 09 3e 5b 65 07 3d 56 c4 f7 3d 14 34 ad 3e
       0.13383463 0.033055644 0.12097995 0.33828795
000130 44 f5 0a 3f bc e3 4d 3e 10 50 cd 3e ed 67 ae be
       0.54280496 0.20106405 0.40100145 -0.34063664
000140 60 65 b9 3c fc 32 08 3e 05 aa 8c 3c dc 31 d2 3e
       0.022631347 0.13300699 0.017170915 0.41053665
000150 00 8d 25 3e c4 01 87 be f9 fb 42 be e0 3e 0d be
       0.16167068 -0.26368535 -0.19041432 -0.13793516
000160 fd 10 3f bd b7 5c 22 3e 97 3f 41 3e f8 41 b2 3d
       -0.04664706 0.1585568 0.18871914 0.08703989
000170 9e 27 04 3e 92 a5 cf bc b8 b1 e9 3d 05 e0 39 bc
       0.12905738 -0.025347505 0.1141085 -0.011344914
000180 c3 6f 81 3d ed ab 96 3c 06 d9 59 be d6 72 46 3e
       0.06320145 0.018392527 -0.21274194 0.19379744
000190 85 37 03 3f c5 78 ba be 5d 07 3a 3f ef 99 71 be
       0.5125659 -0.36420265 0.72667485 -0.23593877
0001a0 9f 3a 3e 3f 33 bd 28 3d 4e 88 ae be 74 ce b2 bc
       0.743082 0.04119606 -0.34088367 -0.02182696
0001b0 b5 59 d3 bd a0 b1 10 be 5b a8 a5 3e 55 8f 68 3e
       -0.10319845 -0.14130259 0.32355008 0.22710927
0001c0 3d 74 99 3e 3f fd e5 be 9f 61 a2 3d 60 3f ad bd
       0.29971495 -0.44919774 0.07928776 -0.084593534
0001d0 40 03 94 3d a2 ef 3b bc 0d ac 6f bd 04 10 0d bd
       0.072271824 -0.011470707 -0.05851369 -0.0344391
0001e0 89 4c 15 3f 76 da c5 bd c6 57 03 be 59 83 bc 3a
       0.5831991 -0.09660809 -0.12826452 0.0014382406
0001f0 d3 6c 8d bd 63 07 32 3c 85 06 6e be 2d 8a f0 bd
       -0.06905522 0.010866019 -0.23244675 -0.11745105
000200 1b c4 37 3f b4 b8 23 3f f9 82 d5 bd 0d 6e 0b bd
       0.7178361 0.6395371 -0.10425372 -0.0340405
000210 e0 8c af 3e f3 b9 81 be ca 71 cd be bf ee 5c 3d
       0.34287167 -0.2533718 -0.40125877 0.053938624
000220 d6 13 72 3e 05 52 3d be e5 13 f2 3d c0 d6 30 3e
       0.2364038 -0.18488319 0.11820201 0.1726942
000230 16 cc 45 be 8d 5f 8f 3e de 90 b4 be 19 c7 b5 3e
       -0.19316134 0.28002587 -0.35266775 0.35503462
000240 90 cf 0b 3f b0 ab 82 3e 5b 8a 6e 3e 99 19 d6 3e
       0.5461359 0.25521612 0.23294966 0.41816404
000250 00 2d 89 be fc 81 ae 3e f3 06 30 bd e9 52 9b 3d
       -0.26792145 0.34083545 -0.042975377 0.07584173
000260 c7 d0 b3 3e 13 45 c1 be 62 0f e0 bd 51 1c 06 3f
       0.35120222 -0.37748012 -0.10940434 0.5238696
000270 9e 5c a7 3e 17 e4 90 3d 9f 42 ed bd e4 44 86 be
       0.3268785 0.07074755 -0.115849726 -0.26224434
000280 9c 6c 18 be 37 a4 31 bf ef 85 c1 3e 4b 8f 09 3e
       -0.14885181 -0.69391197 0.37797496 0.13433568
000290 f4 14 2b bf c0 a9 05 be 83 7b 65 3e 60 12 bf bd
       -0.66828847 -0.13053036 0.22410397 -0.09329677
0002a0 ae 0c 2e be b2 32 26 be 26 72 05 bf 6b a1 85 3e
       -0.16997024 -0.16230276 -0.521273 0.26099715
0002b0 61 0c 9a 3e 51 8b 3d be be ac 9a 3e 25 62 8d 3e
       0.3008757 -0.18510176 0.30209917 0.2761394
0002c0 35 4d b1 3e 54 81 b6 3e a0 a0 a0 3e b6 aa 67 be
       0.34629217 0.35645545 0.31372547 -0.22623715
0002d0 6e 27 60 be 4c fc b4 bd 6e 1c df 3e fe 87 93 be
       -0.21890041 -0.08837184 0.43576378 -0.2881469
0002e0 46 a7 53 3e fb 2f 22 be 2c da 2c be e0 91 0c be
       0.20669279 -0.15838616 -0.16880101 -0.13727522
0002f0 2b 6c 10 3e 3e 1f ea 3c be cf 0e 3f 73 19 3c bd
       0.14103763 0.02857935 0.5578574 -0.045922708
000300 4b 44 b1 be cf 94 c9 be 22 5b 00 3e 88 06 d8 3e
       -0.34622416 -0.39371344 0.12534764 0.42192483
000310 23 ce c6 3e b0 8a af 3e e0 c7 94 3e cc 6a 62 be
       0.38829145 0.34285498 0.29058743 -0.22111052
000320 aa b0 f0 be 29 22 ee bc 6b 88 9c 3e 18 cc 00 bf
       -0.47009784 -0.029069023 0.3057283 -0.5031142
000330 bf a5 00 3f 61 da 4f bc 99 1e d5 3d 25 89 01 be
       0.5025291 -0.012686343 0.10406227 -0.12649973
000340 f5 5b 2b be 77 c8 df 3e e7 79 07 be c1 b0 b8 3e
       -0.16734298 0.4370763 -0.13230096 0.36072353
000350 c1 7e 95 bd 00 fd b7 3e d9 ca a1 3e 41 ac c2 3e
       -0.07299567 0.3593521 0.31600073 0.38022044
000360 c4 c9 67 3d df 68 2e be 69 ef 44 be 64 d1 d8 be
       0.056588903 -0.17032193 -0.19231953 -0.42347252
000370 ec 38 b0 3e 68 f9 15 3e 48 98 02 3c c0 c7 d1 bd
       0.34418428 0.14645922 0.007970877 -0.102431774
000380 f2 a5 6f 3e 3d 23 10 be 18 6f 9a 3e 92 61 2b 3d
       0.23403147 -0.14075942 0.30162883 0.041841097
000390 90 81 45 3f 29 8e 1b be e1 45 d6 3e 09 39 3e be
       0.7715082 -0.15190949 0.41850188 -0.18576445
0003a0 d2 dc dc 3e 25 ca 83 3e 61 61 bd 3e a1 f9 b8 3e
       0.43137223 0.25740162 0.36988357 0.36127952
0003b0 f9 fb e8 bd fb ce 8c be 4e ac aa be 20 0d ef 3d
       -0.11376185 -0.27501664 -0.33334583 0.11672425
0003c0 da cd 7b be 23 4d 06 3f 72 0a d1 bd 6d 3f cc 3e
       -0.24590245 0.5246145 -0.102070704 0.3989214
0003d0 97 e7 02 bc d3 c0 16 bf 8f c7 64 be 4d fb 9e 3e
       -0.007989786 -0.58887976 -0.2234175 0.31051102
0003e0 5a f9 e3 3e 46 1a cd bd bb 87 d2 3e a4 35 d6 be
       0.44526178 -0.10014777 0.4111918 -0.418378
0003f0 9a d3 b5 3c de d5 97 be 9b 7d b2 3e 82 a0 1b 3e
       0.022195626 -0.29655355 0.34861454 0.15197948

layer2.bias f4 [128]
000000 f4 fb 91 3c 12 f6 81 3e cc c2 8e 3d 75 2d 97 bd
       0.017820336 0.2538305 0.06970748 -0.07381717
000010 fd e2 34 bd 77 3e 9d 3d 9f 29 25 39 7c 54 22 3e
       -0.044161785 0.0767793 0.00015751131 0.1585254
000020 de 5f 82 3b e8 db e5 bc a2 f0 1f 3e 77 8a 6d bd
       0.0039787134 -0.028058961 0.15619138 -0.05799338
000030 dd 89 9f 3e d7 00 38 3d 36 2a 77 3e 65 af a4 3e
       0.3115987 0.044922676 0.24137196 0.32165065
000040 2e ca 10 3d 54 87 25 3d 43 b4 ac bd c2 e6 bc 3c
       0.035349064 0.040412262 -0.0843282 0.023059253
000050 9d c7 62 bc f6 d4 4a 3d ef 14 9d 3d b1 9e 0a bd
       -0.013841537 0.0495195 0.076700084 -0.033842746
000060 0a b2 05 3e b9 70 1b bd ad b6 dc 3b eb c0 2a 3c
       0.13056198 -0.037949298 0.006735644 0.010421972
000070 d9 ae 02 3e 70 33 8e 3d 31 06 b8 3c 46 a7 a1 3d
       0.12762012 0.06943405 0.02246389 0.07893233
000080 7c 69 8d bc 62 c3 cc 3d 54 de 9b 3d 90 5f 8e 3e
       -0.017262213 0.09998204 0.07610765 0.27807283
000090 15 5a af 3c 5f 86 dc 3c ff b9 99 3e 63 05 56 3c
       0.02140526 0.026919542 0.30024716 0.013062808
0000a0 16 5d 94 3d 19 33 41 bc 82 c9 72 bd 06 a4 a1 3d
       0.07244317 -0.011791968 -0.059274204 0.07892613
0000b0 c8 7b 2c bc d4 ab b0 3d dd b1 e3 3c f8 9b 28 bd
       -0.010527559 0.086265236 0.027794773 -0.04116437
0000c0 70 34 a5 bd a9 70 ca 3b fd 71 a7 3c e7 52 6b bd
       -0.08066642 0.006177981 0.020440096 -0.05745211
0000d0 55 68 c0 bc 8b 08 a8 3e 5b 7c 8c 3d d9 a2 8f bd
       -0.02348725 0.32819018 0.068596564 -0.070134826
0000e0 b7 e1 84 3d e9 75 ae 3b 15 56 26 3e 61 f8 72 3d
       0.06488364 0.0053241146 0.16243775 0.059318904
0000f0 da 20 1b 3e ae 76 26 3e 34 07 44 3b 6e 72 3b bc
       0.1514925 0.1625621 0.002991152 -0.011440856
000100 38 16 01 3e ea 45 2f 3e 1c e5 11 bd b7 13 48 3c
       0.12606132 0.17116514 -0.035618886 0.012211732
000110 95 20 c9 3d ec d9 81 bd 31 d0 2f 3d 4b 69 95 bd
       0.09820668 -0.063403934 0.042923156 -0.07295474
000120 4c b7 ea 3d 60 d4 81 3e 9f 19 67 3c 74 a2 9b bd
       0.11460742 0.25357342 0.01410523 -0.07599345
000130 d9 60 2a 3e 45 3c 9f 3b 3d 46 2b 3c c3 2f 53 3e
       0.16638507 0.0048594796 0.010453758 0.20623688
000140 e7 f5 c6 bc 78 11 c2 3c 4a 24 6a bd 8b bf b9 3d
       -0.024287177 0.02368997 -0.057163514 0.09069737
000150 cc e5 9f 3d 91 df 31 bd 79 ee 5a 3e 55 73 0c 3d
       0.07807502 -0.0434261 0.21380033 0.034289677
000160 fe af fb 3b c9 a7 05 bd 25 db 5e 3e 4e 59 8e bd
       0.007680892 -0.032630716 0.21763285 -0.06950627
000170 3a a2 22 bd 4b 7d 5a bd 95 4a 7c bd 27 72 22 3d
       -0.039705493 -0.053342145 -0.061594564 0.039659645
000180 b6 32 d1 3b b3 d9 0a bd 58 1b 94 bc ea c7 e9 3c
       0.006384219 -0.03389902 -0.018079445 0.02853771
000190 cf 38 c2 3d ca 5c d6 bb e8 4f a6 3c 51 4f 60 bd
       0.09483492 -0.006541823 0.020301774 -0.054763142
0001a0 4e 1d 93 3d b0 de ae 3e 79 a0 94 bd 0d 8d 7b bc
       0.07183324 0.34154272 -0.0725717 -0.015353453
0001b0 91 c2 b1 3b 6d 72 b5 3d 3f 83 35 bd 2f 38 f6 bc
       0.0054248055 0.088597156 -0.04431462 -0.030056087
0001c0 1f b7 5f 3e 71 51 60 3c e9 55 28 bd 0c b6 c4 3d
       0.21847199 0.013691292 -0.041097555 0.09605035
0001d0 07 c5 a4 3e 26 9e 36 3e 92 73 a9 3d de 63 cf 3d
       0.3218157 0.17833766 0.082739964 0.1012647
0001e0 83 9c 8a bd 4b ed 28 3e 60 94 ab 3c a2 09 a9 3d
       -0.067681335 0.1649677 0.020944774 0.082537904
0001f0 ad 66 83 bd 2c c4 96 3c 49 f0 44 3d b0 53 eb bb
       -0.06416068 0.018404089 0.048080716 -0.007181607

layer3.weight f4 [4, 128]
000000 df 7b fd 3e c3 a3 9b 3e 92 46 a6 be 9d 50 00 be
       0.4950857 0.30398378 -0.32475716 -0.12530752
000010 1b 16 8e bd 6f 33 99 be 1c 2c 1e 3d 57 c6 85 3e
       -0.0693781 -0.29922053 0.038616285 0.26127884
000020 20 e4 bd be 59 40 7b be 14 a5 92 3e cf c4 14 3c
       -0.37088108 -0.24536265 0.2864157 0.009080126
000030 0c 93 9d 3e 80 b4 cb bd f1 ef 96 3e 52 d7 ef 3e
       0.3077625 -0.09946537 0.29479936 0.46843964
000040 f0 7a df bd 9c 18 66 be b9 3e a1 bd fc 63 5e be
       -0.1091212 -0.22470325 -0.078732915 -0.21717829
000050 45 34 dd be d7 81 a0 be ce 46 0e 3f 31 b1 8e be
       -0.4320394 -0.3134906 0.5557679 -0.2786956
000060 ef 9f 3f 3d fd 5a cd be 9d 72 c3 be 8b 12 49 be
       0.046783384 -0.4010848 -0.3817338 -0.1963598
000070 08 16 b1 be 74 8d 85 be 44 4e 7f be 26 98 a5 be
       -0.3458712 -0.26084483 -0.249322 -0.32342643
000080 82 b7 7f 3c ca 1f 04 3f 94 85 93 be d0 e3 04 3f
       0.0156077165 0.51611006 -0.2881285 0.51910114
000090 85 b0 f1 bd ee 2c 3c bd 37 b4 bb 3e c0 ea af be
       -0.118012466 -0.045941286 0.3666093 -0.34358788
0000a0 7b 46 82 bd d9 30 bb be c0 2c ca 3e a9 e2 6c be
       -0.06361099 -0.36560705 0.39487267 -0.23133339
0000b0 0a ae ab be 84 1a 09 3f ea 40 b8 be 29 ef a5 be
       -0.3353122 0.53556085 -0.35987025 -0.32409027
0000c0 8d 5d dd be f3 e9 93 be a4 3b 1c 3f 52 9d 8c be
       -0.43235436 -0.28889427 0.61028504 -0.27463776
0000d0 b8 c8 a9 be 1c 79 77 3e 38 4c b3 be 56 3d b7 be
       -0.3316095 0.24167293 -0.35019088 -0.35788983
0000e0 9f 1e 86 bd 89 68 ce be a6 21 33 3f 22 1a 2f be
       -0.06548809 -0.4031413 0.6997322 -0.17099813
0000f0 8e f7 13 3f 39 ee a3 3e 89 ae 73 be 5e 45 9f be
       0.57799613 0.32017687 -0.23797049 -0.3110761
000100 29 95 1c 3f 28 b7 0f be b8 42 cf be d7 9f be be
       0.611651 -0.14034712 -0.4048059 -0.37231323
000110 30 8f 1f 3f 5a b1 0f 3f 96 b1 b5 be 15 30 33 3d
       0.6232786 0.5612999 -0.3548705 0.043747026
000120 80 63 7f be 00 00 df 3e cd a9 87 be c4 b2 b3 bd
       -0.249403 0.43554688 -0.26496735 -0.08774331
000130 0a bd 21 bd 17 20 99 be 2e 15 9a be 03 a5 bb 3e
       -0.039486922 -0.29907295 -0.30094284 0.3664933
000140 b0 7a 90 be cb f3 ba be 35 ee 47 be 5a cb bf be
       -0.28218603 -0.36514124 -0.19524463 -0.37459832
000150 47 70 23 be 84 78 b6 3e f4 9d 88 3e ef 55 8c be
       -0.15960799 0.3563882 0.2668301 -0.27409312
000160 26 71 9a be 50 ec 89 be 4a 58 ea 3e 70 eb ae be
       -0.3016445 -0.26938105 0.45770484 -0.34164
000170 84 77 07 bf e4 0e b8 be d2 36 51 be 27 7c e3 3c
       -0.5291674 -0.3594886 -0.20431069 0.027769161
000180 4e de 85 be 23 ce 77 be ad 3e ab be 34 c8 98 be
       -0.26146168 -0.24199729 -0.33446255 -0.29840243
000190 1a 69 3f 3e 3e d4 7d be 92 af b8 be 59 d0 09 be
       0.18692437 -0.24787995 -0.3607145 -0.13458385
0001a0 df d0 60 3d b4 c1 c6 3e a3 a9 41 be 5f 41 a2 be
       0.054886695 0.3881966 -0.18912368 -0.316905
0001b0 55 9c d7 be 18 82 ab 3e 83 50 9e be 97 69 13 bb
       -0.4211146 0.3349769 -0.309208 -0.0022493356
0001c0 5a 61 c2 3e f5 1a b3 be 26 ec 9e 3d 16 69 9c be
       0.37964898 -0.34981504 0.077598855 -0.30548924
0001d0 cf 5d 97 3e e3 f2 38 3f c3 0a ae be 3b 48 7b be
       0.29563758 0.72245616 -0.33992586 -0.24539272
0001e0 4e 12 86 bd b8 6f 04 3f 50 46 ac be ac 90 98 3e
       -0.0654646 0.5173297 -0.33647394 0.29797876
0001f0 5a f5 6b 3e 43 9f bb be cf c5 ab be 3a 0b 80 be
       0.23042813 -0.36644945 -0.33549353 -0.25008565
000200 22 4d 12 3f 77 f9 a2 3e 89 a9 89 be f1 4d 24 be
       0.57148945 0.31830952 -0.26887158 -0.16045357
000210 56 b8 66 be c7 4c ab be 6c 48 87 3d cd 06 9c 3d
       -0.22531256 -0.33457014 0.0660561 0.07618485
000220 f4 e1 ac be 97 f9 be be 5c 16 07 3f 26 8f 6f be
       -0.3376614 -0.37299797 0.5276849 -0.2339445
000230 74 17 dd 3e b0 d4 20 be b4 10 b6 3e a7 f3 fa 3e
       0.43181956 -0.15706134 0.35559618 0.49014017
000240 fb 33 2c be 08 66 b8 be 3b a9 a1 bd cf ae bd be
       -0.16816704 -0.36015344 -0.07893606 -0.3704743
000250 80 27 7b be 9c f1 b0 be c6 59 fe 3e 9b ca af be
       -0.24526787 -0.34559333 0.49677867 -0.34334263
000260 ce b1 95 3d 8e 2a 78 be 0c 87 90 be 08 5e a1 be
       0.07309304 -0.24234983 -0.28228033 -0.31517053
000270 78 2f ae be e6 c9 92 be bb 31 67 be 04 4a a9 be
       -0.3402059 -0.2866966 -0.22577564 -0.33064282
000280 8e ab 80 3d 74 79 0d 3f 9c 04 b5 be 73 1f c5 3e
       0.062827215 0.5526345 -0.3535508 0.38500556
000290 f7 14 82 be 5b 46 34 bc 5b f4 ed 3e 93 2c b8 be
       -0.2540662 -0.011003102 0.4647549 -0.35971507
0002a0 50 5f b5 bc fa 06 b2 be b9 13 0f 3f 16 16 ca bd
       -0.022140175 -0.34770948 0.5588947 -0.09867494
0002b0 9f 52 79 be 0d c1 21 3f 4f 5f a2 be 0e 04 cb be
       -0.24347924 0.631852 -0.3171334 -0.3965153
0002c0 07 c5 95 be a8 0c e3 be 36 a2 88 3e 2f d6 71 be
       -0.29251882 -0.44345593 0.26686257 -0.23616861
0002d0 b4 5c 81 be bf fd 9d 3e 60 ad aa be fa 80 c5 be
       -0.2526604 0.30857655 -0.333354 -0.38574964
0002e0 7a f7 92 3d 60 9b b3 be 42 89 3f 3f 8d da d9 bd
       0.07176109 -0.3507948 0.74818814 -0.106373884
0002f0 f0 62 05 3f 26 bb 00 3f a7 85 c1 be f3 1d b6 be
       0.5210409 0.50285566 -0.3779728 -0.35569724
000300 c7 05 ee 3e 38 d6 ba bd 34 98 b4 be f9 f8 86 be
       0.46488783 -0.0912289 -0.35272372 -0.26361826
000310 3e 9f 1e 3f 3a 5d 1b 3f c8 64 d0 be e0 2d b9 bc
       0.61961734 0.6068913 -0.4070189 -0.022604883
000320 70 96 af be fc 10 dc 3e 6b 1b 57 be 34 2d 93 3d
       -0.34294462 0.42981708 -0.21006553 0.07186356
000330 8e 36 e0 3d 83 87 7a be a5 d5 65 be 6f e0 a1 3e
       0.109479055 -0.24465756 -0.2244478 0.31616542
000340 41 c1 fe be 18 94 b7 be a9 68 a9 bd 48 7f 88 be
       -0.49756816 -0.35855174 -0.082719155 -0.26659608
000350 ed 23 f8 3c 94 c5 05 3f 7f e0 da 3d 0e fb a7 be
       0.030290568 0.52254605 0.106873505 -0.32808727
000360 79 49 96 be 41 2f b3 be 6e 45 b6 3e a9 b8 ae be
       -0.2935293 -0.3499699 0.35599846 -0.3412526
000370 11 ce 8b be 98 72 82 be 88 2a 80 be 38 1e ae 3d
       -0.27305654 -0.25478053 -0.2503245 0.085018575
000380 8a 89 a2 be 73 83 bf be 65 5d 48 be d5 b2 a6 be
       -0.3174556 -0.37404975 -0.19566877 -0.32558313
000390 c5 1c 80 3d b6 45 98 be db cb c6 be fc ba 3d be
       0.06255487 -0.29740685 -0.38827404 -0.1852836
0003a0 c1 7f 1a 3c d7 89 4c 3e 7a 02 9a be bd d6 6f bd
       0.009429873 0.19974457 -0.30080014 -0.0585544
0003b0 ad 03 7a be 76 64 01 3e 1f 6f 90 be bf da 08 ba
       -0.24415465 0.12635979 -0.2820978 -0.0005220584
0003c0 e2 53 b7 3e 68 95 86 be 41 20 5e bd 0a fa ab be
       0.35806185 -0.26285863 -0.05422998 -0.33589202
0003d0 14 3c ca 3e 5f c0 2d 3f 18 19 c0 be 95 5f ad be
       0.3949896 0.6787166 -0.37519145 -0.33861986
0003e0 d1 62 2d 3d e9 eb 0e 3f c5 cc ba be c7 35 0d 3f
       0.042330567 0.5582872 -0.36484352 0.5516018
0003f0 f7 a8 2d 3f b9 5a a9 be c5 ca 47 be 3b f8 b4 be
       0.67835945 -0.33077028 -0.19510944 -0.35345635

layer3.bias f4 [4]
000000 31 d4 e0 3d 41 e3 77 3d 5c a1 09 3e 9b 18 b7 3d
       0.10977972 0.06051946 0.1344046 0.0894024
