ckpt/lunarLander_checkpoint.pt (torch, 75087 bytes, 6 tensors)

layer1.weight f4 [128, 8]
00000000: 02a3 94bc 131e dbbb 0385 97be 37cb 8ebe
00000010: 2813 dfbd 08bf 19be 78a3 b23d 5ace 03be
00000020: cd8f c3bd 9c15 a4bd 545c a13e 3d77 7c3e
00000030: 82da 91be 7d69 40be 8791 7fbe a541 b6bd
00000040: 28da 633e 0ef3 963e fb3d 223e baae 34be
00000050: e575 183e 4945 373d 8809 01be fd52 45be
00000060: 2c63 223e 9cb4 2d3e 1daa 7f3d 88c2 a03e
00000070: d8b8 a33e 5485 5c3d 46ef 7d3e a92f 3ebe
00000080: aa5a 783e 6951 473e 8a14 6ebe 7315 19bd
00000090: 07b7 12be 0fc0 b0be 5b37 87be 1384 4ebd
000000a0: dc86 8dbe a5e5 3fbe c334 9b3e 37f2 8bbe
000000b0: 2b15 6a3e b1a2 92be 26af ab3e ecd7 24be
000000c0: a6d1 a73e 5d06 8f3d 6a5c b13e 31ae 33be
000000d0: 1de0 a1be 42a2 0f3e e492 a23e 74dc 1b3e
000000e0: 7673 6dbe 227a 86be b858 a4bd 2f81 5e3e
000000f0: e5cc 853d 8908 a83e afa6 253e 3122 a33d
00000100: 8439 143d 6aaa d63d 5071 74bd 53b5 803e
00000110: d86c ae3d 4eef 0a3e 93cc 333e 9ed5 f3bd
00000120: a82d 83be e218 a9be 0bd1 b1be 0029 33be
00000130: 0d2f 8bbe d14f 9a3e 182e 8ebe 714c 75be
00000140: ff2b 33be 454d 40be 59f4 35be 6530 523d
00000150: 992b 8e3e 97cc 583e c848 85be 386a c6bd
00000160: 4cc8 48be c57a 86be f7b0 22be 29ae b13e
00000170: e7e9 a43e 5b29 8fbe b746 0e3d 918b 823e
00000180: 8584 0a3d d8d7 783e 724a 283e 6f75 ae3e
00000190: 0eb9 a9be 9fe2 25bd 8485 f33d 4d18 cbbd
000001a0: 13fa dfbd cee3 9d3e 5451 b43e 7319 5a3e
000001b0: a1f9 bebd 8202 bb3d 4179 643e 6226 0fbe
000001c0: 75f5 94be 2cd0 4bbe 28f7 5b3b 93fd 48be
000001d0: 4f28 6f3e 9238 63be 99e1 aabe b601 333e
000001e0: fb91 ea3c f0d5 34be d371 02bc 9e4a bebd
000001f0: 2530 a5bd e97a 8f3e 3ef1 143e 7e1a 3e3d
00000200: e63c 5f3e e8c8 28be dc6e 4cbe b301 593e
00000210: 176f 92bc 61e4 34bd c90d 10be 8564 8cbe
00000220: 10ed 453d c23a e3bc f832 65bd 9018 0d3d
00000230: b3cd 663e fc56 1ebe eddf 4fbd 2d89 aa3e
00000240: 66f2 a3be b602 aebd b38d 74be 69c2 9e3e
00000250: f30b c73d 7a80 023e cf0c 543e 28f5 a23e
00000260: f89b 823e c17b 31be c01c 78bd 80c3 e63d
00000270: d895 453e 671b a33e 53af 23be 68c1 d0bd
00000280: 0c3d 363d 1a2e cd3d 4e31 d13d 4576 943e
00000290: d400 223d fd79 15be 98f2 a8be 197c b53b
000002a0: 5586 233e 804f 81be 723f dabd 9d2e 2f3d
000002b0: d421 013e 8b63 493e 40c9 69be 28d7 1a3e
000002c0: c212 fdbd 8276 283e 366d 4fbe d018 c6bc
000002d0: 9730 873e 8584 9b3e a168 aebe 07f3 9cbe
000002e0: d6d6 663e 2cf1 623e 1cf3 adbe 82fb c23d
000002f0: cd13 1b3e 50df 333e 6588 8abe 684a 773e
00000300: 34cc 6b3e 7ebf 8bbd d56b 42ba 3771 9ebe
00000310: 25e2 473e 2866 133e e64c a83d 3b3a 103e
00000320: e417 17bd fc62 763e 219e fc3d 4fcb b3be
00000330: d0b6 6bbe f89c bbbd 8603 88be 63ba 46be
00000340: 3f90 42be 2fa3 9b3e 0c16 883e 2162 533e
00000350: 1f5b 71bd 2b68 323e 3403 9e3e 4c40 90bd
00000360: 6b79 62be f12c 23be 446e 90be 9c73 fd3d
00000370: 42b6 743d a88e 0bbe c106 d83d 3d94 13be
00000380: 04bc 9dbd 518d 12be 667f 72be 7bc1 5dbe
00000390: 62f3 b03d aca5 c83d 9a62 a3be 08cd e9bd
000003a0: 377a 7d3d 86e3 52be 90ea 17bd d0a0 373e
000003b0: b00a 4bbe 8f1f aa3e 24a7 2dbe 9efe 0cbc
000003c0: 5051 dc3b fb26 7a3e 22bb 873e 24e4 763e
000003d0: 0234 1b3e a24d 16be afe1 efbd beab fc3c
000003e0: ff88 a13d ec15 8dbe 29d6 8b3e 127d 743e
000003f0: 477d e6bd 0470 b0be e496 5dbe 7a48 033e
-0.018144134 -0.0066869347 -0.29593667 -0.27889416 -0.10892326 -0.15014279 0.087225854 -0.12871686
-0.09548912 -0.08011934 0.31515753 0.24654861 -0.2848702 -0.1879024 -0.24957858 -0.088992395
0.22251189 0.2948231 0.15843956 -0.17644778 0.14888723 0.04474381 -0.12601292 -0.19269939
0.15858144 0.16963428 0.062418092 0.31398416 0.31976962 0.05383809 0.24798307 -0.18572868
0.24253336 0.1946465 -0.23250023 -0.03737397 -0.14327632 -0.3452153 -0.2640942 -0.050418925
-0.27641952 -0.18739946 0.30313691 -0.27333233 0.22859637 -0.2863975 0.33532065 -0.16097993
0.32777137 0.069836356 0.3464082 -0.17546917 -0.31616297 0.1402674 0.31752694 0.15220815
-0.23188576 -0.26265055 -0.08024734 0.21728967 0.06533221 0.32819012 0.16176866 0.07965506
0.036187664 0.10481723 -0.059678376 0.2513834 0.08516854 0.1356785 0.17558508 -0.119059786
-0.2562077 -0.33026797 -0.347298 -0.17496109 -0.27184334 0.3013902 -0.27769542 -0.23954941
-0.17497252 -0.18779476 -0.17768992 0.051315684 0.27767637 0.21171795 -0.2603209 -0.09688228
-0.19607657 -0.2626554 -0.15887819 0.34703186 0.32209703 -0.2796124 0.034735408 0.25497106
0.033817787 0.24301088 0.16434649 0.3407397 -0.33148998 -0.040499326 0.118907005 -0.099167444
-0.1093637 0.30837864 0.35218298 0.2129877 -0.09324957 0.09131338 0.2231188 -0.13979486
-0.2909352 -0.1990363 0.0033564065 -0.19627981 0.2335522 -0.22189549 -0.33375242 0.17481121
0.028634062 -0.17659736 -0.007961708 -0.09291576 -0.080658235 0.2802346 0.14545152 0.046411984
0.21800575 -0.1648289 -0.19964164 0.21192054 -0.017875237 -0.04416311 -0.14067759 -0.2742044
0.048321784 -0.027737979 -0.05595681 0.034447253 0.22539406 -0.1546287 -0.05075066 0.33307782
-0.32020873 -0.08496611 -0.23882179 0.31007698 0.09719076 0.12744322 0.20708011 0.31827664
0.2550962 -0.17332365 -0.060574293 0.112677574 0.19295442 0.31856844 -0.1598485 -0.10193139
0.044491813 0.10018559 0.10214482 0.28996482 0.03955157 -0.14597316 -0.32997584 0.0055384752
0.15969212 -0.25255966 -0.106566325 0.042769063 0.1261056 0.19666879 -0.22830677 0.15121138
-0.123570934 0.16451457 -0.20256504 -0.024181753 0.2640426 0.30374542 -0.340642 -0.30654165
0.22542891 0.22162312 -0.3397454 0.095206276 0.15144272 0.17565656 -0.27057186 0.24149477
0.23027116 -0.068236336 -0.0007416581 -0.3094575 0.19519861 0.14394438 0.08217792 0.14084713
-0.03688802 0.24061197 0.12334848 -0.3511605 -0.23018956 -0.09160799 -0.26565188 -0.19407038
-0.19000338 0.30397937 0.2657932 0.20642902 -0.05892479 0.1742255 0.3086182 -0.07043514
-0.2211663 -0.15935113 -0.28209126 0.12375566 0.059744127 -0.13628638 0.10548163 -0.14412017
-0.07701877 -0.1431172 -0.23681411 -0.21655838 0.086401716 0.097972244 -0.31911165 -0.1141606
0.06188413 -0.20594606 -0.03708893 0.17932439 -0.19828296 0.33227202 -0.1695829 -0.008605627
0.0067235604 0.24428932 0.26509959 0.24110466 0.15156558 -0.14678052 -0.117129676 0.030843612
0.07887458 -0.27555788 0.2731183 0.23875836 -0.112543635 -0.3446046 -0.21639591 0.12820616

layer1.bias f4 [128]
00000000: 2a36 da3d 2ce4 57bb b818 2cbe 0d00 4d3e
00000010: e5ba 9b3e 535d e6bd 48cb 9a3e 2011 b43e
00000020: a440 8ebd f519 5ebe b6a7 b6bd 20b8 13be
00000030: ef7b d8bc e4bc 1bbd 790a a2be eac4 3cbe
00000040: 7e4b 40bd b8e3 c4bd 7b48 a73e 2c78 593e
00000050: 9ff0 95be 425b 463e 036b 60bc 4a1f 8fbe
00000060: 53fe b23e 06a8 893e 8d46 213e dd98 83bd
00000070: 8d16 aabd 6651 b23e 2226 afbe 1bce 64be
00000080: e13b 18bd cefa 54be b5d1 96be 654a b2bd
00000090: f1ec 9b3e 3cf1 90be cd3e 28bd 6358 8bbd
000000a0: 9ee4 0f3e 22c4 873d f6e6 54be 8efc 9b3e
000000b0: 06b3 17be af20 8fbe 0825 423d 449b 11bd
000000c0: d571 b43e de2a ad3d e3a5 4bbe 659b d53b
000000d0: 8a93 9cbd ac92 54be b26d 0e3e 1e24 263d
000000e0: 5e82 643e de42 50be 43c7 b73c c784 833d
000000f0: ddd7 90be 2102 14be c63b 8b3d 6547 b4be
00000100: b589 983c 017f 48be 96a6 a63e 92cd 633c
00000110: 97e4 f5bd a772 2e3e 33ef 183e e12c 90be
00000120: de4d a53b b729 013e 5132 97bc 0a0a cd3c
00000130: b33d 8a3d 631c 6dbd d304 8e3d 4bd1 653e
00000140: c060 1e3d a438 6f3e 2a84 e7bd 5976 cfbd
00000150: a85d 7fbe 5d1d 8e3e 03eb a23c f045 9e3e
00000160: 3f8e 10be 12c2 6dbd 819a e3bd f859 633e
00000170: 779f 91bd b435 7b3e c0aa 8e3e a4a1 803e
00000180: e413 453d 4417 5b3e 6daa 95be 7bdf 7cbe
00000190: fca5 083a 65cd b0bd 1dde 0abe 207a 143e
000001a0: 1ecc 03be 9731 47be 4fdd 49bc 026a 5b3e
000001b0: be27 5b3e f6df af3d a6d9 953e 5495 a3be
000001c0: 6178 aebd bd39 b1bb 5f6e 36bd 0cca 583e
000001d0: 61be aabd 11eb 66be 561e 6cbe 05a4 0a3e
000001e0: 172e 68be 1e2a 133e 75ef 973e b3ee 403b
000001f0: 150e 403e 0eba 1a3e f116 2ebe e254 92bd
0.10654862 -0.0032942398 -0.16806304 0.2001955 0.30416027 -0.11248269 0.30233216 0.35169315
-0.06945923 -0.2168959 -0.08918707 -0.14425707 -0.026426284 -0.038021937 -0.31648615 -0.18434492
-0.046946995 -0.096137464 0.32672486 0.21237248 -0.29285142 0.1937075 -0.013697389 -0.2795356
0.3495966 0.26886004 0.15749569 -0.06425641 -0.083050825 0.34827727 -0.3420878 -0.22344248
-0.03716648 -0.207988 -0.2945687 -0.08705596 0.3045421 -0.28309047 -0.041075516 -0.06803968
0.14052054 0.06629206 -0.2079123 0.3046612 -0.14814386 -0.27954623 0.047398597 -0.035548463
0.35243097 0.08455442 -0.198875 0.0065187686 -0.07645328 -0.20759076 0.13909033 0.040561788
0.22315356 -0.20338008 0.022433883 0.0642181 -0.2828969 -0.14453937 0.0679851 -0.3521072
0.018620351 -0.19579698 0.3254897 0.013903992 -0.12006491 0.17035924 0.14934997 -0.2815924
0.005044683 0.12613569 -0.01845661 0.025029201 0.067500494 -0.0578884 0.06934514 0.2244312
0.038666487 0.2336145 -0.11304505 -0.10129995 -0.24938071 0.27756777 0.019887453 0.30912733
-0.14116763 -0.058046408 -0.11113454 0.22202289 -0.07110494 0.24532205 0.27864647 0.25123322
0.048114672 0.21395594 -0.29231587 -0.24694626 0.0005212722 -0.08632926 -0.13561292 0.14499712
-0.12870833 -0.19452511 -0.0123208305 0.21427158 0.21401879 0.08587639 0.29267615 -0.31949866
-0.08519054 -0.0054084943 -0.04453885 0.21170825 -0.08337093 -0.22550608 -0.23058447 0.13539131
-0.22673832 0.14371535 0.2967488 0.002943915 0.18755372 0.15110037 -0.17000939 -0.07145096

layer2.weight f4 [128, 128]
00000000: c9da 6d3d 2000 98bd 3b0e a8bc 75eb 863d
00000010: f0ad 153c 8535 a13d 0743 293d 2496 edbb
00000020: f923 0b3b a2c6 b9bc 2c9d a53d 94ef d6bc
00000030: 82b1 93bc f819 ef3c cef7 803d 70a0 393d
00000040: 24fe 7abd cfc4 953c 6cf0 01bb b82e 293d
00000050: 3f63 55bd 64d6 b23d 9eba 4bbd 1f21 a9bd
00000060: 33b4 18bd dfb6 7d3d f581 b0bc b8ea a2bd
00000070: 4ae1 1a3d b818 82bd 67c9 4c3d aed3 90bd
00000080: 3088 2cbc 33e6 85bd 02a1 d5bc 0978 b43c
00000090: a8f7 083c 2a85 57bd e054 5d3d 3b37 313d
000000a0: f3e2 f6bc c241 57bc 149e adbb ee8e a33d
000000b0: e9c0 63bd 8416 0b3d 58ad 88bc cc1d af3d
000000c0: dce0 a43d b496 023d 2369 03bb d8e5 913c
000000d0: 4013 843d 43bc a33d a7e3 143d 1d11 a4bd
000000e0: 1c38 2ebd da70 86bd f018 003d 7e1e 533d
000000f0: 800e 86bd 2094 b03d 0aed 8c3d 3a6a e2bc
00000100: 6623 a13d 1b0b 94bd d521 a93d 2e60 88bc
00000110: 147e d03c 4972 9a3d efc3 39bb c89c 56ba
00000120: 0546 12bd 8f39 963d d3a8 6fbc 4e61 1e3d
00000130: 45ee 1c3d fdc1 b5bc db27 2ebd abbc 17bd
00000140: b383 f4bc a7ae 62bd 0c36 53bd 07c9 a63d
00000150: f823 8cbc 8db8 623d df68 423d 536f 243d
00000160: b5fb 0fbc 4789 09bd a56b a2bb c330 8e3d
00000170: 62bb 1c3d 7c30 67bc 611d 00bc c53c 9c3d
00000180: 968a e9bb 8fe9 713c ecd3 803c 83b9 75bd
00000190: 7c25 77bd 4c5d 993d 7242 8dbd 1e17 f33c
000001a0: 091e b83c e8e3 553d 7935 98ba 764c a5bd
000001b0: c5eb cb3c 83d7 723d ef3d cf3c 5c7a 143d
000001c0: 8927 0a3b 9332 8b3d 249f fd3c fef8 913d
000001d0: 26d8 8ebd 2000 56bd b1c4 51bd 08d1 693d
000001e0: 37a5 b23c 0fb4 a5bd b8cb 4bbd 86d1 2d3d
000001f0: 61f2 81bd 6c66 673d 80b0 b4bd 2f04 ac3d
00000200: 7a10 d4bc 5e14 a1bc 9cbf 0a3d fbc3 3dbd
00000210: 5516 a03d 39d8 583d 824e 01bd fd01 74bb
00000220: 73ac a0bd 0f5e b1bd c234 b7bc c436 16bd
00000230: e380 6dbc bff8 70bc a8ba 393c 756f 8a3d
00000240: 3366 5bbd 76f6 223c 2f41 1c3d 018c a73d
00000250: 57b2 643d 71a3 11bd b900 3a3d 713e 833b
00000260: 2128 22bd 4c2b ae3d 6db2 563d b5e4 503d
00000270: 9148 1cbd 8e5a a2bd 55b5 b0bd 0751 2d3d
00000280: c287 90bc 0123 cebc c14c b33d 08aa 34bd
00000290: b8fa bcbc b808 a7bd 2f55 903d dc73 62bd
000002a0: cacb 723d 19e3 80bd d2e5 5bbd 0c29 69bd
000002b0: e2a7 d03c 2515 073c eff4 6cbd 4882 bebc
000002c0: c26c 90bb bdc4 68bd eeaa 9e3c 1e45 2dbc
000002d0: be88 45bc b763 6d3d 7f34 b1bd e312 8cbd
000002e0: 04db a83d 16df b2bd f615 513d 4473 943d
000002f0: 1ac3 77bd 8a57 613b 1902 2d3d 0c9c adbd
00000300: 3d14 b1bd 6d3d 98bd 0b40 a8bd 5440 8bbd
00000310: 4640 9c3d 2f84 1ebd 332b 7f3d 27b4 163d
00000320: e977 8dbd 872c 82ba 6d9d 6f3c 84f8 923d
00000330: a80e 5cbd 60e3 25bd c997 823c 14aa 6a3d
00000340: a810 34bd c5ce 853c 96da b93c 5f70 903d
00000350: cabb 3a3d 1e47 95bd a682 883d 11c7 643d
00000360: 939b 8dbd a66d b23d 78d2 4d3d cff2 8abd
00000370: fe45 f63b 012a 823d f929 1abc 0a68 4bbd
00000380: 33d7 77bd ff2a 9fbd 5b46 df3c d751 52bd
00000390: 8d83 0c3d f15b e43c 50cb adbd 38b7 a2bd
000003a0: fc56 c83c cc0d 2f3d 99fc 963c 921a 423d
000003b0: ecd4 cfbb 9f50 b73c 9be8 aa3d a809 94bd
000003c0: 8fd8 013b a290 9c3d a38e 7a3d 8575 eabc
000003d0: 1d4d 25bd 464a 143d 62d3 863d 506e 5a3d
000003e0: d640 b0ba 7200 1f3d 7320 463d a1a4 5a3b
000003f0: 3a2d e03c 29ef 1b3d f38c a0bd 4c6c 883d
0.058069978 -0.07421899 -0.020514598 0.065878786 0.009135708 0.07871536 0.041323688 -0.007250564
0.0021231158 -0.022677723 0.08086619 -0.026237287 -0.018028978 0.029187188 0.06297265 0.04531902
-0.061277524 0.018282322 -0.001982714 0.04130432 -0.0520966 0.08732298 -0.04973852 -0.082582705
-0.037281226 0.061941978 -0.021546343 -0.07954925 0.03781251 -0.06352371 0.04999676 -0.07071625
-0.0105305165 -0.06538048 -0.026077751 0.022029893 0.008359827 -0.05261723 0.05403602 0.043265563
-0.030137515 -0.0131382365 -0.0052983854 0.07986246 -0.055603895 0.03395702 -0.01668422 0.08550605
0.08050701 0.031882003 -0.002005168 0.017809793 0.06448984 0.079948924 0.03634992 -0.080110766
-0.04253398 -0.065644935 0.031273782 0.05154275 -0.065457344 0.086220026 0.06881149 -0.027638543
0.0786808 -0.07228681 0.08258406 -0.016647425 0.025450744 0.075413294 -0.0028345545 -0.00081868144
-0.035711307 0.07335197 -0.014627653 0.038667016 0.03831317 -0.022187227 -0.042518478 -0.037045162
-0.029847955 -0.055342343 -0.051565215 0.08143812 -0.017106995 0.055351783 0.047463294 0.04014523
-0.008788039 -0.033578184 -0.00495668 0.06942894 0.03826464 -0.014110681 -0.0078195045 0.07628778
-0.0071271164 0.014765157 0.015726052 -0.05999137 -0.060338482 0.07488498 -0.06897439 0.02967411
0.02247526 0.0522193 -0.0011612616 -0.080712244 0.024892697 0.05928756 0.025298087 0.036249503
0.0021080694 0.06796756 0.030959673 0.071275696 -0.06974821 -0.052246213 -0.05121297 0.057084113
0.021807296 -0.08090984 -0.04975483 0.042436145 -0.06345058 0.05649416 -0.08822727 0.083992355
-0.025886763 -0.019663032 0.03387414 -0.04632948 0.078167595 0.05294058 -0.03156901 -0.003723263
-0.07845392 -0.086605184 -0.022364024 -0.036673322 -0.014496061 -0.014707743 0.011336006 0.0675954
-0.05356426 0.009946456 0.0381481 0.081810005 0.05583414 -0.03555626 0.045410845 0.0040052463
-0.03958905 0.08504352 0.052416254 0.050999362 -0.038155142 -0.07927428 -0.08628336 0.0423136
-0.01764286 -0.025163176 0.08754874 -0.044107467 -0.02306877 -0.0815596 0.070474975 -0.055286273
0.05927638 -0.062933154 -0.05368597 -0.05692391 0.025470678 0.008244787 -0.057850774 -0.023255482
-0.004407496 -0.05682825 0.019368615 -0.010575561 -0.012056528 0.057956424 -0.08652591 -0.0683954
0.08244899 -0.087339565 0.051046334 0.07248548 -0.060488798 0.0034384453 0.04223833 -0.08477029
-0.08646438 -0.07433591 -0.0821534 -0.06799379 0.07629447 -0.03870028 0.062297057 0.0367929
-0.06907637 -0.0009931483 0.014624936 0.07176307 -0.053724915 -0.040500045 0.015941517 0.057291105
-0.043961197 0.016333947 0.022687238 0.07052683 0.045589246 -0.07288955 0.06665544 0.055853907
-0.06914439 0.0871232 0.050249547 -0.06784593 0.007515668 0.06355668 -0.009409421 -0.049659766
-0.060507964 -0.07771873 0.027255228 -0.05134758 0.034305144 0.027875872 -0.084860444 -0.079451025
0.02445554 0.042737767 0.018430995 0.04738862 -0.006342521 0.02237731 0.08345147 -0.07228404
0.0019812917 0.07644774 0.061171185 -0.02862049 -0.040356744 0.036203645 0.06583287 0.05332786
-0.0013447057 0.038818784 0.04837079 0.0033362287 0.027365316 0.038069878 -0.07839384 0.06661281

layer2.bias f4 [128]
00000000: 0b29 81bd 26fa 4abd 71fb db3c 5f81 9dbd
00000010: 610f 633d 452c 46bd 5fc6 a1bd 7893 3f3c
00000020: b485 e0bc 5e2e 753d 8d8d 86bd d199 70bd
00000030: 3b1a 6b3c 94c9 273d 5d92 97bd cea9 943d
00000040: 5e5f 3c3d bd4a cdbc c3aa 1f3d d9b8 7bbc
00000050: 08a0 a3bc baa6 b03c 8b3c 25ba ac2c ed3c
00000060: d079 26bc c2d5 3b3d ddc1 81bc 7229 5a3d
00000070: 75a8 cc3b ad80 713d 54ae b43a 5e4e 923d
00000080: 8213 a7bd 3cf0 cf3b c65d 6b3d 5c5a 23bd
00000090: 988f 0ebd dc3b 073d 2976 8ebc 7531 0e3c
000000a0: b0a0 f9bc 27c4 e8bb c101 853d 8de8 4a3c
000000b0: 7a0f 573d 0d4c ad3d 97b3 3e3d f9a3 04ba
000000c0: fb1e 8f3d 8089 95bc 6045 a23d 8b34 2dbd
000000d0: d6bf a13d d302 813d 1603 213d 7ec1 f2bb
000000e0: e413 45bc 1d31 2e3d a895 6d3c 17fe 363c
000000f0: 8079 1abd e332 9cba 1125 9a3d 30cb 30bd
00000100: 7db9 b4bc 9416 cb3c 7a60 db3c 7e51 42bd
00000110: 956b 693d d6d4 3abd 7d62 173d 9042 403d
00000120: c4b9 e8bc cee3 3c3c 4844 353d 80b3 49bc
00000130: a41a 3f3c d682 05bd 8f78 963d c44a 74bd
00000140: 367d 683d 18cd 4cbc 3e33 1c3c 57c3 67bd
00000150: 7a63 213d cd63 f6bc 9212 423d 1922 82bb
00000160: 16a7 37bc b5f0 2abd 6cd9 a03d d6e2 0d3d
00000170: 9619 873d a1bc 643d b1dd a53d c3ea fc3c
00000180: 801e 813b d729 0dbc 5fae 6fbd 92de b4bd
00000190: 86ff a0bd 142d cebc cd57 44bd d6c3 90bd
000001a0: 445d 0ebd 18a1 a3bd 6d9e 003c 767a ca3a
000001b0: 946e b4bd 6e9b 613d d7d5 49bc 034d b43d
000001c0: d7d6 3bbd 0d31 f1bc c77b 3bbd 0767 44bd
000001d0: 4297 2ebd 85ed 1c3c 0377 ad3c dc00 e83c
000001e0: dd99 4abd a054 abbd 079d a3bd 3a7f ae3c
000001f0: d054 afbd d61f cb3c 4573 2a3d 7777 d53c
-0.063066565 -0.049554966 0.026853295 -0.07690691 0.05543459 -0.048382062 -0.078991644 0.011692874
-0.027407505 0.059858672 -0.065699674 -0.05874044 0.014349516 0.040963724 -0.074009635 0.0725895
0.045989387 -0.025060052 0.03898121 -0.015363895 -0.01997377 0.021563876 -0.0006303272 0.028951965
-0.010160878 0.045858152 -0.015839512 0.05326218 0.0062456676 0.058960605 0.0013784864 0.071438536
-0.08158018 0.006345777 0.057462476 -0.039881095 -0.03480491 0.03301607 -0.017390328 0.008678784
-0.03047213 -0.0071034613 0.06494475 0.012384546 0.052504994 0.08461771 0.04655799 -0.0005059834
0.06988331 -0.018254042 0.079233885 -0.042286437 0.07897918 0.06299367 0.039309584 -0.00740832
-0.012028668 0.042527307 0.014501013 0.011168978 -0.037713528 -0.0011917021 0.07526601 -0.043162525
-0.022061104 0.02479104 0.026779402 -0.047441 0.056987364 -0.045613132 0.03695916 0.04693848
-0.028408892 0.011528922 0.04425457 -0.012310863 0.011664066 -0.032595478 0.073472135 -0.059641615
0.056760035 -0.01250007 0.009533701 -0.056582775 0.03940151 -0.030076886 0.04738099 -0.00397135
-0.01120927 -0.041733462 0.0785397 0.034640156 0.06596677 0.055843953 0.08098925 0.030873662
0.0039404035 -0.008615932 -0.058515903 -0.088315144 -0.07861237 -0.02516798 -0.047935296 -0.07068603
-0.034756914 -0.079897106 0.007850272 0.0015447873 -0.088101536 0.05507987 -0.01231905 0.08803751
-0.045859184 -0.029442335 -0.04577234 -0.047949817 -0.04262472 0.009578113 0.021174913 0.028320722
-0.04946314 -0.0836575 -0.07988935 0.0213009 -0.085610986 0.024795454 0.041613836 0.026057942

layer3.weight f4 [4, 128]
00000000: d68f a3bd 3f3b 1fbc e8ab fabc 7c66 573d
00000010: d9e0 423d c208 963d b43f 1e3d fa12 18bd
00000020: b21e 523d 18e5 89bd 7770 37bc 4dbc 81bd
00000030: 65f1 b83c 195c c63c efd2 e43b 40cb f83c
00000040: 27aa 60bd 3a3c 3f3c 0427 82bd bc55 893d
00000050: 885b da3b 0263 52bd f8c5 00bd 4e83 0e3c
00000060: 6e77 803d a863 ec3c f512 873c aac8 02bc
00000070: 8253 b23d 5346 a63d ad2b 37bd c325 533d
00000080: cd1e adbc 9f9c b0bd 4c2c d4bc 9b02 5dbd
00000090: dbec 9c3c ab7a a53d 6396 afbd 2841 82bd
000000a0: a93a a23d 9ae7 e73c fcdd 033c c0cb fe3c
000000b0: a826 b0bd b72f 7bbd a14b 7abd 3319 943d
000000c0: 52d3 10bd 941d 503c 84dd a13b cdf0 7fbd
000000d0: ed28 00bd 1220 aabd c599 83bc 0ba4 b2bd
000000e0: f8f8 a63d 5a21 42bd e0f3 633d 425e 17bd
000000f0: 359b cfba 77e1 d93b a0d8 853b cd73 3bbb
00000100: 3670 a93d 0e84 45bd 0683 8f3d 6985 223d
00000110: 4539 3abc 0293 e8bb 9636 82bd a0ad 1abc
00000120: 45b8 763d b954 3bbd 2197 663c fd4d 6e3d
00000130: 0d47 bc3b d5a1 b0bd a7c6 df3c 66c6 fabb
00000140: a856 ae3c f015 a6bd 4674 db3c 9f6b 9dbd
00000150: 782c 97bd 965c 8fbd ffbb 4dbd 26e2 8c3d
00000160: 4415 f73c 0adf aa3c 49f4 02bd d8a2 6e3b
00000170: c44a 5f3d 88b3 edbc 819a a4bd 2ce1 c53c
00000180: 3473 903d 1544 843d 0738 613c 22f4 9cbd
00000190: 8cad 6cbc f958 a33d 733c 84bd de5c e0bc
000001a0: 004b 58bd d41f 873d 7a59 9d3d b747 8abd
000001b0: 0ce8 3cbd b95c 0abd 0442 76bd 619a 883d
000001c0: ee0e 6dbd 2fd6 60bc 7b2f 90bc 39dc 8c3d
000001d0: 3f58 ac3d 78f7 8c3d 5daf a43d 2849 823d
000001e0: 4740 1abd d828 a6bd 5a7d 21bd 610f b53c
000001f0: f3b6 51bd f3ac b6bb 2973 043d 589a 6abd
00000200: 13c4 a53d 2e8f 393d 88be dd3a 1f07 23bd
00000210: 257e 043d 6d96 07bd 824a a53b c6d4 15bd
00000220: 8363 3c3c 8c5e 4b3d 75f8 40bd 0b86 7c3d
00000230: 96dd 2fbd 0c85 a5bd 14ae 2fbd e151 b33d
00000240: 7e26 76bd ca55 16bd 9180 38bd 8014 90bd
00000250: 0523 21bc 776d 10bd 9ff7 e73b ef27 86bd
00000260: f8c2 923d 093e 853b d638 453a 523f e5bc
00000270: 3d86 073c ed91 863d 4236 1ebd 3102 4bbd
00000280: 779c 25bd bd3c 253d 10a8 973d 47a7 a7bd
00000290: b88b ec3c ad5b 943d 598f 8cbd 8d55 e9bc
000002a0: 2a39 443d cd24 a2bc 8de6 113d a0fc a8bd
000002b0: c89a 24bd b58f 8c3d fb24 813d 93da b7bc
000002c0: 5d26 5a3d 87f0 17bc 97c4 58bd dc06 723c
000002d0: cb87 73bd 6b44 ef37 589b 193d 1e9a 783d
000002e0: 2e5e 1bbc 08b8 98bd 1d9a e6bc cc4b aa3d
000002f0: cf9b 4e3d c393 b43d 4a40 353d 4aaf febc
00000300: 2aec e5bc da75 acbd e838 12bc 4e28 4a3c
00000310: deb2 86bd e538 4b3d 498c fe3c 271f 94bd
00000320: b452 8c3d eba3 84bd e1c5 8dbd a167 8a3d
00000330: d790 9cbd 1906 9b3d 7c98 1bbd 7cb3 0f3d
00000340: 597c 7fbd 8034 2bbd 7260 9cbd bd88 13bc
00000350: 2c4b aa3d 0b40 a33b 02f3 8e3c 0f90 66bc
00000360: 4e15 6dbd a670 9fbd 24b4 0e3d 5311 8e3d
00000370: 4003 99bd a1d4 ddbb 8c69 39bd 6e45 4ebd
00000380: fe75 1b3d af4c 7bbd 53a4 763d 9264 c9bc
00000390: cb01 a9bd 5803 963c 5e02 83bd c418 a73d
000003a0: ba00 933d 0354 a43c 9ca4 bcbc 41d5 4d3d
000003b0: 69ed 423d 7cf1 05bd 57a5 c83c a6bd 5bbd
000003c0: ea3e 873d 8164 f7bc ee38 273d 4c0e a23d
000003d0: 8f47 fb3c 7743 883d ea32 193d 0de3 41bc
000003e0: 8024 97bd 0711 993b 13e4 5dbd 7097 ab3c
000003f0: 4c00 61bd 150c cfbc 2d41 e1bb a10f a03d
-0.07986419 -0.009718715 -0.03059955 0.05258797 0.047577713 0.07325889 0.03863497 -0.037127472
0.051298805 -0.06733149 -0.011196247 -0.06334744 0.022576043 0.024213837 0.006983153 0.030370355
-0.05484977 0.011672074 -0.06355098 0.06705806 0.0066637434 -0.051363952 -0.031438798 0.008698298
0.062727794 0.028856114 0.016488532 -0.007982412 0.08707334 0.08118882 -0.044719387 0.051549684
-0.021132851 -0.08623623 -0.025900029 -0.053957563 0.01915591 0.08080038 -0.08573606 -0.06360084
0.07921345 0.028308678 0.008048531 0.031103015 -0.08601123 -0.0613248 -0.06110728 0.07231369
-0.03535778 0.0127023645 0.004939737 -0.062485505 -0.03128903 -0.08306898 -0.016064534 -0.08722695
0.08152956 -0.047395088 0.0556525 -0.036955126 -0.0015839102 0.006649192 0.0040846616 -0.0028602958
0.08273356 -0.04822164 0.070074126 0.03967801 -0.011366193 -0.007097603 -0.06358068 -0.0094408095
0.060234327 -0.045735095 0.014074118 0.058179844 0.0057457746 -0.08624617 0.027316405 -0.0076530455
0.021281555 -0.08109653 0.026788842 -0.07686543 -0.073815286 -0.07000081 -0.050228115 0.06879072
0.030161507 0.020858306 -0.03197125 0.003641298 0.05451466 -0.029016271 -0.08037282 0.024155222
0.07053223 0.06458298 0.013746268 -0.07663752 -0.014445674 0.079759546 -0.06456842 -0.027388033
-0.0528059 0.065978676 0.07683082 -0.0675196 -0.046119735 -0.033779833 -0.06012155 0.066700704
-0.057875566 -0.01372294 -0.017600765 0.06877942 0.08415269 0.068831384 0.080412604 0.0636161
-0.037658956 -0.08113259 -0.039426185 0.02210206 -0.051199865 -0.0055748164 0.032336388 -0.0572761
0.08094039 0.045302562 0.0016917745 -0.039801713 0.032346863 -0.03310244 0.0050442824 -0.03657987
0.011498335 0.049650714 -0.047111947 0.06165127 -0.04293593 -0.08082017 -0.042890623 0.087558515
-0.060095303 -0.03670291 -0.045044485 -0.0703516 -0.009835009 -0.035260644 0.0070790793 -0.065505855
0.071660936 0.004066233 0.0007523423 -0.027984295 0.008271751 0.06570802 -0.038625963 -0.049562637
-0.04043242 0.040341128 0.07405102 -0.081862025 0.028875217 0.07244048 -0.06863279 -0.028483177
0.04790608 -0.019792939 0.03562026 -0.082513094 -0.040186673 0.068633474 0.063058816 -0.022443091
0.053259242 -0.009273655 -0.052921858 0.014772143 -0.059455674 2.852288e-05 0.037501663 0.060693853
-0.009482903 -0.07456976 -0.028149659 0.08315238 0.05044156 0.08817246 0.044250764 -0.031089444
-0.028066713 -0.08420916 -0.0089247 0.012338711 -0.06577085 0.049614806 0.031072753 -0.07232504
0.06851712 -0.06476577 -0.06922508 0.06758047 -0.076448135 0.075695224 -0.037987217 0.03508328
-0.062374447 -0.041798115 -0.07635583 -0.009004769 0.08315119 0.0049819998 0.01744986 -0.014072432
-0.057881646 -0.07785158 0.034839764 0.06936898 -0.07471323 -0.006769732 -0.045266673 -0.050359182
0.037954323 -0.061352428 0.060215306 -0.024584088 -0.08252295 0.018312141 -0.06396936 0.081590205
0.07177873 0.020059591 -0.02302771 0.050252203 0.047589693 -0.032701 0.024492903 -0.05364766
0.06603797 -0.030199291 0.040825777 0.07912883 0.03067377 0.06653493 0.03740207 -0.011833918
-0.07380009 0.0046712193 -0.054172587 0.020946234 -0.054931924 -0.025274316 -0.0068742246 0.07815481

layer3.bias f4 [4]
00000000: 5f5a 603d d58c 18bd 7640 1d3d 7e65 203d
0.054773685 -0.037243683 0.038391553 0.03915929
